lstm_weather_model.pth (torch, 61537 bytes, 5 tensors)

lstm.weight_ih_l0 f4 [200, 22]
00000000: be64 96be e707 a33e c568 66be fff6 933d
00000010: ad2f 49be 59f7 4f3d f76b 7e3e 12e7 2b3e
00000020: 9d24 c1be a0c6 ee3d cdff d7be 189e 2dbd
00000030: b9be 19be 0aac d63e 14c8 15be f88f 96be
00000040: af79 0ebe 5172 423e 4bcb 143c 0ae3 22bd
00000050: a5e0 91bd cb8a dabc a369 383c 2787 b83e
00000060: 54bd f53c 9160 3e3e d056 15be f9ca 91bd
00000070: d91b afbc d1c9 163e 37fc b6bd bb11 e4bd
00000080: 2dc1 bfbe f5a4 54bc 9800 40be a25c 8f3d
00000090: 74bd dc3d 8eef 82bd 5abd 7abd 7f58 213e
000000a0: b596 adbd 6b9b f7bd 3cb2 e6bd 65a2 103e
000000b0: 0026 5cbe cb0b e1be c7d2 983e 05e6 bb3e
000000c0: afa1 99be 9fb8 4d3e 2dea febe 5d3a e4be
000000d0: 7946 893e d9b4 1fbe 29df 383e fff0 943d
000000e0: 3f93 113e c0fc c2bd 2a59 f33e 9d6d 003f
000000f0: 781c 07be 8ab1 34be bf37 a1be b2a9 acbe
00000100: c07a d63d 4ae4 cebd 2203 a83c b3f0 693e
00000110: 4fc7 ea3c db57 15bd 96e2 61be 81be 783e
00000120: 16d5 aa3d a76b c43c e4e1 243e 3095 fc3c
00000130: 8e84 cdbb 569a aabd 16a1 893d 5db6 403f
00000140: 4134 043e ecd1 87be b8a6 f9bd f0a9 5fbe
00000150: 4164 3fbd 377a cebd ce16 fbbd b898 843e
00000160: fc3c 07be 7aa7 04bf e0b9 ff3e a2f9 da3d
00000170: d832 a6bd 4aab 3e3f e25a 0cbf 732e 3abe
00000180: 741c 8e3e 137b 463e cc50 253e 02d6 debd
00000190: 7554 72be 42fd af3e 83ca a43e 1f8b 0b3f
000001a0: 5060 6dbc 9b06 8cbe 10fd ed3c bdf9 3a3d
000001b0: 0437 b7bd b189 25bf 0684 b73d 98a1 0fbd
000001c0: 74b1 063e 110f 1d3d 7655 543d 6ee2 16bb
000001d0: 42ef 20be 1c36 f23d 76da 043e bc04 753c
000001e0: d946 a1bd 437f 32bd b702 a73e 5fbf 893d
000001f0: 7e93 9c3d 0c4e 1ebe b83c c8bd edea 9dbe
00000200: 8b01 93bd 40e3 1dbe 20bb e53b 424b 53bd
00000210: 034e 093f d5ed ac3d 7765 823d 6390 d9be
00000220: 4ec8 abbd d106 afbe c6bd 233e ad07 c6be
00000230: c7c2 c03c 6b71 95be 118c bf3d 7b13 8e3e
00000240: 8c56 0a3f bb68 3fbd 998d 363e 172e d3bd
00000250: bb6a 093e 8f7b bc3d 152d 883d b261 adbd
00000260: 8eef fcbd c6c9 17be 90b3 853e fd50 cabd
00000270: e375 b0be 4850 40be e2f2 9fbe ea36 93be
00000280: 4d03 9fbe 1939 a4bc 7f76 3f3e 9775 dfbe
00000290: 70ec a8be 5a90 873e 8c98 d43e 33d4 5c3f
000002a0: a8ff 273e 8c50 c1be 7486 afbd 771f 1abe
000002b0: 10b5 1ebd eedc 95bd 2894 b13c d55b 6b3e
000002c0: 3b4f 833e 198d 943d d7c5 c53e 4a8a ec3e
000002d0: cfbd e335 d5db 97be c614 fe3d 0a9b f0be
000002e0: 6bff 9b3e 4f5d 0cbc 9d3b 8bbe cb90 f1ba
000002f0: 9219 eb3e 39ea 1e3e 7026 4d3e 2224 bb3e
00000300: 88f7 84bd bdee ebbd c967 aa3e b2e5 24bc
00000310: 801e b8ba b965 eb3d e74e cf3e 6f76 183f
00000320: c93f ddbc 9cab b13d acab 673e 3c98 a83e
00000330: 65f5 613e 20d7 2c3d cf72 a03e ac26 ea3c
00000340: 4cd2 20bf 6812 063e a83c f3bd 67a6 de3e
00000350: a7ed f13c 38d0 b63d 24de 6a3d a376 0bbe
00000360: 4e64 41be 961e 913e c0ee a03b ffa2 3c3e
00000370: 64e9 803d 157a be3e ec5b 84bd e642 36bd
00000380: bd97 113e 83ed 863e 9897 9bbe 92dc 37be
00000390: 146f 40bc fd5d 2abd 9125 cdbe 58c3 7dbd
000003a0: e33b 0b3e 328c 2d3f 2e26 0d3f 8835 eebd
000003b0: 969f f9bd c740 9a3e 787b ab3b 8b66 9ebe
000003c0: 00f0 adb9 bbff 283e 694c 1ebc c393 ddbe
000003d0: 5c3b 3c3e 3f8d a53e af07 9f3e 66c1 f43e
000003e0: 4cce e1be 7303 073e 5180 95be 43d7 15be
000003f0: 4913 0e3e 5f9d a83e d492 c63b 97c6 84be
-0.29373735 0.31841967 -0.22500904 0.07224845 -0.19647093 0.050773 0.24845873 0.16787365
-0.37723246 0.116589785 -0.42187348 -0.042387098 -0.15014161 0.4192813 -0.14627105 -0.29406714
-0.13913606 0.18988921 0.009081672 -0.039767303 -0.07122926 -0.02667751 0.0112556545 0.36040613
0.029997505 0.18591525 -0.14583898 -0.07118792 -0.021375583 0.14725424 -0.08934825 -0.11136194
-0.3745207 -0.012978782 -0.18750226 0.0700009 0.10778323 -0.06393348 -0.061215736 0.15756415
-0.08476011 -0.120901905 -0.11264464 0.14124449 -0.21498871 -0.4395431 0.2984831 0.36698928
-0.30006167 0.20089959 -0.49788037 -0.44575778 0.2681158 -0.15596332 0.18053879 0.07272529
0.14216326 -0.095208645 0.47528964 0.50167257 -0.13194454 -0.17645851 -0.31487843 -0.33723217
0.104726315 -0.101021364 0.020509306 0.22845726 0.02865949 -0.03646074 -0.22059092 0.24291421
0.08341424 0.023977114 0.16101795 0.030832857 -0.0062719053 -0.083302185 0.06720178 0.75278264
0.12910558 -0.26527345 -0.12190002 -0.2184217 -0.04672647 -0.100819044 -0.12260209 0.25897765
-0.13206857 -0.5181805 0.499465 0.10692145 -0.081151664 0.74480116 -0.54826176 -0.18181781
0.27756083 0.19382887 0.16144103 -0.108806625 -0.2366503 0.34372908 0.32185754 0.54509157
-0.014488295 -0.2734879 0.029051334 0.045648325 -0.0894604 -0.64663225 0.08960728 -0.035066217
0.1315363 0.038344447 0.051839314 -0.0023023146 -0.1571627 0.11826727 0.12973961 0.014954742
-0.07874841 -0.043578397 0.3261926 0.06725954 0.076453194 -0.1545946 -0.09777206 -0.30843297
-0.07178029 -0.1541872 0.0070108324 -0.051585443 0.5363466 0.084438 0.06367009 -0.4249297
-0.083878145 -0.34184888 0.15990362 -0.3867773 0.023530377 -0.29188094 0.093528874 0.27749237
0.5403831 -0.046730738 0.17827453 -0.10311525 0.1341962 0.092032544 0.06649224 -0.084658995
-0.12350379 -0.14823064 0.26113558 -0.098787285 -0.3446494 -0.18780625 -0.31239992 -0.28752834
-0.31057206 -0.020046758 0.18697546 -0.436444 -0.32992887 0.2647732 0.41522634 0.8626129
0.16406119 -0.37756765 -0.08570567 -0.15051065 -0.038746893 -0.073175296 0.021677092 0.2298425
0.25646386 0.07253475 0.38627502 0.46199256 1.696806e-06 -0.29659906 0.12406306 -0.46993285
0.30468306 -0.008567168 -0.2719392 -0.0018429992 0.45917946 0.15519036 0.20034194 0.36551005
-0.06492525 -0.11520145 0.33282307 -0.010064529 -0.0014047176 0.114940114 0.40489885 0.59555715
-0.027007954 0.0867531 0.22624081 0.32928646 0.22066267 0.042197347 0.31337592 0.028582893
-0.6282089 0.13092959 -0.11876804 0.4348633 0.029532267 0.08926433 0.057340756 -0.13619475
-0.1888592 0.28343648 0.0049112737 0.18421553 0.06294516 0.37202516 -0.06462845 -0.044497393
0.1421804 0.26353082 -0.30389094 -0.17955235 -0.011745233 -0.04159354 -0.40067723 -0.061953872
0.13597064 0.67792046 0.5513638 -0.11631304 -0.12188642 0.30127546 0.0052332245 -0.3093761
-0.00033175945 0.16503803 -0.009661772 -0.43276796 0.18382019 0.32334325 0.3106055 0.478038
-0.44102705 0.1318491 -0.2919946 -0.14632897 0.13874544 0.32932565 0.0060599837 -0.25932762

lstm.weight_hh_l0 f4 [200, 50]
00000000: 7bd5 d53e 1d92 943e b223 1b3f 5ac1 1c3f
00000010: b5e4 8a3e f7a0 8a3e 7e6f 513f 710f c0be
00000020: 653a 05bf 9905 04bf fcbc 1a3e 93a2 db3e
00000030: 587d b93d f58a 0abf 1558 893d c037 b6bd
00000040: 510d 88bd 2b98 ba3e 0dc3 783e fda1 8abd
00000050: af6e 99bd e29e ad3e cfd6 813d 202d 9bbd
00000060: 5a30 113f 8877 d03e 2aec fdbe 2cac fd3e
00000070: 6382 9fbe e39a 98be 264c 8bbd f57f d7bd
00000080: 3867 583e 0772 7b3e 0f37 8a3e 4a06 5c3c
00000090: 03f5 c93e 65e1 0bbd 9294 c2be add0 d33e
000000a0: 6bd0 dfbe b8c6 683d 2e51 c43e d3bc 8c3d
000000b0: 3666 0d3f 874f aa3e 4ef6 5f3e 8e93 dd3e
000000c0: f902 f43d 2f5e 533f 162e 29bf 4fd0 f43e
000000d0: cf88 9a3f 449c 21be e2f0 6b3f 04c4 20bf
000000e0: 82bf f43e 5405 81be f88f 2fbf 5bb0 983f
000000f0: a3b5 80bd e82a 7f3e dc6c 59bf 917b 93be
00000100: 5b43 783d 04b6 d63e cdc6 993f b1a8 81bd
00000110: c1ea 023f 5414 283f 87e3 89bf c19b 9c3d
00000120: b448 a2be fb4c 953e 8640 463f 0655 883e
00000130: 8394 84bd e1c6 e0bd 845e e63e 15a4 87bf
00000140: 96f5 083c b6bc ea3e f254 f8be 52b1 3d3f
00000150: 7c7c 6bbe ad27 813f 2acf e43e c81d 6cbf
00000160: 8057 f2bd d87d babd b942 973e 42ab 0dbe
00000170: 29ea 92be 8f71 713e 606c 413f d53e bf3d
00000180: 6dab 653f 4f33 98be 196b 65bd 06d4 4e3f
00000190: 10ce bdbf 00fe 883e e1fe 4dbe 615f 493f
000001a0: e6bc 413f a7a3 c3bf d376 533d e4d2 a4be
000001b0: ed3f 653f 9a83 9e3f 6852 99be da11 a13f
000001c0: 1309 8e3e b869 71bf d3cd c9be 2cdf 90bf
000001d0: d6a1 133e 7d11 4a3f 49d4 0640 8a36 45bc
000001e0: 1d9a 66bf 9258 cc3e c2bd 033f fe11 6fbf
000001f0: 2ee3 623e e188 a63e 4c5a 963f 7879 343d
00000200: ad70 acbe 68d4 983e c6b0 c8be 94aa 7ebe
00000210: b54c db3e 91dc 7c3f fa30 9e3f 1517 863f
00000220: cf03 953f 0c36 18bf a325 74bf 392c 2bbf
00000230: 9b8f c33e 34b6 1a3e 0ba4 95bf 2976 473e
00000240: 2912 07bf 90f2 e23e d979 3fbf ccd1 f5be
00000250: 7d20 d8bd 1a89 963e c252 70bf 6b70 003f
00000260: a6a9 2f3d 3535 2a3f d48a 453f 6218 833c
00000270: 5780 173f 750a 7fbf 1e92 153f c201 483d
00000280: bc2d 62be 4346 c63e 23ed 723f c427 dd3d
00000290: 7b0d 1fbf 013a 183e 7a0b 16be b45c e23e
000002a0: d529 553e 6965 1abd 7808 873f 4777 1cbe
000002b0: 764c 073f 08b0 053e 0d47 513f 8dc4 fe3e
000002c0: 5d49 d43e 2618 b03e 5e62 91bf 11cb 37be
000002d0: ccff 0dbe 6d60 e0be 9071 b2bd 102e 313f
000002e0: 39be 4bbe 287f 783e 1265 f93e 3018 08bf
000002f0: 29de 93be 46b3 febe b34a 7f3f 1ab3 f33e
00000300: ebf4 cabe 463c 06be 5732 b53e 6af1 cd3e
00000310: 6b56 11be 9d3f cabe 4d7e b03b d992 c63e
00000320: d08b 59bf 201a 9ebf 5d76 62bf be9b 5d3f
00000330: bdda ba3c 5646 32bf b1ab 92be 45d4 18bf
00000340: d6fc bb3e 7c28 3fbf 98e4 15bf 6ca3 653f
00000350: 9879 003f 20f3 4fbf 166b 77be 3ebf 26bf
00000360: f912 c8bd b165 7f3e 0029 8e3f 91c9 b7be
00000370: c962 663f 5681 b1be 50fc 803f 91e0 ccbe
00000380: f6c3 1ebe 68d0 2d3e 9396 56bd 6c1c 34bf
00000390: de28 c6be 054b b73e 2de6 0b3e 81b0 07bf
000003a0: f23b fabd 3807 853e 3134 463e d86f 0e3f
000003b0: fd3d aa3f 001f d73e 181b 36bf 2d37 45bf
000003c0: a28b fdbd b74f 1d3f 4a1e 90bf b68f 493e
000003d0: ab75 b0be b70e d13e 46c8 70bf 19b2 02bf
000003e0: 4a84 013f 6923 763e acda 76be aa4c 843f
000003f0: 6233 a43e fe82 223f f413 253e ae22 9e3e
0.41764435 0.29017726 0.6060134 0.6123253 0.27127615 0.2707593 0.8181075 -0.3751178
-0.5204223 -0.5157104 0.15111154 0.42897472 0.090571105 -0.5411828 0.067062534 -0.08897352
-0.06643165 0.3644422 0.24293156 -0.06769178 -0.07491814 0.3391028 0.063397996 -0.07576966
0.56714404 0.40716195 -0.4959424 0.4954542 -0.31154165 -0.2980567 -0.068016335 -0.10522453
0.21133125 0.24555217 0.2699513 0.013429234 0.39444742 -0.0341505 -0.38003975 0.41370144
-0.43713698 0.056830138 0.38343185 0.06871953 0.55234087 0.332638 0.21871302 0.43276638
0.119146295 0.8256559 -0.66085947 0.47815177 1.2073001 -0.15782267 0.92164433 -0.62799096
0.4780236 -0.25199378 -0.68579054 1.192882 -0.062846445 0.24918711 -0.8493173 -0.2880521
0.06061111 0.41935742 1.2013794 -0.063310035 0.51139456 0.6565602 -1.0772561 0.07646895
-0.31696093 0.29160294 0.77442205 0.26627368 -0.06473639 -0.10975433 0.44993985 -1.0596949
0.0083593335 0.458471 -0.48502308 0.74098694 -0.22996706 1.0090233 0.44689304 -0.9223294
-0.118330956 -0.09106034 0.29543093 -0.13834861 -0.28694275 0.23578475 0.7555599 0.09338156
0.897147 -0.29726645 -0.05601034 0.8079227 -1.482851 0.26756287 -0.2011676 0.7866116
0.7567886 -1.5284318 0.05162699 -0.32192147 0.8955067 1.2383912 -0.29945683 1.2583573
0.27741298 -0.9430194 -0.39414844 -1.1318107 0.14417204 0.78932935 2.1067069 -0.012036929
-0.9007891 0.39911324 0.5146142 -0.9338683 0.22156975 0.32526305 1.1746306 0.044061154
-0.33679715 0.29849553 -0.39197367 -0.24869758 0.4283196 0.9877406 1.2358696 1.0475794
1.1641787 -0.5945747 -0.9536993 -0.66864353 0.381955 0.15108567 -1.1690687 0.19478668
-0.52762085 0.44325686 -0.747953 -0.48011625 -0.10553072 0.29401475 -0.9387628 0.50171536
0.0428864 0.6648744 0.7716496 0.016002838 0.59180206 -0.9962533 0.5842608 0.0488298
-0.22087759 0.3872548 0.9489309 0.107986 -0.62129945 0.14865877 -0.14652815 0.44211352
0.20816739 -0.03769437 1.054946 -0.15279876 0.52851045 0.13055432 0.8174904 0.4975933
0.41462222 0.34393424 -1.1358144 -0.17948557 -0.1386711 -0.43823567 -0.087130666 0.6921091
-0.19896783 0.24267256 0.48709923 -0.5316191 -0.28880432 -0.4974615 0.99723357 0.4759758
-0.39639983 -0.1310893 0.3538997 0.40223247 -0.14193122 -0.39501658 0.00538615 0.3878391
-0.8497896 -1.2351723 -0.8846186 0.8656577 0.02280938 -0.69638574 -0.28646615 -0.596989
0.36716336 -0.7467115 -0.5855193 0.89702487 0.5018554 -0.81230354 -0.24161944 -0.6513556
-0.09769244 0.24941136 1.1106262 -0.3589597 0.89994484 -0.34668988 1.0077 -0.4001508
-0.1550444 0.16974032 -0.052389693 -0.7035587 -0.38703054 0.35799423 0.13662024 -0.530037
-0.12218465 0.2598207 0.19355847 0.5563941 1.3300167 0.4201584 -0.7113509 -0.77037317
-0.123801485 0.6144976 -1.1259243 0.19683728 -0.34464774 0.4083154 -0.94055593 -0.51053005
0.5059248 0.24036945 -0.24106854 1.0335896 0.32070452 0.6348113 0.16120893 0.30885834

lstm.bias_ih_l0 f4 [200]
00000000: b20b 9ebe 5093 52bf 7668 59bf fedc 9d3d
00000010: 74f2 40bf 8b23 dbbd 40f1 19be 694e ecbe
00000020: 4f77 9bbe d302 47bf 530e c5be aa70 4bbf
00000030: 8763 05be 3db4 c5be 2af9 89be dcdc e83e
00000040: 7524 17bf 8f54 143d 19bd 60bd b7ed 22bf
00000050: 2f17 053b 642f 85be cb9d 29bf ceeb 9fbe
00000060: ec0d a9be 8e9b 06bf 3592 0dbe 2558 12bd
00000070: 525c c6be 308b 3fbf 3c7e 8e3d 507b 0fbf
00000080: 0c5d d2be 7245 393e e3ed cabe db48 4dbf
00000090: cdd9 b8bd 57cf 30be a220 41bf 8b10 08bf
000000a0: ce34 13bf c11a 98be 7c4c 14be 948d 51bf
000000b0: 1935 e6be 2e0d 113f a2f3 f5be b104 1dbf
000000c0: 7530 503b 71ae 0bbf 761d 5d3c 749a 53bc
000000d0: 450a 07bf 17e5 1bbe 1ba5 c8bd db6a 63be
000000e0: 3697 8c3e 40e7 bfbe 9294 803e e580 70be
000000f0: db0f 0dbf df21 38bd 08bf dcbe 3082 c3be
00000100: 7aef 863e 393e e5bd 3695 c5be 5b79 26bf
00000110: f2d6 e53d b950 4ebe e452 08bf c201 993e
00000120: f079 283f 897e 88bd 3676 e23e fe23 a9bd
00000130: cc26 fa3e ab60 8fbd 71c4 aa3d 1789 d2be
00000140: faf2 e8be 5995 71be 49d4 ffbc c2b6 98be
00000150: a78d c5be 703a 3ebf 5bd4 863c 9bf9 ffbe
00000160: bcd1 3a3d bf78 73bc 0e25 7ebe 4020 bfbd
00000170: 54b9 aa3e 38a6 84bd e094 1abf 1474 943e
00000180: 62db efbe d27d 97be 7625 a6be 2c70 91be
00000190: 30ee b73e abdb 88bc f8d1 91bd 757c bbbe
000001a0: b436 babd db40 cb3e 4fad 05bf 846f 913e
000001b0: 12f9 a6bc 8eda 05bc 6384 813e e597 ae3d
000001c0: 6172 e2be a32c 8b3e 879e cf3e 04e3 b93e
000001d0: 809d 633c 854a 83be 6f5e b2be fe1e 48be
000001e0: 7c37 e53e 9474 3bbd 5eea 91be d353 563e
000001f0: 2f41 d4be 2356 0fbe 995d 473d d2df e7bd
00000200: 818c 8dbd 218f b4bd c2b1 d8be fc2f d43d
00000210: 25fa 9abe 5a32 38be 66ae 7abe 628c b6bd
00000220: 5398 b4be 72a4 ad3e b787 6b3e 8fc1 853e
00000230: 96d7 7e3e ab61 29bd 7b27 783e c255 8bbe
00000240: e5b5 43bd 7b3b 0abf ca76 7abe bb5d 70bd
00000250: 6b3c cabd 867e 43be 6462 fa3d 724e ff3d
00000260: b774 02bf 40ab e3be 5cf9 b7bd 6730 e83b
00000270: 8f70 033e 17e9 f8be 8f4d 59bc 2441 29bf
00000280: fea6 d4be 38b6 a9be ffa3 a2be a983 00be
00000290: 1a74 0fbf 1688 133e b7ce 50bf bd75 58be
000002a0: 8266 d33d c3c6 4bbf f8d7 1fbd df8e 03bf
000002b0: 3198 e7be ce27 c9bd 073e 083f 9713 39bf
000002c0: 1218 d4be cafc b0be 4fbc a73e 5837 11bf
000002d0: 3bd8 cdbe 4382 d6be d44b d1be c21f a2be
000002e0: 6d8f 7b3d c482 a8be 75e6 073e d9c3 23bf
000002f0: 3cf4 efbe 0c80 4c3e f3c5 32bf 6afa 39bd
00000300: 6d8a c33e 6c83 4ebe c181 84bf 9a44 0fbf
00000310: f2f6 0ebf 89e0 b2bb 32ed 89bf ce19 2f3d
-0.30868298 -0.8225603 -0.8492502 0.077081665 -0.75369954 -0.10700139 -0.15033436 -0.46153572
-0.30364463 -0.77738684 -0.3848749 -0.79468787 -0.13026248 -0.38614073 -0.2694791 0.45481002
-0.59040004 0.036213454 -0.054867838 -0.63643974 0.0020308008 -0.2601272 -0.662564 -0.31234592
-0.33018434 -0.5258111 -0.13825305 -0.035728592 -0.3874231 -0.7482176 0.06957671 -0.56047535
-0.41086614 0.18092898 -0.39634618 -0.80189294 -0.09025917 -0.17266594 -0.7544042 -0.5315024
-0.5750245 -0.29707912 -0.14482301 -0.81856656 -0.44962385 0.56660736 -0.4803744 -0.61335284
0.0031767164 -0.5456305 0.013495794 -0.012915242 -0.52750045 -0.1522411 -0.09797116 -0.22208731
0.27459115 -0.37481117 0.2511335 -0.2348667 -0.5510232 -0.044954177 -0.43114495 -0.38185263
0.2635458 -0.11193509 -0.385904 -0.65028924 0.11222638 -0.20147981 -0.5325148 0.29884154
0.6581106 -0.0666476 0.44230813 -0.08258818 0.48857725 -0.0700086 0.083382495 -0.41120216
-0.45497876 -0.23592128 -0.031229155 -0.29826933 -0.38584635 -0.7430792 0.01645868 -0.4999512
0.045610175 -0.014860331 -0.24818823 -0.09332323 0.3334452 -0.06477016 -0.60383415 0.2899481
-0.46847063 -0.2958818 -0.32450455 -0.28405893 0.3592391 -0.016706308 -0.071201265 -0.3661839
-0.09092465 0.39697918 -0.5221757 0.28405392 -0.020382438 -0.008169783 0.25296316 0.08525065
-0.4422789 0.27182493 0.40550634 0.36306012 0.013892531 -0.2564279 -0.34837672 -0.19543073
0.44768894 -0.045765474 -0.2849912 0.20930414 -0.4145598 -0.13997702 0.048673246 -0.11321987
-0.069115646 -0.08816362 -0.42323118 0.10360715 -0.3026897 -0.17987958 -0.2448059 -0.08913495
-0.35272464 0.33914524 0.2300099 0.26124236 0.24886927 -0.04135291 0.2423381 -0.27213866
-0.04778089 -0.5399701 -0.24459377 -0.05868314 -0.09874805 -0.19091234 0.12225798 0.12466134
-0.5095934 -0.4446659 -0.089831084 0.007085848 0.12835906 -0.48615333 -0.01326312 -0.6611502
-0.41533655 -0.33146834 -0.31765744 -0.12550224 -0.5603653 0.14407381 -0.8156542 -0.21138664
0.10322286 -0.7960016 -0.039024323 -0.5138988 -0.452333 -0.09822045 0.53219646 -0.72295517
-0.41424614 -0.34567863 0.32760856 -0.5672507 -0.40204033 -0.41896257 -0.40878165 -0.31664854
0.06141608 -0.32912266 0.13271506 -0.63970715 -0.46866024 0.19970721 -0.69833297 -0.04540483
0.38191548 -0.20167321 -1.0352098 -0.5596405 -0.5584556 -0.0054588956 -1.0775511 0.04274922

lstm.bias_hh_l0 f4 [200]
00000000: 2f45 c5be 6833 77bf 470f 63bf 886f b5bd
00000010: a466 4bbf 1370 c5bd fb67 9d3c eedc 13bf
00000020: 1795 82be bbe8 1cbf e939 21bf 9643 5cbf
00000030: c3f9 b9bd 7b3c f0be 6517 48be 7a40 023f
00000040: 7423 39bf 6645 203d 4be3 68be c2ab 3dbf
00000050: 7729 a73d 2ca3 d4bd d7d3 1fbf 90ad d4be
00000060: 05fe a8be 1dfd 8cbe d5d9 acbd c63f 6ebc
00000070: aede 67be 818a 3fbf 7e75 133e f077 f1be
00000080: 27c2 dcbe c975 4c3e c4c6 5abe 9ab5 44bf
00000090: a005 67be f7e4 19be 2601 36bf 0bfb 1cbf
000000a0: ae3d 3dbf 3f02 a7be 7064 44be a171 5fbf
000000b0: e670 78be f50f 233f 2579 03bf 2d7d ffbe
000000c0: 9ab6 1c3e 8390 13bf 7aa2 3a3e 0fa8 bebd
000000d0: 5b3c 22bf 9807 92bd 764e 8dbe 7777 12be
000000e0: 87e9 c03d c11e e4be 8502 a93e bcfc 54be
000000f0: ffe8 9ebe 11fc 16be 993c f4be 0b23 fcbe
00000100: 73a9 873e 4b8e 5fbe 01d2 bcbe 7f88 1cbf
00000110: 21f7 fd3d 4ca5 27be 35e0 b3be 8b08 7f3e
00000120: 2f1a 153f 44ee f43d 6490 d23e 53ee 22be
00000130: 759f 073f 9d87 48bd 98b2 4d3d 5477 afbe
00000140: 17f4 12bf 75cf 6bbe c68e 0bbe 08c5 abbe
00000150: 8fc9 e6be abf2 15bf e9c9 163d 9283 94be
00000160: 0ba4 25be ee5a c03b 9e9e cdbd b357 09be
00000170: c78e 153f 9b83 81be 3fa0 15bf 7a62 653e
00000180: a97a cebe 02f6 9cbe 1ff4 eebd c8eb f8be
00000190: 79b1 013f 3985 d03c 043c 16bd 4a5c bebe
000001a0: a154 bfbb 941b b63e 6954 ecbe 6737 db3e
000001b0: f0f7 c3bd 5d4d 33be df99 993e b9ba 81bd
000001c0: f3ee 52be 04a1 9e3e 58b7 8f3e 786c 153e
000001d0: 689d 6d3c 63df 97be 5503 02bf 2353 8dbd
000001e0: fbf6 893e 13ba 0a3e 4842 98be 1d86 b33e
000001f0: f443 e5be 9a38 b2be 8cd3 72bd 7faf 27bd
00000200: 5b3b 1e3d 4efb 87bd 4174 a1be 28dd 1e3e
00000210: 505d a9be 81fe e5bd 237a 81be 2236 86be
00000220: 5411 c7be f3ac d33e ce08 c43e cdfb 843e
00000230: f80d 713d ef23 f0bd 5fb5 b63e 6f66 3fbe
00000240: 7bfa 2cbe 2b2d 20bf f189 a0bd d989 04be
00000250: 38f0 45be 1919 b5be a437 f83d 50a2 c33b
00000260: c01f c1be 3c5c cabe 712c cbbd 6962 7b3e
00000270: 3f0d 6d3e 28e7 22bf 3137 03be fbbe 26bf
00000280: 01be acbe 8464 30be 7f2a d3be 877e f33d
00000290: 0fcb 41bf eeab bc3e fa4b 2fbf 7f64 e4be
000002a0: 4426 133e d337 75bf a1a0 16bd 50bd 0bbf
000002b0: cfe1 8dbe 0cae 313d 49a7 373f 56d9 16bf
000002c0: 8cc4 adbe 1e6e 0fbf 4ccc 8f3e d8af 42bf
000002d0: 9a1d d4be cd5f eebe e7e9 85be 9d23 09bf
000002e0: ce9c 44bd 6dd7 5dbe a909 c63d de67 14bf
000002f0: faa9 f0be 89ee 3b3e 2960 3bbf f310 0ebe
00000300: e6ad 033f d82f 25be 84ba 9cbf 33c0 09bf
00000310: b188 a1be e840 6ebe 69c2 8abf 0915 2abe
-0.38529345 -0.96562815 -0.88695186 -0.088591635 -0.7945349 -0.09640517 0.01921462 -0.57758987
-0.25504372 -0.6129262 -0.6297899 -0.8604063 -0.090808414 -0.46921143 -0.19540174 0.50879633
-0.7231972 0.039128684 -0.22742955 -0.74090207 0.08162206 -0.10382685 -0.62432617 -0.41538668
-0.33006302 -0.2753686 -0.08439986 -0.014541572 -0.2264354 -0.74820715 0.14400288 -0.47161818
-0.43116876 0.19966806 -0.21364886 -0.768396 -0.2256074 -0.1502875 -0.710955 -0.6132056
-0.7392224 -0.326189 -0.19178939 -0.8728276 -0.24261817 0.63696223 -0.51356727 -0.4990019
0.15304032 -0.5764238 0.18226042 -0.093093984 -0.63373345 -0.07130355 -0.27598923 -0.14303385
0.09419542 -0.44554713 0.33009735 -0.20799536 -0.31037137 -0.14744593 -0.47702482 -0.49245486
0.26496467 -0.21831624 -0.3687897 -0.61145777 0.12400652 -0.1637165 -0.35131994 0.24905603
0.5824308 0.11959508 0.41125786 -0.15911226 0.5297769 -0.048957456 0.05021915 -0.34270728
-0.574037 -0.23028357 -0.13628682 -0.3354876 -0.45075652 -0.58573407 0.03681365 -0.2900663
-0.16175859 0.0058702147 -0.100400195 -0.13412361 0.58420986 -0.2529572 -0.5844764 0.22400847
-0.40327957 -0.3065644 -0.11667656 -0.48617387 0.50661427 0.02545415 -0.03667833 -0.37179786
-0.005838946 0.35567915 -0.4615815 0.42815706 -0.09568775 -0.1750998 0.30000207 -0.06334443
-0.20598964 0.3098222 0.28069568 0.14592159 0.014502861 -0.29662618 -0.50786334 -0.06900623
0.26946244 0.13547544 -0.2973807 0.35063258 -0.44778407 -0.3480881 -0.059283778 -0.04093885
0.038630825 -0.066397294 -0.31534007 0.15514052 -0.33079004 -0.112301834 -0.25288495 -0.26213175
-0.38880408 0.41342887 0.38287967 0.2597336 0.058851212 -0.11725604 0.3568525 -0.18691419
-0.16892426 -0.6256892 -0.0783881 -0.1294321 -0.19329917 -0.3537071 0.121199876 0.005970277
-0.37719536 -0.39523494 -0.09920586 0.24549259 0.23149584 -0.63633966 -0.12814023 -0.65135163
-0.3373871 -0.17225844 -0.4124336 0.118893676 -0.7570047 0.36849922 -0.68475306 -0.44607922
0.14370066 -0.95788306 -0.03677428 -0.5458574 -0.2771134 0.043378875 0.7173963 -0.5892538
-0.33939016 -0.560274 0.28085554 -0.76049566 -0.41428834 -0.46557465 -0.26155016 -0.53569967
-0.048001103 -0.2166421 0.09669811 -0.5797099 -0.47004682 0.18352713 -0.73193604 -0.13873653
0.5143722 -0.16131532 -1.224442 -0.538089 -0.315496 -0.23266947 -1.0840579 -0.16609587

fc.weight f4 [1, 50]
00000000: 3b18 5ebe b552 52be f186 863e 5032 dfbe
00000010: db96 753e 6545 573e a7db bdbe d360 8e3e
00000020: 7768 12be a3a7 be3e e0aa e73e e383 15bf
00000030: ea42 debe 67fc 7d3e c043 a7be 0bff e93e
00000040: 7d23 dbbe e692 f5be 5168 c1be f7c4 003f
00000050: a37a 6a3c 1704 19be cc67 d3bd cdf6 b23e
00000060: 9a26 a2be 4905 e3be ba37 a63e 6875 04bf
00000070: 5618 b5bd d011 bbbd 5ed9 1fbf e59d 1b3f
00000080: bf85 6cbe 771e 493e 6d35 353e 89d3 34bf
00000090: e2ec b1be 97d4 acbe 1219 cf3e c7a3 d7bd
000000a0: cb7f 683d a61d 39bf a972 97be 962a b8be
000000b0: 2370 65bf 23e7 c0be c215 d3bc 9f8c a6be
000000c0: ed61 76bf 72f5 15bf
-0.2168893 -0.20539363 0.26274827 -0.43593073 0.23983328 0.21022566 -0.37081644 0.27808246
-0.14297663 0.37237272 0.45247555 -0.5840437 -0.43410426 0.24803315 -0.32668877 0.45702395
-0.42800513 -0.47963637 -0.377749 0.50300545 0.014311465 -0.14942966 -0.10322532 0.3495392
-0.31670076 -0.4433997 0.3246439 -0.5174165 -0.08842532 -0.09134257 -0.6244105 0.607878
-0.23097895 0.19640528 0.17696162 -0.7063528 -0.3475104 -0.33755943 0.40448815 -0.10529285
0.056762498 -0.72310865 -0.29579666 -0.3596999 -0.8962423 -0.37676343 -0.02576721 -0.3252916
-0.9624317 -0.58577645
