lightning_logs/version_33479210/checkpoints/epoch=49-step=6000-v3.ckpt (torch, 142804 bytes, 15 tensors)

model.gru.weight_ih_l0 f4 [150, 22]
00000000: 5c55 d13d 0da1 8b3d 6ee0 313e 6f9c 713d
00000010: 503e 813d b71c 873b b927 de3d fa04 fabc
00000020: 79b1 67bc 0828 713d 275c 8d3d fa28 3fbb
00000030: ed87 05be f8cb 8cbd d8aa 633c 1e00 1abe
00000040: e163 18bd 6df9 8dbd d5e5 97bd ceb3 87bd
00000050: 628e 523d ac50 d23d edc5 a73d 9980 073e
00000060: 9c6d adbd d8d4 0c3c 6ce2 533d 3374 133e
00000070: bbbf 34be a814 c33c 7781 cc3d 51a4 263e
00000080: 97e9 6ebd 9428 f83c 280e a4bd b2ca ce3d
00000090: 1497 abbd 2bd1 0cbd d9c6 b6bc 8131 1fbd
000000a0: 188d 943a 113c debd 45d8 94bd b0f8 94bd
000000b0: bff4 9f3c 80e3 c83d 2a2a 213d 9eee 08be
000000c0: b20f 97bd d216 8bbd 2f67 bcbd a884 663d
000000d0: 757d 06be 038b cd3d 1a07 083d 7728 cebd
000000e0: b781 09be 993a 993d d4f8 ee3d ef97 e7bd
000000f0: 9e66 903d 177a 033d d77e af3d 23bb b53d
00000100: b2da b23d d40e 163d 6e8d f93d 8946 1cbe
00000110: 06f8 b6bd 7ff2 fc3c 2284 30bd ae62 47bd
00000120: 42c5 38be 881d 4f3d 9a88 00bd c119 8fbd
00000130: 607c 1b3d 9c01 4dbd 0baf 043d 0d2e 4d3e
00000140: 77ff a4bd cab6 0d3d 473d 863d c64e 043e
00000150: 1353 bfbd c477 663d c1e3 88bd 7053 5a3d
00000160: b82f c8bd e595 bc3d 7fe9 2dbd 2ec8 353e
00000170: 11c1 02bc 965d 473d 89e6 b73d fa6f 12be
00000180: 59fa 8abd 4272 dcbd a587 243d 9c09 bc3d
00000190: 33ea c83d d9d3 fb3d 52f1 07be 41fb 83bc
000001a0: c9c4 e6bd 0649 06be 7adc 623c 95b8 9f3c
000001b0: 9422 23bd e104 67bc 6dee dc3c 814f 43bd
000001c0: 965a 19be 96cb cbbd 688a 263e 548d d33d
000001d0: 43c8 abbc 9117 e33d 8590 373d 8a68 b13d
000001e0: ac4c 52bc 712b c3bd a8a1 043e 54ee 123e
000001f0: c293 a5bc 4726 e83c d543 21bd 0569 9f3c
00000200: 74c8 aebd dea5 19bb dd2b 9c3d da6e 78be
00000210: 59b6 e4bc dcca 15be 7cae 913d 2c41 b93c
00000220: a97f fdbd 1db5 a53d f5eb 833c 4fa2 ca3c
00000230: 4c31 023e 63f6 1b3e a298 8ebc e79f a23d
00000240: 2712 e33d 204a 6d3c e560 0cbe e58b 593c
00000250: dc4f a1bd 1cb5 95bd c040 f93d 65c1 e9bc
00000260: c4bf 9a3c 538d ed3c 8842 47bb 2145 93bd
00000270: e023 ed3d 77f2 42be 5ddf 81bc 3677 2ebd
00000280: aff9 f73d ec51 9dbd 842a b5bd 2c73 533c
00000290: 481f 4abd dc59 2c3b 71ee c93c 6a7c e43d
000002a0: 8a67 02bd aabd 96bd 9173 083e c1cf b6bd
000002b0: 13bd 51bd c5d7 8abd 5ea4 083e 0e9a 58bd
000002c0: 3e67 81bd 75f6 3d3e 3646 2f3e 7b17 f03c
000002d0: d758 293d 8d48 cabc 140f 27bc 0f31 5fbd
000002e0: a4dd 093d 490e 5bbd 8f1b 99bd 1ffd e83a
000002f0: 30c6 e93c 8eb7 453e f92d 1fbd 3401 19bd
00000300: ed18 01be c222 8fbd 67d1 20be 8c68 a83c
00000310: a98e 613d 5b35 cd3d f718 29bd 2760 d4bc
00000320: 1a37 42be 6cfe cf3d 08ed 39bd b9e8 fc3c
00000330: 97b0 0bbd dacd 7c3d 8560 9bbd 6656 403d
00000340: 1afd 043e 0174 78bb 2689 09be 8dae d13d
00000350: 1195 8d3d bbf4 cdbd 3038 ef3c 90e8 213e
00000360: faa6 cc3d f7fc 473d e42a febd 90a9 23be
00000370: 80f5 30be dcac ab3d 74a8 0e3b c9fa 5bbd
00000380: d44b 973b b5d7 8ebd 80fa 3bbc b90a 00be
00000390: c96b 38be 730d a9bc 1a05 ec3d 5ee0 953d
000003a0: 29d4 38bc 820d b3bc 1494 c73b c291 763d
000003b0: 1954 fe3d c948 d23c bdff b3bd df98 993d
000003c0: 9030 aa3d 456c bdbd 32c4 20bc 0312 a0bd
000003d0: 71b8 9dbd 5351 5abd a6ae 3abd edd1 e23c
000003e0: ac7f 06bd 5885 12be 288d 82bd 07de 36bd
000003f0: 03c8 afbb 6a85 7a3d 2d03 d2bd 157f 383d
0.10221359 0.068178274 0.1737077 0.058987077 0.06310713 0.004123296 0.1084742 -0.030519951
-0.014141434 0.058876067 0.06902342 -0.002916871 -0.13040133 -0.068748415 0.013895713 -0.15039107
-0.037204627 -0.0693234 -0.07416884 -0.06626092 0.051405318 0.10269293 0.08192048 0.1323265
-0.08468172 0.008595668 0.051729605 0.14399795 -0.17651264 0.02381356 0.09985631 0.16273619
-0.058328237 0.030292787 -0.080105126 0.10097255 -0.08378425 -0.034379166 -0.022311615 -0.03886557
0.0011333553 -0.108513005 -0.07267813 -0.07273996 0.019525884 0.09809017 0.03934685 -0.13372275
-0.073760405 -0.06791462 -0.09199368 0.056278855 -0.13133796 0.1003628 0.033209898 -0.10066312
-0.13428389 0.0748188 0.11668554 -0.11308276 0.07050823 0.032098856 0.08569115 0.08873584
0.08733119 0.036635235 0.12185179 -0.15261282 -0.089340255 0.03087735 -0.04309476 -0.048678093
-0.18043998 0.050565273 -0.031380273 -0.06987334 0.03796041 -0.050050363 0.032393496 0.20037098
-0.080565386 0.03459815 0.065546565 0.12920675 -0.09342017 0.05626656 -0.066840656 0.05330223
-0.09774727 0.092082776 -0.042459007 0.17752144 -0.007980601 0.048673235 0.08979518 -0.14300528
-0.06786031 -0.107639804 0.040168423 0.0918152 0.09810295 0.12296266 -0.1327565 -0.016111018
-0.112680025 -0.13113794 0.013846511 0.019497195 -0.0398279 -0.014100284 0.026969159 -0.047683243
-0.14975962 -0.0995094 0.16263735 0.103296906 -0.020969516 0.11088479 0.04481556 0.08662517
-0.012835663 -0.0952977 0.12952292 0.14348727 -0.020212058 0.028338565 -0.03937133 0.019459257
-0.08534327 -0.0023444812 0.07625554 -0.24261037 -0.027918981 -0.14628166 0.071133584 0.022614084
-0.12377865 0.08091185 0.016103724 0.024735598 0.12714118 0.15230708 -0.017406765 0.07940655
0.11087447 0.014483005 -0.13708837 0.013277982 -0.0787656 -0.073099345 0.12170553 -0.0285346
0.01889027 0.028998053 -0.0030404646 -0.0719092 0.11579108 -0.19037805 -0.015853578 -0.042594157
0.1210817 -0.07681641 -0.08846 0.012905877 -0.04934624 0.0026298678 0.02464983 0.111565426
-0.031837024 -0.07360394 0.13325335 -0.08926345 -0.051205706 -0.06779436 0.13343951 -0.052881293
-0.0631852 0.18551047 0.17116627 0.029308071 0.04134449 -0.024692798 -0.010196466 -0.054490145
0.03365864 -0.05348042 -0.074759595 0.0017775631 0.028536886 0.19308302 -0.038862202 -0.037354663
-0.12607165 -0.069890514 -0.1570488 0.020557664 0.055067692 0.100199424 -0.041283574 -0.025924755
-0.18966332 0.10155949 -0.045392066 0.03087269 -0.034103956 0.061719753 -0.07586769 0.046957396
0.12987176 -0.003791094 -0.13431224 0.10238371 0.06913198 -0.10056444 0.029201597 0.15811372
0.09992786 0.04882523 -0.124105245 -0.15982652 -0.17281151 0.0838258 0.0021767886 -0.053705964
0.0046171937 -0.069747366 -0.011473298 -0.1250409 -0.18009867 -0.020636296 0.115244105 0.07318185
-0.011281052 -0.021857027 0.0060906503 0.0601976 0.12418384 0.025669472 -0.087890126 0.07499861
0.08310044 -0.092491664 -0.009812402 -0.078159355 -0.07701195 -0.053300213 -0.045576714 0.027687991
-0.0328366 -0.14308679 -0.0637458 -0.044645336 -0.0053644194 0.06116239 -0.10254512 0.04504307

model.gru.weight_hh_l0 f4 [150, 50]
00000000: 13ba 30bd 3132 383c 22d7 0bbe c540 263c
00000010: 2a13 5fbd c4fc 483d dde2 16be 064c cb3c
00000020: 06d1 cdbd 831f a43d 50af 63bd b950 533a
00000030: df93 ec3c 9372 493d e9aa 593c 1016 74bd
00000040: fc47 1abe 45ff 0dbe 5c97 f0bd 5efb f2bd
00000050: 8af1 d43d 4053 953c e7f3 00be 6626 433d
00000060: 4138 18be 8217 a83d b287 5cbd 7c5a 343e
00000070: 0208 533b b87b 8b3b abd6 c9bd f88c 9bbd
00000080: 04eb e73c c6d5 0dbe 99bd ef3b 6880 2dbb
00000090: b65c 70bc 0b5c 5abd d9da 8d3d 455c 65bc
000000a0: 6e85 3bbd 501d a9bc 2bc4 943d 3608 ae3c
000000b0: 70a5 7a3d 2596 ddbc c9d6 283c 5d70 023e
000000c0: 61bf 093d 6276 083e 7743 313e 27a0 d43c
000000d0: c50a f3ba 3204 abbd e0ed ca3d 77f4 6d3a
000000e0: 4493 063e 5215 11bd 519e 003d bd1b 613a
000000f0: 6afa 6bbc 7155 ab3d 490d ebbd 0921 063e
00000100: ddd2 2cbd 582a 663d 6f52 ab3d 781f 613d
00000110: a2d0 ca3d 7bdc f4bd 7872 2f3d b962 f43d
00000120: 861c d3bc eb29 7ebc 7752 333e 9e0c b7bd
00000130: 5674 26be 9068 753d 2e05 69bd 25cd a73d
00000140: 6e75 033e 53ba 2cbd d5c5 1ebe 7fac 043e
00000150: 56b0 a5bd 476c 353b 35c4 bcbd 61ac cbbc
00000160: 6cc3 eabc 14ad 0f3b 82e7 ae3d dd4a 1abe
00000170: d733 073e 7286 20bd 9fdb 7d3d 27d4 983d
00000180: e34d e83d 32f3 10be c591 e53d 63a1 04be
00000190: 2d87 9ebd 5273 df3d 9936 63bd 0fed 973d
000001a0: 7589 0abd 1a92 05bd ddba c53d cd22 a73d
000001b0: 58b6 d9bc df11 0f3c 8b02 0bbe bb16 e2bd
000001c0: 6e33 bdbd d9ef ef3d a4f9 08be 2756 913d
000001d0: 219c 85bd 330a 683d 4aa5 f5bd 4fd6 9fbd
000001e0: 558d 273e 4f2d 093e 8156 863d 1018 0c3e
000001f0: 6191 a6bd 0305 91bd 66f0 863d 3399 a73d
00000200: 1f54 54bc a394 b3bd eed2 84bd 6e13 8bbd
00000210: 4e84 713d c51f 3bbc 31f5 e83d 8dec b63d
00000220: 8be4 e0bd a4e2 eabd 31b2 153a 3004 babd
00000230: 0f84 b5bc aa5f 84bd 4fc9 a33c e326 383d
00000240: 40e7 063e 5329 9cbc f413 bc3c 9c76 0abe
00000250: 8c31 f03c c295 d83d cad6 4d3d 6405 af3d
00000260: 92b7 e13c bc56 b0be 2012 9bbd c0b9 183c
00000270: e785 3d3c 8ee9 e5bd e4e3 d8bd bd24 eb3d
00000280: 533f 733d 5f30 1e3a 7f6b db3d 655f 143e
00000290: d42b 113c 008d c23a d90c 81bd eac2 c1bd
000002a0: 7832 e0bd b825 5d3d 85af 583e cc7f a33c
000002b0: 12ce 403e 2f15 e5bb f03d 05bd 7285 1dbd
000002c0: bf1f c3bd 3837 983d d570 c8bd 2daa 7dbd
000002d0: 9da3 153d a19e db3d 4c14 953d a8ca 32bd
000002e0: d71f c83d 4a39 bfbd 2f2f 3d3d 21bf 3dbe
000002f0: f5ec 093e 029a d2bd 0a13 3bbe d876 ae3c
00000300: d257 3dbe c307 2fbd a888 953d f133 0e3c
00000310: da40 5dbe f8d9 673d 4754 93bd b81c 67be
00000320: 6cd4 6fbd 9f2b b43d 1036 0a3d 6e8b 97bd
00000330: 9fb3 af3c ea2d 893d ba3d 9f3d 5cc8 81bd
00000340: 7f00 d43d 5e00 f43d 12c8 573c bd59 9cbd
00000350: 3eb6 073c 2e58 1fbe 66cf 7dbd 08a8 1ebd
00000360: 85b3 8bbd 8a28 ce3d f419 9abc 83b2 d83d
00000370: 9a2a 023c 95d6 a0bd 7006 ca3d 18d3 e23c
00000380: a488 0abe 4881 89bd 8f36 2dbd 2414 16be
00000390: 3103 393d 46e4 b63d 5e6d 293d 2574 d63d
000003a0: df32 90bd 25bb ba3d becb 6bbd 889e 1ebb
000003b0: 1db6 a5bd c820 21be 16f1 42bd b490 b63d
000003c0: 2564 d6bd eb18 953d 0d81 273e 6c37 413c
000003d0: 9273 26bd 65a6 3f3d f51a 78bd b192 1a3e
000003e0: 442a f93d ec95 e3bc 0f44 bb3d 62d3 8cbd
000003f0: b891 b2bc 57bc 98bd a850 2bbc d88d d23d
-0.043146204 0.011242435 -0.13656285 0.010147278 -0.054461636 0.04906918 -0.14734979 0.024816524
-0.10049634 0.08013823 -0.055587113 0.000806104 0.028879104 0.049181532 0.013285377 -0.059591353
-0.15066522 -0.13866909 -0.117476195 -0.11864351 0.103976324 0.018228173 -0.12593041 0.04764404
-0.14865209 0.08207609 -0.053840347 0.17612642 0.0032200818 0.004256692 -0.09855398 -0.07595247
0.028310306 -0.1385108 0.007316303 -0.0026474241 -0.0146705415 -0.053310435 0.069265075 -0.01399905
-0.045781545 -0.02064386 0.072639786 0.02124415 0.06119293 -0.027049134 0.010305115 0.12738176
0.03362978 0.1332641 0.17310892 0.025955273 -0.0018542638 -0.083504096 0.09908652 0.00090772606
0.13142115 -0.035420723 0.031400982 0.0008587202 -0.014402965 0.08365906 -0.11477143 0.1309854
-0.042193282 0.056192726 0.08365332 0.05496165 0.09903075 -0.11956116 0.042833775 0.11932892
-0.025770437 -0.015512924 0.17511927 -0.089379534 -0.16255316 0.05991417 -0.056889705 0.08193425
0.12837765 -0.04216988 -0.15505154 0.12956427 -0.08090274 0.0027682947 -0.09217111 -0.02486247
-0.028657638 0.002192323 0.0854025 -0.1506762 0.13203369 -0.039190717 0.061977025 0.0746234
0.11342981 -0.14155272 0.11209444 -0.12952189 -0.077406265 0.109106675 -0.05547199 0.07418262
-0.033822495 -0.032610036 0.09654782 0.081609346 -0.026576206 0.008732288 -0.13575189 -0.11039492
-0.09238325 0.11715669 -0.1337648 0.070965104 -0.0652392 0.05665035 -0.11994417 -0.07804548
0.16362508 0.1339619 0.06559468 0.13681054 -0.081331976 -0.07081034 0.06588821 0.08183517
-0.012959509 -0.087685846 -0.06485544 -0.06790815 0.058964066 -0.011421149 0.113748915 0.08931837
-0.10981091 -0.114690095 0.00057104515 -0.0908283 -0.022157697 -0.06463559 0.019993452 0.04495896
0.13174152 -0.019062674 0.022958733 -0.13521808 0.0293205 0.10575439 0.050253667 0.0854595
0.027553353 -0.34441173 -0.075718164 0.00932163 0.011567569 -0.11226188 -0.10590342 0.11481617
0.059386563 0.00060344295 0.10713863 0.14489515 0.008860547 0.0014843047 -0.063012786 -0.09461005
-0.10947126 0.05399105 0.21160705 0.0199584 0.1882861 -0.0069910507 -0.03252977 -0.03845734
-0.095275395 0.07432407 -0.09787146 -0.06192987 0.036532987 0.107236154 0.07279262 -0.0436503
0.09771698 -0.09337099 0.046187576 -0.18529941 0.13469298 -0.10283281 -0.18268982 0.021296903
-0.18490532 -0.04273201 0.07301456 0.008679376 -0.2160677 0.056604356 -0.07193809 -0.22569549
-0.05855219 0.087973826 0.033742964 -0.07399641 0.021447955 0.066982105 0.07775445 -0.06337044
0.10351657 0.119141325 0.013170259 -0.07634304 0.008283196 -0.15560982 -0.06196537 -0.038734466
-0.0682135 0.10066326 -0.018811204 0.105809234 0.007944727 -0.07853428 0.09864509 0.027688548
-0.13528687 -0.067141116 -0.04228836 -0.1465612 0.04516906 0.089302585 0.041364066 0.104713716
-0.07040953 0.09117726 -0.05756735 -0.0024203379 -0.08091376 -0.15735161 -0.0475932 0.08914319
-0.1046832 0.07280143 0.16357823 0.011792999 -0.04063756 0.046789546 -0.060572583 0.15095021
0.12166265 -0.02778145 0.091438405 -0.068762556 -0.021798 -0.07457798 -0.010456242 0.10280961

model.gru.bias_ih_l0 f4 [150]
00000000: 02f7 633d 31ae 853d bc62 2e3e 7669 0a3e
00000010: 9361 03be 7238 5c3d 0aa2 bdbd 2463 14bd
00000020: 5580 fcbd 41bc 9abc cec7 72bc dc7f 503b
00000030: 413e 0d3e cc7d 273c 27a7 9abd d2db b8bd
00000040: 89cc 8cbd 6990 95ba beab 9fbc fcb5 dbbd
00000050: 7c0f 5ebd a23c 8e3d 65df a63d 95e8 5e3c
00000060: 0ae9 6b3d edaa bebd 03b4 05be 8e36 0fbe
00000070: 613d 11bd 7c35 0dbe d909 553d ae2f 8fbd
00000080: b60b bdbd 87c6 d6bb 5b0e a5bc 6cc3 eb3d
00000090: 3aec da3c 12df e43d 7035 d33c 7574 f5bc
000000a0: e28b 2e3d 068f 983d 85eb d83d ed92 413d
000000b0: 9212 95bd 2da8 58be 33a8 0e3e 4ecc 84bd
000000c0: b0dd fbbd bc0e 68bd c3a6 cd3d 69d6 2e3d
000000d0: ed82 d4bd 68a6 723c f9c9 30bd 102c f93c
000000e0: f594 df3d 22e5 8abd db1b 773d 2b0c bcbc
000000f0: 37b5 3fbc 2460 0e3d 7453 543e 9f9a 693e
00000100: 20aa 8a3e 89ec 6dbd ee9e 40bd 3ca0 7e3c
00000110: a304 ef3d de95 203e beb1 0bbe d902 a93d
00000120: 82eb a23d c831 a33d 38dd 283e 3599 14be
00000130: 4ba9 d23d cb15 153e 74ae 5f3e ec82 ac3c
00000140: 4cc9 e93d 8c94 2a3d cbd7 6d3d 2246 8cb8
00000150: 83a1 c6bc 09c8 733d 77ff 273e ceec 8ebc
00000160: e6d1 0e3e dd89 a63d edfc 633d fb29 7fbd
00000170: e281 22bd 4385 ca3b f8b2 86bd 1ca3 0e3d
00000180: ecf8 2e3e fc8a 19be cbab b2bd 2dc0 573d
00000190: e5b3 b0bd aab7 a0bc a73d 1d3d 6332 dfbd
000001a0: eb3c c83c 23b3 4bbd 61e5 7abd 5305 b73d
000001b0: 908b 7f3c 7031 1abd ca8d 80bd 6058 8e3d
000001c0: cf76 4e3c 9a72 b3bc d679 08bc e664 d6bc
000001d0: 8344 87bd ecb1 5e3d c25e 80bd 0698 bdbc
000001e0: 9703 1f3e c9f6 56bc 8d29 963d b5c8 1f3a
000001f0: 441b c5bb 8a9b 3fbd 6d3d c5bc 4fc0 84bc
00000200: f411 5cbc 2eac a9ba 1966 a3bd 0ad9 003d
00000210: 9e93 b1bd e558 0f3d 7bac 0bbd 79e6 92bd
00000220: 4524 ec3d cc3e d4bd 4179 21bd a2f5 15bd
00000230: 3262 99bd 462b 7c3d 4b00 f63c 786a f83c
00000240: 802f 283c 281c 683b ae7d 943c a21e 603d
00000250: 2a27 e43d c2ab a1bd
0.055655487 0.06527365 0.17029852 0.13516793 -0.1283019 0.053764768 -0.09259422 -0.03622736
-0.12329165 -0.018888595 -0.014818145 0.0031814491 0.13793279 0.010222863 -0.07551413 -0.090263024
-0.068749495 -0.0011410835 -0.019491073 -0.1072807 -0.054213986 0.069451585 0.08148078 0.013605257
0.05759529 -0.09309945 -0.1305695 -0.13985655 -0.035458926 -0.13789934 0.052011345 -0.06991516
-0.09230749 -0.006554428 -0.020148447 0.11511883 0.02672397 0.1117536 0.025782317 -0.029962758
0.04261387 0.074491546 0.10591797 0.04725926 -0.07278933 -0.21157904 0.1393135 -0.064842805
-0.12298143 -0.056654677 0.10041573 0.042684946 -0.103765346 0.014810182 -0.043161366 0.030416518
0.10917083 -0.06781985 0.0603293 -0.02295502 -0.01170092 0.034759656 0.2073496 0.2281289
0.2708292 -0.058086906 -0.047026567 0.015541133 0.11670806 0.1568217 -0.13642022 0.08252496
0.07955076 0.079684794 0.16490638 -0.14511569 0.10286196 0.14559095 0.21843892 0.021058522
0.114153475 0.04164557 0.058067124 -6.6887835e-05 -0.024246937 0.05951694 0.16406046 -0.017446902
0.13947257 0.08131764 0.05566113 -0.062295895 -0.039674647 0.006180437 -0.06577104 0.034823522
0.17087144 -0.14994425 -0.08724173 0.052673507 -0.08628062 -0.019618828 0.038388874 -0.108982824
0.02444311 -0.049731385 -0.06125391 0.089365624 0.015597239 -0.037644804 -0.06277044 0.0695045
0.012601568 -0.021905232 -0.008329829 -0.026171159 -0.066048644 0.0543689 -0.062680736 -0.02314378
0.15528713 -0.013120362 0.07332144 0.00060952763 -0.006015213 -0.046779193 -0.024077142 -0.016204981
-0.013432015 -0.001294499 -0.07978458 0.031456985 -0.08670734 0.034996886 -0.034100037 -0.071728654
0.11530355 -0.1036354 -0.039422277 -0.036611207 -0.074894324 0.061564706 0.030029437 0.030324206
0.010265231 0.0035417173 0.018126335 0.054716714 0.111402825 -0.07894088

model.gru.bias_hh_l0 f4 [150]
00000000: c237 783d 8106 dabd 8c39 5ebc 01bb 423d
00000010: 85a9 833c 017c 09be e7da e93d 08a8 d4b8
00000020: b6e7 ae3c 4a17 7a3d 843d 5a3e db72 42bb
00000030: 59a7 eebc ec97 edbc 1fe5 87bd 539d 583d
00000040: 5b24 77ba 8e0c 1ebc ee66 b7bd 952c 013c
00000050: 6159 30bd ed08 1e3e 8c3b 3f3c 478d cc3d
00000060: 8403 0b3e 3265 adbd 1878 753c deaa a93d
00000070: ab2d c03d 8462 e7bd 9e07 c1bd 9436 173e
00000080: 573f 14be 9b76 85bc 0bd1 ce3d 33a4 8abd
00000090: bc14 cabc cab7 b7bd aa8c acbd 98fa b73d
000000a0: 718a 1a3e d8e1 5a3c a0c8 973d 3b03 43bc
000000b0: 7cd5 7e3d 42d2 58be cac7 3e3d 7856 393c
000000c0: 6769 3c3c d991 adbd 3e79 57bc bff3 f0bd
000000d0: 3c82 0bbd 05b5 ee3d 8e0a bebd 9d44 953d
000000e0: e1da b03d 180e a6bd d81a ec3c 3c23 ba3d
000000f0: e9fb 90bc 9355 033e ce5d de3d 7313 a93c
00000100: 53fc ff3b 965a d1bd f33c 69bc 979c 863b
00000110: ce11 a63d c2da 52bd 652d 2dbe 6f75 b4bc
00000120: 5a46 493d a206 c1bd d893 4a3e 479f 31bd
00000130: 14e9 2b3e e436 f0bd 8123 973d ada5 913d
00000140: de21 93bb 58d3 4abd 4bd0 3b3e 80f0 9a3c
00000150: 8a16 143e b3a2 8abc 504b 013e 4f8e 78bc
00000160: 75a2 5a3e 62e3 f13c a17a e43d 8b9d 613d
00000170: fb03 f43d 9427 b33d 5c41 95bb b031 61bc
00000180: dca5 0a3d 9d33 7ebc a2ec ddbc c42d 9c3d
00000190: 0ce0 cf3d 28f3 593b c4c9 043e 568c 033e
000001a0: 0604 4bbc 9334 1bbd f79d 673d 089c 933c
000001b0: b176 59bc e8de be3d d586 2e3e cad9 b5bd
000001c0: 2b2e fe3c 82c0 a0bc 7e82 65bd dff8 74bc
000001d0: eb7a 273e 5662 2abe cea0 133e 37ef 07be
000001e0: a8d4 583c 571e 89bd 215a 853c 225e 7ebc
000001f0: 5050 37bc 156e 97bd 5f37 4abd 7e66 8cbd
00000200: 221e 5ebb 9f5b e23c e5f9 dc3b 16aa 2f3d
00000210: 7f4c 663d c9b3 81bc 31eb 173e 2561 083d
00000220: 745f 59bd 8d15 04bd 98f1 ef3c c792 3e3d
00000230: 9efe 163e b1d4 9cbd 9b85 8e3c a4d9 34bd
00000240: a9a6 903c 2a4c 183c 8ba0 0bbe 67d5 b63c
00000250: f218 2a3e a882 09be
0.06060005 -0.10645772 -0.013563525 0.047541622 0.016072044 -0.1342621 0.114187054 -0.00010140246
0.021350723 0.061057366 0.21312529 -0.002967051 -0.029132532 -0.029003106 -0.06635498 0.05288441
-0.00094277196 -0.009646548 -0.08955179 0.007884164 -0.04305399 0.15433092 0.011671912 0.09987884
0.1357556 -0.08466567 0.014982246 0.082845435 0.093837105 -0.11298087 -0.09425281 0.14766914
-0.14477287 -0.016291907 0.100984655 -0.067696 -0.02466809 -0.08970602 -0.08425267 0.08983344
0.15091874 0.013359509 0.07411313 -0.011902626 0.062215313 -0.21173957 0.046577252 0.01131212
0.011499739 -0.08475084 -0.013151465 -0.11765241 -0.034059748 0.116556205 -0.09279357 0.072884776
0.08635498 -0.08108157 0.028821394 0.09088752 -0.017698245 0.12825613 0.108577356 0.020639157
0.007812062 -0.10222356 -0.014235723 0.0041080224 0.08108865 -0.051478155 -0.16911848 -0.022028653
0.049139358 -0.09425093 0.1978296 -0.04336479 0.16788131 -0.117292196 0.07379819 0.07111678
-0.0044901213 -0.04951796 0.18341176 0.018913507 0.14461723 -0.016923284 0.12626386 -0.015170648
0.21351035 0.02952737 0.11156202 0.055081885 0.11914822 0.08747783 -0.0045549106 -0.013744757
0.033849582 -0.015515235 -0.027090374 0.076259166 0.101501554 0.0033256505 0.12967592 0.12846503
-0.012391096 -0.037891936 0.05654713 0.018018737 -0.013272927 0.0931986 0.17043622 -0.088794306
0.031027874 -0.019623045 -0.05603265 -0.014951914 0.16355483 -0.16639075 0.14416811 -0.13274847
0.013234295 -0.0669524 0.016278328 -0.015525373 -0.011188582 -0.07394043 -0.049369212 -0.06855486
-0.0033892472 0.027631579 0.006743657 0.042886816 0.056225296 -0.015832799 0.14835812 0.03329577
-0.053069547 -0.032247115 0.029290006 0.046526697 0.14745566 -0.07657755 0.017397692 -0.04415287
0.017657595 0.009295503 -0.13635461 0.022318555 0.16611078 -0.13428748

model.fc.weight f4 [1, 50]
00000000: c8b9 2dbb 6597 5f3c 7dfb c7bc d763 203b
00000010: fb48 24bb a02d 613b 53db 51bc 4ffc 51bd
00000020: 2b53 e0bb 9b94 7e3a 7e85 0cbb 9f26 e6bb
00000030: 83bf f3bc d59a fdbb 415f d53b 42f2 b7ba
00000040: 3506 8dbc 828e f93c a8ed 97ba 1807 123d
00000050: 4300 80bd a0bb 173c 0187 1dbd bfa9 3d3b
00000060: ceed 35bb c905 0d3c ecfc a53c e96e 1d3c
00000070: 93d1 883b f6b6 8bbc 89b3 433c 9f07 05bc
00000080: 7f53 0b3d 0789 ac3a 48eb 34bc 09e5 a53c
00000090: fe66 0ebd ebb8 6b3d 9da3 2d3b 5d79 b73b
000000a0: 7086 44bc 1e86 443c c17c ab3b e9f2 aebc
000000b0: e5b4 64bc 27b0 8a3c 966e d03c c34c 09bc
000000c0: 92c4 a2bd e90d f33c
-0.002650844 0.013646935 -0.024411911 0.0024473572 -0.0025067914 0.003435947 -0.012808639 -0.05126601
-0.006845852 0.0009711475 -0.0021441872 -0.007023647 -0.029754406 -0.0077394047 0.0065115993 -0.001403399
-0.017214874 0.03046346 -0.0011591213 0.035651296 -0.0625005 0.009261042 -0.038458828 0.0028940288
-0.002776015 0.008607336 0.020262204 0.009608963 0.004175374 -0.017055016 0.01194466 -0.008119493
0.034015175 0.0013163396 -0.011042424 0.020250814 -0.03476619 0.0575494 0.0026495226 0.0055991844
-0.011994943 0.011994867 0.0052333777 -0.021356063 -0.013959144 0.0169297 0.025443356 -0.008380118
-0.07947649 0.029669719

exp_avg f4 [150, 22]
00000000: f592 0137 7356 d6b4 2c6c a136 9be0 cd36
00000010: 3497 cf36 9620 bfb6 026e 0337 32d9 a5b6
00000020: 6466 7f35 baf3 41b5 485f 37b5 a745 c8b6
00000030: b588 d7b5 aa2c 05b6 687f 8b36 f679 8936
00000040: 0000 0000 e29d 03b7 60fd 8936 5c62 17b6
00000050: 0000 0000 04e2 4636 6b54 aab6 8c3d 11b7
00000060: 733c 0836 6000 72b5 3a07 32b7 5c21 20b6
00000070: 44ee cc34 645d d6b6 39cd c636 3eb8 cc36
00000080: b350 7bb6 ef19 bcb6 1f81 bb35 8f12 d0b5
00000090: 609a deb6 f96f c5b5 0000 0000 6801 49b5
000000a0: 29bc 00b7 8507 3736 0000 0000 b258 84b5
000000b0: 164e ca36 f00d 35b6 b572 2a36 cb79 27b6
000000c0: 0cd5 acb5 0f3f 33b7 5213 d235 4e89 c2b6
000000d0: 5499 57b5 7229 ddb6 17c5 7236 ab99 04b7
000000e0: a3df 6936 476b 5536 210b b636 ade1 8135
000000f0: 0000 0000 e161 79b5 061e ccb3 15f2 8fb5
00000100: 0000 0000 17c5 b0b6 d077 a837 d9d5 7b37
00000110: a91c 03b7 6fbc 04b7 e0c1 0738 5261 53b7
00000120: b0cc 8937 35d5 96b6 7131 e7b6 b872 2ab7
00000130: f0af 9a37 b065 07b7 c587 6e37 e9c5 b2b6
00000140: f50b 7f37 6f4b 9e37 0000 0000 e5ff 42b7
00000150: b04b 28b6 dca8 48b5 0000 0000 50e2 6336
00000160: 5cc2 f436 a63f 8636 7c15 3636 e363 7935
00000170: 1b61 a136 9699 9f35 d38e 0e37 2002 83b4
00000180: 0327 cd36 ac60 49b5 7eed 4135 c6e6 7a35
00000190: 273d 2237 b7e9 3b35 de02 e235 2b97 fb36
000001a0: 0000 0000 8636 d6b6 fdec 3a35 8886 7334
000001b0: 0000 0000 8ace f234 2622 8b36 b8ec 5036
000001c0: 4b1a 52b6 6d5a 6bb6 a1fe cb35 27c0 b9b5
000001d0: 7f23 6936 0f36 6b33 d096 cf36 0736 1fb4
000001e0: 2a0d 1eb5 e432 9cb5 b5a7 0836 f416 73b5
000001f0: 854a 8036 73ec ba33 0000 0000 11d1 0f36
00000200: c61c 0bb6 57be 1135 0000 0000 d027 8bb5
00000210: c48a 6936 6ef4 88b6 7ab0 2337 727d b0b5
00000220: 89ca e9b4 b0cd 9fb7 0310 99b5 d454 9eb7
00000230: 3d28 19b7 a561 19b7 e01e 2637 ee0a 8eb7
00000240: 30f4 60b1 795e 0b35 dbe5 0037 154f 3d36
00000250: 0000 0000 099f 45b6 e606 3a36 a415 83b6
00000260: 0000 0000 bd5d 94b5 b1b3 e4b6 a93b 8ab7
00000270: 09a1 a0b5 85df 4d37 e133 61b7 9ebb 4035
00000280: 7408 ecb6 40a9 9ab4 b6e2 3137 adc1 8435
00000290: b60d edb6 82f4 b035 b3a4 c9b7 58a2 2e37
000002a0: 9866 1eb7 ee73 54b6 0000 0000 3ba7 ecb6
000002b0: c3f6 8436 a695 a635 0000 0000 551a f8b5
000002c0: ee5d f836 41a4 3037 bb19 97b6 6316 76b6
000002d0: 2d8b 2137 ef56 1a37 072d c036 d9fb 3337
000002e0: 8d6c 1ab6 c3b0 36b6 480f b033 9559 4037
000002f0: 59db 1037 84d3 f333 0de6 60b5 242b e533
00000300: 0000 0000 f67f d0b6 d8b0 e034 277d f8b4
00000310: 0000 0000 0755 32b4 f870 82b5 d24f 3b35
00000320: 4a0e c836 d103 a536 34a7 de35 a6f3 6536
00000330: 2f71 98b6 49bd 39b6 2841 fc35 6c1b ef35
00000340: 2839 2636 c123 1e36 52f4 5736 47c5 8d36
00000350: 2f51 f735 ebdd c136 0000 0000 a890 a4b5
00000360: 8b71 2d35 b72b 5b36 0000 0000 d8ab 9eb6
00000370: ada3 17b7 bc45 6d36 fb40 9f35 8e56 6b37
00000380: dd0e 20b6 eb58 e435 6bb0 a9b5 12b9 56b5
00000390: f14a 05b7 085a a436 f5b2 1437 baca 2ab5
000003a0: 37b5 36b7 eb23 f4b5 072a d9b6 2230 1a36
000003b0: 0000 0000 6a6a cfb6 c202 3636 7ef3 e034
000003c0: 0000 0000 5626 3bb6 4625 ce36 fefa 0436
000003d0: 3e97 2b36 3636 0b36 366b 8936 9ea0 9eb3
000003e0: dd27 e036 d871 cc35 1d58 4937 4615 e2b5
000003f0: 8f8b 1ab6 cb53 d635 d5ec 6236 be4e 3836
7.723215e-06 -3.9923506e-07 4.8107668e-06 6.1356236e-06 6.186683e-06 -5.696037e-06 7.833822e-06 -4.942668e-06
9.51439e-07 -7.225277e-07 -6.8311465e-07 -5.968573e-06 -1.6058535e-06 -1.9844542e-06 4.157355e-06 4.0971163e-06
0.0 -7.844968e-06 4.112415e-06 -2.2558006e-06 0.0 2.9635858e-06 -5.0762224e-06 -8.6570035e-06
2.0300765e-06 -9.015257e-07 -1.0611309e-05 -2.3861276e-06 3.8171322e-07 -6.388569e-06 5.924751e-06 6.1011224e-06
-3.7448888e-06 -5.6058557e-06 1.3970165e-06 -1.5502609e-06 -6.634087e-06 -1.4710232e-06 0.0 -7.488038e-07
-7.673204e-06 2.7273502e-06 0.0 -9.86058e-07 6.0291595e-06 -2.6979214e-06 2.5398742e-06 -2.4955832e-06
-1.2877003e-06 -1.0683913e-05 1.5651842e-06 -5.797635e-06 -8.0316863e-07 -6.591138e-06 3.6175531e-06 -7.903592e-06
3.484988e-06 3.1801917e-06 5.4253182e-06 9.676929e-07 0.0 -9.290216e-07 -9.5049515e-08 -1.0724785e-06
0.0 -5.268153e-06 2.0082953e-05 1.5010556e-05 -7.814881e-06 -7.911686e-06 3.236707e-05 -1.2599239e-05
1.6426988e-05 -4.495169e-06 -6.890092e-06 -1.01595e-05 1.8440158e-05 -8.070303e-06 1.4217517e-05 -5.327853e-06
1.5201968e-05 1.8870194e-05 0.0 -1.1622881e-05 -2.5078007e-06 -7.475153e-07 0.0 3.3957367e-06
7.294393e-06 4.000921e-06 2.713262e-06 9.290508e-07 4.8094785e-06 1.1891123e-06 8.497113e-06 -2.4402198e-07
6.1140177e-06 -7.501901e-07 7.22437e-07 9.3468077e-07 9.670191e-06 7.000303e-07 1.6839147e-06 7.497981e-06
0.0 -6.3840444e-06 6.9635263e-07 2.2680081e-07 0.0 4.522629e-07 4.146498e-06 3.1132204e-06
-3.1307743e-06 -3.5070364e-06 1.5198785e-06 -1.3839498e-06 3.4740367e-06 5.4764367e-08 6.1866376e-06 -1.4827684e-07
-5.8878743e-07 -1.1637717e-06 2.0363198e-06 -9.0557955e-07 3.8233725e-06 8.70431e-08 0.0 2.1430353e-06
-2.0729362e-06 5.429369e-07 0.0 -1.0367894e-06 3.4800478e-06 -4.081571e-06 9.756646e-06 -1.3149531e-06
-4.3546996e-07 -1.9050058e-05 -1.1404048e-06 -1.8874569e-05 -9.128879e-06 -9.142245e-06 9.90156e-06 -1.6932809e-05
-3.2735095e-09 5.191901e-07 7.682912e-06 2.8209226e-06 0.0 -2.9447858e-06 2.7720175e-06 -3.9066235e-06
0.0 -1.1054141e-06 -6.8158483e-06 -1.6478663e-05 -1.1967796e-06 1.2270994e-05 -1.3423124e-05 7.179859e-07
-7.034332e-06 -2.880788e-07 1.0602807e-05 9.891133e-07 -7.0647466e-06 1.3184183e-06 -2.4037761e-05 1.0409007e-05
-9.441421e-06 -3.1657942e-06 0.0 -7.0528163e-06 3.9626334e-06 1.2411517e-06 0.0 -1.8485104e-06
7.401911e-06 1.0528661e-05 -4.503146e-06 -3.6669887e-06 9.628752e-06 9.199356e-06 5.7272878e-06 1.0727869e-05
-2.3010973e-06 -2.7223002e-06 8.198418e-08 1.1464949e-05 8.63414e-06 1.1354044e-07 -8.378127e-07 1.0671491e-07
0.0 -6.2137797e-06 4.1851922e-07 -4.628466e-07 0.0 -1.6608475e-07 -9.718633e-07 6.977908e-07
5.962128e-06 4.9178275e-06 1.6588951e-06 3.4265481e-06 -4.5431293e-06 -2.7677327e-06 1.8794426e-06 1.7814868e-06
2.4769197e-06 2.3564646e-06 3.217971e-06 4.2250936e-06 1.8426562e-06 5.777683e-06 0.0 -1.2261053e-06
6.461275e-07 3.2658988e-06 0.0 -4.728772e-06 -9.03841e-06 3.5356343e-06 1.1865335e-06 1.4027244e-05
-2.385051e-06 1.7013202e-06 -1.2642826e-06 -7.9990525e-07 -7.944866e-06 4.898062e-06 8.863154e-06 -6.362494e-07
-1.0890238e-05 -1.818987e-06 -6.4719966e-06 2.2975805e-06 0.0 -6.181469e-06 2.7121719e-06 4.1900415e-07
0.0 -2.7887486e-06 6.1436176e-06 1.981563e-06 2.556902e-06 2.074417e-06 4.095399e-06 -7.3866644e-08
6.680361e-06 1.5232317e-06 1.2001049e-05 -1.6844504e-06 -2.3029022e-06 1.596863e-06 3.3814479e-06 2.746397e-06

exp_avg_sq f4 [150, 22]
00000000: 0412 db2f e934 a42f b673 1730 f59c 1930
00000010: d1d1 3330 334a a230 afa5 2d30 80fa 6d30
00000020: 3371 3d30 a53f d12f 530b ac2f 6462 b630
00000030: da0b c32f a43a 182f 5965 ab2f c6af ad2f
00000040: 0000 0000 fb63 c82f 96c9 7c2f de65 752f
00000050: 0000 0000 6b4f 922f 3134 2130 f98f d52f
00000060: 15dc 302f 90b9 b02f 7095 4130 9684 bc2f
00000070: bc3d b02f 15ae 542f a542 792f 34db 5930
00000080: 7650 bc2f 6ed6 832f 3a6d 942f 3b87 6130
00000090: c338 3430 da53 3e30 0000 0000 f1e2 1e30
000000a0: 16a0 1230 0f8e ce2f 0000 0000 274f 2c30
000000b0: 4bb2 9230 caeb 8830 d23d 3a31 7b71 fd30
000000c0: de53 8d30 16f9 8231 b4fc c730 1578 6331
000000d0: d1c7 8430 203e b330 a8f0 4331 ff43 6331
000000e0: 3023 4b30 24b1 f930 6316 9830 a15b 4d31
000000f0: 0000 0000 0e93 a330 bb73 4730 2803 5b30
00000100: 0000 0000 1682 2a31 86af 7f30 ea05 ec30
00000110: 8e9c 4b31 09f6 8031 921d 9030 ff62 3631
00000120: b74c 4530 0465 c930 7d64 9d30 9cd6 9430
00000130: 41d3 0231 8609 2931 d013 e230 ea69 cc2f
00000140: 1c96 4f30 0b0e af30 0000 0000 af46 f32f
00000150: 6cd2 a62f bf73 ac2f 0000 0000 b88a fd2f
00000160: d2da 7030 8bdb d52f 12ea 882f 55df 0630
00000170: 787b e22f 89a9 b32f ce56 cf2f 5747 ad2f
00000180: c218 3b30 5d43 6d2f 97cf 2530 c50e b12f
00000190: 6c01 8a30 cc46 5930 893a b92f c5e1 6a30
000001a0: 0000 0000 c3e9 cd2f fe99 ac2f 4ec5 a32f
000001b0: 0000 0000 265f 3130 ef68 a62f 14af 1a30
000001c0: ee48 1331 0307 6430 75e3 ef2f f591 0f31
000001d0: 5de0 a62f 296c f930 5472 f430 e199 3330
000001e0: ca53 8b2f 4385 f830 9d0a 5f30 42f6 c52e
000001f0: 7143 b32f e83e 6630 0000 0000 e24d e92f
00000200: 76d1 822f 3611 962f 0000 0000 01af 9f2f
00000210: 30f0 fd2f 591a 782f ad9b ad30 2fc6 2330
00000220: 1a35 782f 5dff cd30 c1ec 632f faea 9630
00000230: 83ad 0930 2626 a730 6c51 1330 d7a9 6c30
00000240: 121b f82f 04b6 b32f ac51 7730 60d5 ea2f
00000250: 0000 0000 9359 e72f 5a37 262f 199c 322f
00000260: 0000 0000 b2ce 422f 9893 3e32 c32c b932
00000270: 0286 a031 dd4d 8531 c9f5 aa31 1fae 0b32
00000280: fe62 8331 82b3 d931 b26e a931 4370 ed31
00000290: e298 a031 dd88 f731 c6ff 3a32 f2d0 5d31
000002a0: 52c3 0a32 3d34 9631 0000 0000 bd0e 5b31
000002b0: 68f7 c231 9cb7 0632 0000 0000 5c5b b931
000002c0: d0c5 fc2f 2d5e 8230 adf6 2d2f 3dc9 4a2f
000002d0: 14c0 e02f 4ffb a62f fc8c 8b2f 9ee9 0030
000002e0: e265 532f 3fd8 5a2f 6f63 a02f 21c3 0030
000002f0: bb81 8f2f f178 e82e d1ef 832f 52ee 392f
00000300: 0000 0000 3374 a92f 7998 aa2f 428d 742f
00000310: 0000 0000 9a79 482f 011f 492f 13cf 292f
00000320: 9468 d22f 428f 962f b885 242f dca9 a42f
00000330: 031b 0d30 2467 592f bf5e 792f 71dd c52f
00000340: 1dc8 a22f a8a0 752f 9a4c 5a2f 4a02 1b30
00000350: d7fc 152f 5356 0a2f 0000 0000 e4e6 242f
00000360: 3bbf 112f 39ce e62e 0000 0000 9b78 292f
00000370: 17ef 5830 0c26 5530 a6b3 9e2f 34e4 bb2f
00000380: 206e ae30 ba9a db2f f241 cf2f 6d14 1830
00000390: 50dd a730 6759 3130 55d8 4130 c69c 0930
000003a0: 1b9b 0930 e370 ba2f c97d 0530 cc85 912f
000003b0: 0000 0000 6286 1a30 a2b8 0c30 b2f1 d52f
000003c0: 0000 0000 b562 e32f f5f0 0030 99bb 6130
000003d0: 3790 ed2f 514c 0a30 fa85 0e30 5dbc 9e30
000003e0: 5b88 ff2f aa82 a830 85bd 3031 1842 0c30
000003f0: 7c84 3930 67f4 ab30 84e0 8830 152d 1030
3.984867e-10 2.986902e-10 5.5097915e-10 5.5884125e-10 6.541799e-10 1.180814e-09 6.3172484e-10 8.657608e-10
6.8918665e-10 3.80621e-10 3.1294664e-10 1.3270207e-09 3.5478714e-10 1.3845153e-10 3.117673e-10 3.159341e-10
0.0 3.6450828e-10 2.2990884e-10 2.231881e-10 0.0 2.6613675e-10 5.864563e-10 3.8846773e-10
1.6085296e-10 3.2146064e-10 7.0425354e-10 3.429121e-10 3.2058078e-10 1.9343134e-10 2.2670095e-10 7.9255646e-10
3.4254172e-10 2.3981123e-10 2.6998653e-10 8.2046697e-10 6.556428e-10 6.924076e-10 0.0 5.780257e-10
5.3341986e-10 3.757212e-10 0.0 6.268572e-10 1.0673572e-09 9.962318e-10 2.7101703e-09 1.8440426e-09
1.0282937e-09 3.8118158e-09 1.4550978e-09 3.3101106e-09 9.661055e-10 1.3041621e-09 2.8513032e-09 3.3071499e-09
7.3900974e-10 1.8167481e-09 1.1065818e-09 2.9883511e-09 0.0 1.1901606e-09 7.256024e-10 7.967622e-10
0.0 2.4812201e-09 9.3017893e-10 1.7172941e-09 2.962938e-09 3.7532613e-09 1.0485783e-09 2.6540758e-09
7.17772e-10 1.4653385e-09 1.1451814e-09 1.0829413e-09 1.9037574e-09 2.459815e-09 1.6449295e-09 3.718264e-10
7.551948e-10 1.2736917e-09 0.0 4.4251666e-10 3.0344738e-10 3.136886e-10 0.0 4.6118998e-10
8.7622454e-10 3.890047e-10 2.4904573e-10 4.906629e-10 4.119689e-10 3.2680372e-10 3.771476e-10 3.1519207e-10
6.8065387e-10 2.1578957e-10 6.0321653e-10 3.2206607e-10 1.0041226e-09 7.904475e-10 3.3692896e-10 8.544954e-10
0.0 3.745538e-10 3.1396036e-10 2.978972e-10 0.0 6.452744e-10 3.0269784e-10 5.6273675e-10
2.1432771e-09 8.295588e-10 4.3635465e-10 2.0892206e-09 3.0354644e-10 1.8147875e-09 1.7785831e-09 6.5338496e-10
2.5343488e-10 1.808225e-09 8.114201e-10 9.002267e-11 3.260783e-10 8.376291e-10 0.0 4.2437792e-10
2.3795693e-10 2.729707e-10 0.0 2.904628e-10 4.6191095e-10 2.2564829e-10 1.2631652e-09 5.958069e-10
2.2574334e-10 1.4988292e-09 2.0729642e-10 1.0980721e-09 5.0086885e-10 1.2161692e-09 5.3593996e-10 8.6097657e-10
4.5130172e-10 3.268924e-10 8.997414e-10 4.2715964e-10 0.0 4.2082302e-10 1.5117277e-10 1.6244463e-10
0.0 1.771763e-10 1.10930145e-08 2.155719e-08 4.671848e-09 3.8796615e-09 4.9755937e-09 8.130455e-09
3.823856e-09 6.335939e-09 4.931132e-09 6.9103705e-09 4.6739936e-09 7.2042057e-09 1.0884781e-08 3.2278504e-09
8.077068e-09 4.3715134e-09 0.0 3.1877072e-09 5.67427e-09 7.8415745e-09 0.0 5.394595e-09
4.5979087e-10 9.485511e-10 1.5821895e-10 1.8443287e-10 4.0881842e-10 3.037379e-10 2.5384128e-10 4.689812e-10
1.9226534e-10 1.990381e-10 2.9174482e-10 4.6843424e-10 2.6103728e-10 1.0571622e-10 2.399916e-10 1.691032e-10
0.0 3.0823485e-10 3.1031158e-10 2.2241856e-10 0.0 1.8233096e-10 1.8291858e-10 1.5444028e-10
3.8273085e-10 2.7386632e-10 1.496322e-10 2.9952119e-10 5.1333887e-10 1.9772678e-10 2.2680079e-10 3.5991435e-10
2.9609817e-10 2.2339697e-10 1.9854199e-10 5.6391924e-10 1.3641298e-10 1.2581695e-10 0.0 1.4997742e-10
1.3255612e-10 1.04958216e-10 0.0 1.5413308e-10 7.892011e-10 7.7543016e-10 2.886768e-10 3.417725e-10
1.2691466e-09 3.9945808e-10 3.7699938e-10 5.5326305e-10 1.221375e-09 6.4519273e-10 7.052042e-10 5.00631e-10
5.006073e-10 3.3913414e-10 4.856387e-10 2.6470415e-10 0.0 5.6215843e-10 5.119408e-10 3.891621e-10
0.0 4.1361195e-10 4.690855e-10 8.2121115e-10 4.321252e-10 5.031256e-10 5.184969e-10 1.1549549e-09
4.6481116e-10 1.2260746e-09 2.57191e-09 5.102563e-10 6.749088e-10 1.2511351e-09 9.959114e-10 5.245096e-10

exp_avg f4 [150, 50]
00000000: 5ba9 2635 3bab 2035 3fe1 9935 ba74 c735
00000010: 29ac 06b5 58ea 3535 d23e a9b5 593a 1bb5
00000020: 35a0 5034 774e b634 ab6d 9135 e799 d134
00000030: 765c 2036 c4d5 9334 2fd1 c333 df79 6934
00000040: ce5d f133 ff8a b634 f141 a7b4 23dd c4b5
00000050: 719c 8436 4948 9434 eaea 22b4 5efe b233
00000060: f3dc 1335 fe1f 0836 096f 4635 5ab7 1135
00000070: 11c0 79b4 19a1 14b5 d82c 3235 1c9c 2a35
00000080: 665d bf35 f34a 8fb4 8cd5 ad34 2b13 07b4
00000090: 931d aa35 185c 8fb6 294d 53b5 19fb a4b5
000000a0: 6b76 1d35 a040 b6b4 3bb6 1fb5 1f09 2835
000000b0: 6bcc 4db4 8bbb 05b6 6381 b9b4 c14a adb4
000000c0: 4d34 bd35 c1fb 3fb6 ab86 a9b4 6c32 53b5
000000d0: ec1f 43b6 f26a fa34 9ac9 bb35 f217 a535
000000e0: 85d8 94b5 3197 e735 7e80 db34 9faa 7534
000000f0: 1afe d034 d1de beb5 c47c 1135 e381 6bb4
00000100: 5100 4234 0513 6635 d56e 05b5 f9fb 2236
00000110: 8d4a b234 1279 8d35 5d12 3435 c9ac 7834
00000120: 0dc4 39b5 0974 1e33 7afb 7c32 5bba 2ab5
00000130: 8287 4133 7c94 a1b2 2996 66b4 787d a3b5
00000140: 7492 9f34 b891 d4b5 ebfa 17b6 fcf1 6435
00000150: 7f8a fbb4 2d34 54b3 718f 5db5 76dd 48b5
00000160: 6dec 4ab4 072c 33b3 fdbf 2c35 67bb b0b4
00000170: 601e 86b4 fc36 0735 0600 2235 9d27 f8b4
00000180: 03a9 cf35 acb8 9fb5 97bb cc34 b7f6 17b6
00000190: 2602 2535 4302 b7b3 e85e dd35 45d2 8c35
000001a0: bcc4 6635 aadd 2ab4 25f5 a135 cdc5 1135
000001b0: 2810 9434 5582 5db4 55ee d134 24ad 5435
000001c0: 4d15 15b4 b822 5535 2caf 9833 dd2e 0b35
000001d0: afd3 e232 35ab c9b5 3d50 51b5 d01a f934
000001e0: 7d11 ab35 74fb 9035 0aa5 eeb4 4f3c 75b5
000001f0: 244b 71b4 a5d3 8035 ffda aeb4 b288 cb35
00000200: cf1f ebb3 4124 a4b5 01ca a435 29f7 f334
00000210: f716 4e35 5185 f533 7253 1fb5 3528 4035
00000220: be7d 5f35 86ff da34 c0db 1435 2f2d cfb4
00000230: 3a44 4833 548d 7fb3 fd38 90b5 be36 68b4
00000240: 5f8e 3535 1bc6 a3b4 7839 a1b2 f186 7eb4
00000250: 98b1 8133 8b72 2ab5 6814 fe35 452b 3f36
00000260: f6a7 d836 5720 1b36 0efd 20b6 c772 3bb6
00000270: d20a 1f36 64ac 71b6 9c14 6eb5 4789 9334
00000280: ae6d b835 f36d 8436 aa2b 8436 4778 d234
00000290: 6833 98b5 19b1 34b6 8491 8436 4a92 9bb6
000002a0: b501 31b6 5890 38b6 1511 e036 3fc5 0eb6
000002b0: 184f da35 6ea1 6bb2 1bbb 4db5 b0f8 4836
000002c0: 0ece 09b6 cafa 7ab5 afb0 1e34 9ec3 0134
000002d0: a0e2 f5b5 60a5 b436 d9e6 ce36 04b6 20b6
000002e0: ddab 2936 7716 1835 678a 7f36 e3a6 c5b6
000002f0: 9346 8f33 d03b 97b6 d8a4 04b5 37bb 4136
00000300: fa24 0bb6 9597 6835 6b04 81b4 ea47 5cb5
00000310: 0192 abb6 d738 c335 7d32 ee36 1969 84b6
00000320: 3c7a ac33 523a 2935 3521 4035 f39d c735
00000330: 7bfc bbb5 b116 a335 f779 bdb3 f656 40b6
00000340: 18d7 aeb4 82c9 4734 af02 4935 8d83 0135
00000350: 2f94 0536 f39a a3b3 37c7 72b5 89d1 ca33
00000360: 3b71 f334 ab99 1135 ae60 c1b3 716f 2e34
00000370: 1fff 5ab5 811a 53b2 0733 4b35 a71b 2d34
00000380: d533 1b34 c1c7 d235 fc44 d434 2697 b8b5
00000390: 6cae 55b4 47cd acb5 17be 8a35 27f9 0335
000003a0: d103 0636 b47d e434 9eaa a4b4 06bb a235
000003b0: 5c37 6734 6252 33b6 3a61 30b3 5e81 bfb5
000003c0: 7904 43b4 bf06 3435 0f99 4434 171d 6635
000003d0: f592 82b4 b6c7 56b5 5727 6bb4 9ce0 60b5
000003e0: 027f 4db5 14e4 0cb6 a289 8234 4678 05b4
000003f0: deb4 34b5 4b42 a034 0c9b 66b3 8c00 35b5
6.2086264e-07 5.985382e-07 1.1464944e-06 1.4860627e-06 -5.0169416e-07 6.776877e-07 -1.2609764e-06 -5.7826907e-07
1.9429793e-07 3.3957232e-07 1.083526e-06 3.9041262e-07 2.3895677e-06 2.753642e-07 9.1184454e-08 2.1744152e-07
1.12395e-07 3.4001275e-07 -3.1154153e-07 -1.4667497e-06 3.9521187e-06 2.7619743e-07 -1.5172887e-07 8.33504e-08
5.508329e-07 2.02842e-06 7.3922325e-07 5.428352e-07 -2.3259805e-07 -5.5368724e-07 6.6375424e-07 6.3557104e-07
1.4257791e-06 -2.6690358e-07 3.2379137e-07 -1.2579828e-07 1.2674594e-06 -4.272453e-06 -7.871591e-07 -1.2292031e-06
5.865938e-07 -3.3947163e-07 -5.9497296e-07 6.259815e-07 -1.916648e-07 -1.9927709e-06 -3.4553076e-07 -3.2278152e-07
1.4096819e-06 -2.8607758e-06 -3.1576687e-07 -7.8677e-07 -2.9075845e-06 4.6643942e-07 1.399126e-06 1.2300427e-06
-1.1089875e-06 1.7254844e-06 4.088542e-07 2.2879475e-07 3.8927902e-07 -1.4220951e-06 5.419827e-07 -2.1933333e-07
1.8067773e-07 8.5709354e-07 -4.970764e-07 2.4286549e-06 3.3209326e-07 1.0540555e-06 6.708195e-07 2.3159659e-07
-6.920316e-07 3.6892775e-08 1.472551e-08 -6.360112e-07 4.5059558e-08 -1.881039e-08 -2.1475047e-07 -1.2180963e-06
2.9722617e-07 -1.5837641e-06 -2.2646807e-06 8.528875e-07 -4.6853162e-07 -4.940755e-08 -8.253765e-07 -7.4828074e-07
-1.8898727e-07 -4.1716728e-08 6.4354373e-07 -3.2918908e-07 -2.4981546e-07 5.037143e-07 6.0349737e-07 -4.6222422e-07
1.5471891e-06 -1.190017e-06 3.813445e-07 -2.264436e-06 6.1470416e-07 -8.522013e-08 1.6493404e-06 1.0492009e-06
8.5967963e-07 -1.5913125e-07 1.2066781e-06 5.430455e-07 2.7578903e-07 -2.0629643e-07 3.9102693e-07 7.9228107e-07
-1.3884456e-07 7.9399206e-07 7.109915e-08 5.184973e-07 2.6406125e-08 -1.5025495e-06 -7.797533e-07 4.6399373e-07
1.2745583e-06 1.0802019e-06 -4.4451036e-07 -9.1357373e-07 -2.247221e-07 9.59834e-07 -3.2569366e-07 1.5164462e-06
-1.0948826e-07 -1.2229503e-06 1.2277743e-06 4.544211e-07 7.67744e-07 1.1432952e-07 -5.9353545e-07 7.158408e-07
8.325695e-07 4.0791582e-07 5.5454075e-07 -3.858963e-07 4.662818e-08 -5.950035e-08 -1.0745422e-06 -2.1626599e-07
6.763493e-07 -3.0505257e-07 -1.8769e-08 -2.3704685e-07 6.039335e-08 -6.3496617e-07 1.8930414e-06 2.8486404e-06
6.456855e-06 2.3115624e-06 -2.3989155e-06 -2.793198e-06 2.3699145e-06 -3.6012143e-06 -8.86919e-07 2.7480766e-07
1.3740989e-06 3.9467063e-06 3.9389897e-06 3.920306e-07 -1.1339844e-06 -2.6925175e-06 3.950847e-06 -4.6363903e-06
-2.637605e-06 -2.7502156e-06 6.677709e-06 -2.1274461e-06 1.6265285e-06 -1.3715505e-08 -7.6640725e-07 2.9947078e-06
-2.053453e-06 -9.3497204e-07 1.4779174e-07 1.2085226e-07 -1.8319879e-06 5.38367e-06 6.1661526e-06 -2.3947805e-06
2.5283e-06 5.6657103e-07 3.8078522e-06 -5.8904857e-06 6.671794e-08 -4.5071138e-06 -4.941371e-07 2.8868214e-06
-2.0734137e-06 8.6647316e-07 -2.4031337e-07 -8.2061035e-07 -5.113194e-06 1.4545175e-06 7.0988303e-06 -3.9461415e-06
8.0316084e-08 6.3042273e-07 7.1573896e-07 1.4872625e-06 -1.4006067e-06 1.215105e-06 -8.8231836e-08 -2.8660847e-06
-3.2566527e-07 1.8606627e-07 7.488224e-07 4.8247676e-07 1.9904799e-06 -7.618464e-08 -9.044192e-07 9.444472e-08
4.5344663e-07 5.4240326e-07 -9.004849e-08 1.6245555e-07 -8.158258e-07 -1.2287843e-08 7.569765e-07 1.612194e-07
1.4454356e-07 1.5704355e-06 3.953827e-07 -1.3753058e-06 -1.9900625e-07 -1.2874742e-06 1.0337125e-06 4.916387e-07
1.9969777e-06 4.255977e-07 -3.067152e-07 1.2124372e-06 2.1533691e-07 -2.6721032e-06 -4.106662e-08 -1.426826e-06
-1.8162417e-07 6.706504e-07 1.8309605e-07 8.572401e-07 -2.4321312e-07 -8.001183e-07 -2.1900392e-07 -8.377335e-07
-7.655327e-07 -2.0994385e-06 2.4314528e-07 -1.2430345e-07 -6.731842e-07 2.9850557e-07 -5.3692062e-08 -6.742855e-07

exp_avg_sq f4 [150, 50]
00000000: eae2 322e ff19 6f2d 71be f82d 042e 862d
00000010: d571 bb2d 3f6c 4d2e 794b 2e2f 169f ed2d
00000020: e6e9 142e f779 aa2d bcf6 242e ab19 a12d
00000030: 2337 972e e2af ad2d 310c d52d 861a 0d2e
00000040: 6518 022e 16e5 522e a421 892d b440 3a2f
00000050: d375 662f 26c7 b32d d500 4b2e c082 c12d
00000060: fed1 b12d b56b 832e e2d3 9e2d d4c8 962e
00000070: 3a7b 082e 2fa4 b12d 66bc 4a2e bc98 0e2e
00000080: f641 412e 8d44 ff2d cf62 df2d 55cd 3e2e
00000090: c865 502e 7c7c de2f f947 0a2e dee7 b82e
000000a0: c2a3 cd2d 529c 152e dc4e b02e ac88 232e
000000b0: 5295 3b2e 7755 962e c9bc 982d a7c6 832e
000000c0: af6c 122f 444b 912f e8b9 562d 2b2b 5f2d
000000d0: fde8 402e 1cbd 632d 3d2b d72d 7de3 4b2e
000000e0: 00f6 c82d e010 292e d01c 452d bebf eb2c
000000f0: 17db 8a2d 504b d82d 4827 9c2d ca61 3e2d
00000100: 0eae 112d fddf c42d 4637 8b2d 736f 522e
00000110: 2e48 2e2d 5f6a 992d da50 f82d 2798 642d
00000120: 105c 712d 9cb3 222d b628 d62c b4d1 5e2e
00000130: 3053 752d 83e7 242e 9bd2 0a2d 107a 142e
00000140: d9a8 b42d 7e87 8d2d 2201 bf2e 8aa8 6a2d
00000150: 92e0 852d 27aa 1a2d 4b2c 912d aa51 8a2d
00000160: ce36 352d c483 b62d 0f91 6a2d b565 8e2d
00000170: effb 942d d3d6 582d be25 642d f97c 522e
00000180: f075 e32d 28c6 022e 1fd5 192e 9be2 0f2e
00000190: 7e69 822f 5004 8d2e d8da 192f 85cb 2d2e
000001a0: 3e2d 062f 54ca ce2e fa2b 9f2f 14d6 232f
000001b0: 1ea9 a32e ef50 602e 6fee 092f 8361 ec2e
000001c0: 40a3 182f 0a01 8e2e 6111 b62e ad0d bc2e
000001d0: 6b3d 042f c79b fc2e 5079 212e 8b52 9a2e
000001e0: 048b 592f 4783 992e c5c5 512e f5e1 cb2e
000001f0: dcf1 122e e79f 302f 95fb 512e 2a98 8a2f
00000200: d1f3 ab2d 2243 0c2f 69de a22e 05c7 072f
00000210: 59bb eb2e fa4d 1b2e 2ba5 d72e c2f1 0c2e
00000220: 216e 852e 1f25 c62f 88d1 6f2e 3c24 332e
00000230: c2a3 f22d 3d4e 762e 0018 a52f 5e73 e02e
00000240: 3f9c 772e 8c2e 792f de81 8f2e c4bf ab2e
00000250: 523f 942e 6422 c02e 4c27 3a2e 029c e72d
00000260: 9cc6 a42e cfe6 172e e7d6 fc2d 6d93 392f
00000270: fb10 012f bb36 f42e 4fbf 262e 5105 c82d
00000280: a899 6b2e a984 092e 1d55 df2e 067a 1c2e
00000290: b313 3b2e defe 822e 2da5 042f d12d 492f
000002a0: fc03 ec2d 836d 892e 8d78 852f 0193 e92e
000002b0: d79f 602e 55eb 5f2d a064 222e d480 222f
000002c0: bf28 352f ad23 e02e 6142 962d cc21 682e
000002d0: 6639 7b2f 07af 9c2e e0aa bb2e b892 0f2e
000002e0: eeed a12e d2d9 022e 6e2e 4f2e af70 ba2e
000002f0: 6802 2e2e e892 f02e c6b5 1e2e 65be 112f
00000300: d646 b82e 40c4 412e 4dae 022e d507 c62e
00000310: 58c5 352f a2f6 942e c1bd 0630 6b6b cc2e
00000320: 706e 8b2d c0c4 3c2d 4b18 e92d b04b 752d
00000330: 47c9 352e b695 d92d 4d76 d32d 8e84 2e2f
00000340: 204a bf2d 2a02 8e2d f31c 9d2d a8aa 182d
00000350: bc60 6c2e d864 972d b226 9d2d 8f15 7c2d
00000360: 165e 3e2d f048 cc2d 3cfb ef2c 9f35 872d
00000370: a86a ea2d df29 832d 5c0f a52d c231 0e2d
00000380: e31c d12c 6ffe 0b2e 1fa3 972d 72a1 852e
00000390: 69dc 2f2d 5318 d72d 96ff b82e eb5a 992d
000003a0: 470d 9f2e 2dca d52d 5fbc 0c2e 32a6 cc2d
000003b0: 5e5e 272d 15c6 aa2e 976e 402d 4e3d f62d
000003c0: ed87 502d a61f bc2d 7632 532d ceae 0a2d
000003d0: bc59 642d 92f6 052e 0e47 672d 616a da2d
000003e0: 65be 442e f56e 6d2e a43b 312f 29c0 412e
000003f0: 3f77 072f 2a53 a02d 7b94 c22d 3ae4 552e
4.0674054e-11 1.3591349e-11 2.8278909e-11 1.5254471e-11 2.130999e-11 4.6707745e-11 1.5852021e-10 2.7014429e-11
3.3859048e-11 1.9380926e-11 3.7508427e-11 1.831498e-11 6.876479e-11 1.974593e-11 2.422071e-11 3.2083246e-11
2.9580245e-11 4.795194e-11 1.5590036e-11 1.6939589e-10 2.0960238e-10 2.0438384e-11 4.6157595e-11 2.1999624e-11
2.0215826e-11 5.976323e-11 1.8056615e-11 6.8568845e-11 3.1032267e-11 2.0195482e-11 4.6096814e-11 3.2422717e-11
4.3941704e-11 2.9020586e-11 2.5396045e-11 4.338337e-11 4.7384124e-11 4.0470016e-10 3.1441492e-11 8.408539e-11
2.3378525e-11 3.4017518e-11 8.0175616e-11 3.7183298e-11 4.26515e-11 6.836392e-11 1.7364237e-11 5.992478e-11
1.3317235e-10 2.6428826e-10 1.2205771e-11 1.2685668e-11 4.386268e-11 1.2945447e-11 2.4461872e-11 4.6358906e-11
2.2846613e-11 3.844114e-11 1.1204551e-11 6.7003894e-12 1.5786079e-11 2.4589802e-11 1.7752591e-11 1.0821963e-11
8.280944e-12 2.2382091e-11 1.5827017e-11 4.784746e-11 9.906782e-12 1.7441324e-11 2.8230241e-11 1.2994084e-11
1.3719706e-11 9.248515e-12 6.0867656e-12 5.066321e-11 1.3945109e-11 3.7494906e-11 7.891156e-12 3.3759717e-11
2.0538614e-11 1.6090015e-11 8.6858756e-11 1.3338783e-11 1.5220079e-11 8.791668e-12 1.6504261e-11 1.572505e-11
1.0300828e-11 2.074952e-11 1.33335695e-11 1.6188698e-11 1.6937533e-11 1.2325879e-11 1.296868e-11 4.785947e-11
2.5859287e-11 2.9734576e-11 3.4977462e-11 3.27157e-11 2.372182e-10 6.412704e-11 1.3993018e-10 3.9516408e-11
1.2203302e-10 9.403736e-11 2.895318e-10 1.490082e-10 7.442423e-11 5.1003587e-11 1.2544786e-10 1.0749359e-10
1.3882318e-10 6.457597e-11 8.279489e-11 8.5516795e-11 1.202715e-10 1.1487305e-10 3.671491e-11 7.017772e-11
1.9785423e-10 6.980954e-11 4.7696753e-11 9.271509e-11 3.341137e-11 1.6063915e-10 4.7744548e-11 2.5210173e-10
1.9548725e-11 1.2756776e-10 7.406415e-11 1.2348884e-10 1.07198424e-10 3.5312177e-11 9.806408e-11 3.204704e-11
6.0677026e-11 3.6042366e-10 5.452841e-11 4.073207e-11 2.7584938e-11 5.6003414e-11 3.0030378e-10 1.0206834e-10
5.6300072e-11 2.2662955e-10 6.525956e-11 7.810244e-11 6.741509e-11 8.737258e-11 4.2326406e-11 2.6330941e-11
7.493137e-11 3.4538424e-11 2.8744519e-11 1.6878028e-10 1.1738514e-10 1.11055574e-10 3.7913946e-11 2.2739729e-11
5.3569288e-11 3.126802e-11 1.0155985e-10 3.5578672e-11 4.2536374e-11 5.956989e-11 1.2064012e-10 1.8297121e-10
2.6831863e-11 6.249492e-11 2.4278216e-10 1.06217264e-10 5.107367e-11 1.2728337e-11 3.692391e-11 1.4779583e-10
1.647633e-10 1.0192678e-10 1.7082504e-11 5.278071e-11 2.2848709e-10 7.12515e-11 8.534129e-11 3.2644748e-11
7.363697e-11 2.975204e-11 4.710759e-11 8.4783174e-11 3.9565157e-11 1.0940032e-10 3.6086488e-11 1.3255315e-10
8.379934e-11 4.4057424e-11 2.9713388e-11 9.005389e-11 1.6531965e-10 6.7740716e-11 4.901857e-10 9.295927e-11
1.5851515e-11 1.073025e-11 2.6499821e-11 1.3943444e-11 4.1333405e-11 2.4736529e-11 2.4040459e-11 1.5872301e-10
2.1747104e-11 1.6144492e-11 1.786169e-11 8.678093e-12 5.3746105e-11 1.7211496e-11 1.7866018e-11 1.43293285e-11
1.0821141e-11 2.3224506e-11 6.820681e-12 1.5371536e-11 2.6650085e-11 1.491157e-11 1.876515e-11 8.082814e-12
5.9433443e-12 3.1830923e-11 1.7239153e-11 6.076818e-11 9.996539e-12 2.4453472e-11 8.4127524e-11 1.7434462e-11
7.2328414e-11 2.430508e-11 3.199962e-11 2.326592e-11 9.513805e-12 7.7658914e-11 1.0938492e-11 2.7994187e-11
1.1853613e-11 2.138718e-11 1.2005166e-11 7.883206e-12 1.29802245e-11 3.0459697e-11 1.3146607e-11 2.4830972e-11
4.4734345e-11 5.398611e-11 1.6119245e-10 4.4053792e-11 1.2320543e-10 1.8226826e-11 2.2121185e-11 4.86333e-11
