lightning_logs/version_33479210/checkpoints/epoch=49-step=11950.ckpt (torch, 142804 bytes, 15 tensors)

model.gru.weight_ih_l0 f4 [150, 22]
00000000: d9a9 f9bd 12bd 463d c54d 75bd 70a5 b0bc
00000010: c425 95bc 9ee9 ab3d 4fbe 43bc 3e4f 67be
00000020: 54ef 9dbc 3351 fcbd ea21 93bd d3e9 3f3e
00000030: 0809 263e 95b2 413e f9ef 66be 66c2 b03c
00000040: ca68 93bd cd34 a03d 9b94 74bd f87f a0bd
00000050: edf3 cd3d 1199 e1bd a292 dabc e131 d73c
00000060: 23b8 83be 2ce9 02be 2438 05bd 3e84 223e
00000070: 42ba bb39 4678 e83d 0c66 df3d c535 b13d
00000080: 429e ccbc 21e2 043d 880d 703e cb65 9f3d
00000090: 4065 0d3e a3e0 d03d 355e debd dcef c4bd
000000a0: 2965 0e3e 81ab 813d ab45 213d 17a1 c9bd
000000b0: 436d b63d e102 00be 2971 f0bc 19f0 e4bd
000000c0: ca55 663d 0111 8fbc 2989 14be a102 08bd
000000d0: facd aebd cfb1 45bd 18ab b03d 7e47 213e
000000e0: 7d2c fd3d f9c4 1bbe 1f05 463d 477e 933c
000000f0: 52e1 063e 66bb 40bd 3f01 a9bd 60b7 9e3d
00000100: 15f4 0abe 3e79 a9bb 2337 3d3e 6614 8ebd
00000110: 3058 35bd 44c0 28be 8dcd 8cbd 41ff 02be
00000120: 4749 0dbe f8b0 06be b5b1 cf3d f93c 40be
00000130: 10d2 273e 4598 833d 4276 89bc 7ffc 5d3e
00000140: 2ca3 8b3b 0236 94bd f381 97bd 6237 bdbd
00000150: 12d2 44bc 061e b03d 95bb 49bd 1789 183e
00000160: 67b3 77bd b2c8 a43d 49a3 33be c9de 2ebd
00000170: b314 283d 1689 943d 7a53 26be 6989 eabd
00000180: 57ab a5bc 693a b3bd 02c0 093d b415 483e
00000190: 6b6a 183e 7000 2d3e 9831 7ebc 9b64 983d
000001a0: cf6d 08be fa7d afbd e417 2dbe d01a e43d
000001b0: 72c2 c3bd ee38 8bbd 9a3d 88bd ec0f 183b
000001c0: ff04 fa3d 4b89 f23b 1ac6 db3d 76e9 5a3a
000001d0: edde f7bc 1e79 0dbe 7ea9 753d 772e 1ebe
000001e0: 6208 263e 6f02 6b3e a2b2 003e 3404 343d
000001f0: a84c 86bd 9f31 4f3d 37a5 d83c 5e19 403e
00000200: a38d 66bd a306 bbbd b25f 013e b8f5 82bd
00000210: c127 26bd e9a7 82bb adc7 203d 47ca e13b
00000220: 83c7 253d 6252 523e 883a ec3c 2f93 9abc
00000230: 02d9 463d c30c 6e3d 7179 3a3d 0709 a13d
00000240: 80eb 043e 1ba9 0c3e 6f87 47bc 0fba 91ba
00000250: 4d5c 9d3b a4a4 963c a253 0a3d 569d 423e
00000260: e260 643d a8bd 3ebe 6d73 c1bd ac9c 0c3e
00000270: 604b 0e3d 32c2 9b3c b9a0 2ebd b7e0 59be
00000280: ebb2 dc3d 23f9 713d 4e84 223e 61c4 003e
00000290: f1a3 0c3e 880f 6fbe 6a31 ae3c 22cd 40bd
000002a0: f8ec 043c 8966 3dbd 7f8f f13d b0d2 71bc
000002b0: 953e 3f3e 6ad2 93bd 1569 00be b44e d4bc
000002c0: d5a9 4cbc c1ea 21be 12e1 0abe 7d32 6abe
000002d0: 3250 1fbe dc60 153e 2b31 6cbd 22ca 813c
000002e0: 03c0 413c b469 6cbe 53cd 8f3d 143a 813d
000002f0: 6435 ad3d 2d79 3b3d 53d7 ca3d 1512 80be
00000300: 5136 01bd 0358 f43d 5f2f 54be aa32 80bc
00000310: 8000 e6bc f1e1 a6bd 4630 dcbd 9f06 51bd
00000320: bc82 3e3d f2de 433e 00be 103d 7140 923d
00000330: e62d 06be 55c7 27bd bdf3 e2bc 7754 19be
00000340: 926d 1a3e ec9a 423e f50f ba3c 4d19 b3bd
00000350: d181 37bd b132 283d 7da5 b8bd 9241 823c
00000360: 17b8 4ebe b24a 273e 6308 0ebe 233c 45be
00000370: e25d 52be 7b41 b73b 4623 6bbe 9878 0bbe
00000380: d33a 593d 106f 003e 91fc 8d3d 0fa0 56be
00000390: 4c07 40be e26b 88bd 7790 91bb 816f 0fbd
000003a0: 2058 b9bd 1377 443d e0bc 11be 2c51 debd
000003b0: 3340 343d 4f9e d8bd 11e2 b2bc fcbc 023e
000003c0: e35d e1bd 166b b3bd 1bdc 23bc cb1a b9bd
000003d0: e316 9dbd 9e3d 783d 8cae da3c 5e72 8b3d
000003e0: 2e32 3e3c 52b2 0ebe 98cf f03c 3542 4ebd
000003f0: 946f 363d 7475 313e 3cd0 5f3e 230f 3fbe
-0.12190599 0.048520155 -0.05988862 -0.021563262 -0.018206485 0.08394168 -0.011947229 -0.22588822
-0.01927916 -0.12320175 -0.07184203 0.1874154 0.16214383 0.1891578 -0.2255248 0.021577071
-0.07197721 0.07822571 -0.059712034 -0.07836908 0.10056291 -0.11015523 -0.026681248 0.026268901
-0.25726423 -0.1278426 -0.032524243 0.15870759 0.00035806192 0.11351065 0.10908136 0.08652834
-0.024977807 0.032442216 0.23442662 0.07783087 0.13808155 0.10199096 -0.10857812 -0.09616062
0.13905777 0.0633154 0.03937308 -0.098451786 0.08907559 -0.12501098 -0.029350834 -0.111786075
0.05623416 -0.017464163 -0.14505447 -0.033205632 -0.08535381 -0.048265275 0.086263835 0.15749928
0.12362001 -0.15211858 0.048344728 0.01800455 0.1317189 -0.047053717 -0.08252191 0.0774982
-0.13569672 -0.005171924 0.18478064 -0.069374844 -0.044273555 -0.16479594 -0.06875143 -0.12792684
-0.13797484 -0.13153446 0.10141317 -0.18773259 0.16388726 0.064255275 -0.016780023 0.21678351
0.004261395 -0.07236864 -0.07397833 -0.09239079 -0.012012975 0.085994765 -0.049251158 0.14896046
-0.060473826 0.08046092 -0.17542757 -0.042692933 0.041035365 0.072527096 -0.16242781 -0.1145199
-0.020223303 -0.08751375 0.03363038 0.19539529 0.14884345 0.16894698 -0.015514754 0.07441064
-0.13323139 -0.0856895 -0.16903645 0.111379266 -0.09558572 -0.06797968 -0.066523746 0.002320285
0.12207984 0.0074016205 0.10731144 0.00083508284 -0.030257666 -0.13815734 0.059976093 -0.15447412
0.16214135 0.22950147 0.12568143 0.04394932 -0.0655759 0.05058443 0.026445968 0.18759677
-0.05628742 -0.09132125 0.12634161 -0.063945234 -0.040565256 -0.0039873016 0.039252926 0.0068905684
0.040473472 0.20539239 0.028836504 -0.01886901 0.0485468 0.05811764 0.04552597 0.0786305
0.12980461 0.13736384 -0.012178286 -0.0011118072 0.004802263 0.018389054 0.033771165 0.19005331
0.055756457 -0.18627036 -0.09445844 0.1373164 0.034739852 0.019013498 -0.042633746 -0.21277128
0.107763134 0.059075486 0.15870783 0.12574913 0.13734414 -0.23345768 0.021263797 -0.04707063
0.008113138 -0.046240363 0.11794948 -0.0147597045 0.18676217 -0.07217868 -0.12540086 -0.025916435
-0.012491663 -0.15812208 -0.1356242 -0.22870822 -0.15557936 0.1458773 -0.057664078 0.015843455
0.011825564 -0.23087198 0.07021584 0.06309906 0.08457449 0.04576986 0.09904351 -0.25013795
-0.03154594 0.119308494 -0.20721196 -0.015649159 -0.02807641 -0.08148564 -0.10751395 -0.051031705
0.046511397 0.19128016 0.035337448 0.071411975 -0.13103446 -0.040961582 -0.027704114 -0.14973627
0.1508086 0.1900441 0.022712687 -0.0874506 -0.044801537 0.041063968 -0.090159394 0.015900407
-0.20187412 0.16337088 -0.13870387 -0.19261222 -0.20543626 0.0055925227 -0.22962674 -0.13620222
0.053034615 0.12542367 0.06932939 -0.20959495 -0.18752784 -0.06661202 -0.0044422704 -0.035018448
-0.09050012 0.04796512 -0.14232206 -0.10855326 0.044006538 -0.1057707 -0.021836312 0.12767404
-0.110042356 -0.087606594 -0.010001208 -0.090383135 -0.07670381 0.060605638 0.026694559 0.06808923
0.011608643 -0.13935211 0.029395863 -0.05035611 0.044540003 0.17329961 0.21856779 -0.18658118

model.gru.weight_hh_l0 f4 [150, 50]
00000000: 8f57 b13b de5f fabd 668f 843d 2c7e 96bd
00000010: 0b73 9c3d a2df 66be eb3b 1e3e 3176 bd3d
00000020: b9e2 72bd 7f74 e3bd 24ea 6bbe 5031 523e
00000030: 71be 5e3d 1aa4 e4bd 37e7 bfbc 3e2f 083d
00000040: 3afd 733e 16fc f2bc 7c16 d6bd 8c0b 1b3e
00000050: d7e3 81be d80c e13c fece f63d 8767 943d
00000060: 9a07 54ba 88ea 093e 2a1d 00bd cd2b 943b
00000070: 2cf3 e3bd 4156 21be ee56 e7bd cd43 d7bd
00000080: 1864 753d 2500 e03d 762d f8bc 55c0 83bd
00000090: 694b b03d b35d 22be 8767 2a3e c17c 1a3e
000000a0: c3d7 3cbe fc7f 033e 5b99 00be 5bc0 08bd
000000b0: 8ffa 8f3d 4a4b cabd ebb2 2d3c 6c58 71bd
000000c0: db88 323e 91e7 9b3d b7df 443d b717 8dbd
000000d0: 4d59 94bb 7023 58bc f277 a53d d126 3ebe
000000e0: 57d9 573d 8d7b d73d bfe8 333e 329d a33d
000000f0: a618 343d 91eb a23c 2553 70bd 6d4a 63bd
00000100: c998 f9bc af10 16be 5d77 443d b313 27be
00000110: 8a97 75bd 3060 383c 780c 5ebe 4b3e cb3c
00000120: 6954 15be 9474 953d 3411 323e f440 213e
00000130: 1a3a a73d 69a9 9c3c 64cc 8abd 9cec de3c
00000140: 3fdf ed3c 2198 b13c 7be7 a2bb 391c 293d
00000150: 68d9 24be e110 9f3d fa2e afbd ad99 023e
00000160: 22bc d0bd a812 3dbd 1304 3fbe ab89 34bd
00000170: 6506 11bd 9b4a bcbc 4798 a3bd e7bd 32be
00000180: f60c c63d a2bf ab3d b930 893d 8b20 38bd
00000190: 4d44 b03d 626d c938 0738 7dbe 8f5d 43be
000001a0: 92f4 4c3e 8183 3ebe c903 823c f7f4 ba3b
000001b0: 71e3 adbd 03de 953c ee76 cf3c 609b 2d3e
000001c0: 59e7 003e 06c6 a63d 139c a4bd c6e3 fcbd
000001d0: 4942 c93d ef13 1a3d c31c 433d 7559 063e
000001e0: 2db1 76be e23b d8bc 9673 983d be36 c63d
000001f0: ea59 e73c 0473 c1bd 11f1 b43d 9480 813d
00000200: 5055 98be 6d7d 96bd b234 063e e4fc 49be
00000210: 38f3 583d b190 8bbd df86 af3b 0a52 1b3e
00000220: ab16 353d f8e3 1f3e 9aec 38be ffb2 423e
00000230: a828 f63b a492 ff3c ec27 f0bd f982 36bd
00000240: 2c09 4fbe ed82 bf3d 0b8b 543e 7a79 3cbe
00000250: 8182 f53d 7405 71bd ccfb 043e 2594 223d
00000260: 6eae 473e e57b 1b3a 7515 253e 6046 b6bd
00000270: 32bc d93d a470 ad3c 0445 453d e288 503d
00000280: 8793 2e3d fe53 35be 8f96 1a3e 0db7 a5bd
00000290: f031 913d 24bf e73d 86cc afbd c899 653d
000002a0: a4fc 2f3e b4a8 3a3c 6651 c23c e26a 063d
000002b0: e724 103c 171a 2b3d 4913 52bd feb6 9abd
000002c0: 758d 96bd 710c b53c 29bd 1a3d 3db3 2cbd
000002d0: ae3d 4d3e aeef 10be df6d 04bd 4b09 64be
000002e0: f204 1abd 2750 633e 4c83 9fbd f9bd 4f3d
000002f0: 42a9 2239 ce5b 533e 8595 003e ed28 3dbe
00000300: f0f7 36be 9792 873d 01db d83d 6757 313e
00000310: bb1d c23e f4c4 c8bd 2be5 2e3d 78bf c83d
00000320: ea0f ddbd f64f e0bc 41d3 af3c 6be2 6ebb
00000330: 6606 5fbd 4700 14be 9577 9cbd a9bb c5bd
00000340: e33f d53d 7940 103d b8d5 6a3e 046d 9abd
00000350: d0e0 2e3d f473 01be 1cb8 593d 7522 4dba
00000360: ec40 9ebd 3ce6 f8bd 25e1 393e 97bf 353e
00000370: 7f67 fb3d f597 9cbb 5e39 e33d bdca 903d
00000380: 6bb8 2d3d 3117 db3d b427 823d 85ae 293c
00000390: 8063 123d c67c f9bb b213 763d f300 f63b
000003a0: 9dec ddbd 20f6 38be dc57 04be fc46 ef3d
000003b0: 0303 cd3d 4694 7cbd 20f2 ccbc 2ea3 ad3d
000003c0: 8a9e 963d 92ac d6bd ce7c 493d 4d86 3dbe
000003d0: 7794 663d 3bfe 533e c94e 4cbc b4a0 17be
000003e0: af1f 663e 4638 283d 7c79 743d 3b70 a83d
000003f0: 7797 86bc eb1a aebd eae9 91bc a67c 0d3e
0.005412049 -0.122253165 0.064726636 -0.07348284 0.0763913 -0.22546247 0.15452544 0.09251059
-0.05929825 -0.11106204 -0.23038536 0.20526624 0.054380838 -0.111641124 -0.023425682 0.03324818
0.23827067 -0.02966122 -0.10453507 0.15141124 -0.2536914 0.027471945 0.120511994 0.07246309
-0.0008088291 0.13468373 -0.031277813 0.004521823 -0.11130366 -0.1575556 -0.112958774 -0.10510979
0.05990991 0.109375276 -0.030295115 -0.06433169 0.08608133 -0.15856056 0.16641055 0.15086652
-0.18441682 0.12841791 -0.125585 -0.03338657 0.07030212 -0.098776415 0.010601739 -0.058922216
0.17435019 0.07612527 0.048064914 -0.06889289 -0.004527247 -0.013192043 0.080795184 -0.18569495
0.052697506 0.10521612 0.17569254 0.07988967 0.04396882 0.019887717 -0.058673043 -0.0554909
-0.030468361 -0.14654802 0.047965396 -0.16316108 -0.059958972 0.011253402 -0.21684444 0.024809977
-0.14582981 0.07297626 0.17389375 0.15747434 0.08165379 0.01912375 -0.06777266 0.027212434
0.029037116 0.021678986 -0.0049714423 0.04128668 -0.16098559 0.07766891 -0.08553882 0.12753935
-0.101921335 -0.04616037 -0.18653898 -0.044076603 -0.03540649 -0.022984793 -0.07988029 -0.17455254
0.09670441 0.083861604 0.06698746 -0.04495291 0.08606777 9.604801e-05 -0.24728404 -0.19078659
0.20015171 -0.18604852 0.015870946 0.0057054716 -0.08490647 0.01829434 0.025325265 0.16953802
0.12588252 0.08143239 -0.08037581 -0.12348132 0.09827096 0.037616666 0.04763485 0.13120063
-0.24091025 -0.026395742 0.07443921 0.0967841 0.028241117 -0.094457656 0.08835042 0.063233525
-0.29752588 -0.07348142 0.13106039 -0.19725376 0.052966326 -0.06814707 0.005356654 0.15168014
0.04421107 0.15614307 -0.18059006 0.19013594 0.007512171 0.031197853 -0.117263645 -0.0445585
-0.20218343 0.09351144 0.20756166 -0.18405715 0.11987782 -0.05884309 0.12986678 0.039692063
0.19500133 0.00059312425 0.16121466 -0.08900142 0.106315985 0.021171875 0.04816152 0.05091179
0.04262116 -0.17707822 0.15096496 -0.08091555 0.07089603 0.11315754 -0.085839316 0.05605486
0.17186219 0.011392761 0.023720454 0.032816775 0.008797861 0.041772928 -0.051287923 -0.07554434
-0.073511995 0.02210066 0.037778053 -0.042163122 0.2004306 -0.1415393 -0.032331344 -0.2226917
-0.037602372 0.22198544 -0.07788715 0.05071828 0.00015512577 0.2064049 0.12557037 -0.18472643
-0.17868018 0.06619757 0.10588647 0.17318498 0.37913308 -0.09803191 0.04269902 0.09802145
-0.10794051 -0.027381878 0.021463038 -0.0036450874 -0.05444946 -0.14453231 -0.07639996 -0.09654934
0.10412576 0.035217736 0.2293309 -0.07540324 0.042694867 -0.12641889 0.053154096 -0.0007825264
-0.077272266 -0.12153289 0.18152292 0.17748867 0.122756 -0.004778857 0.11094926 0.07069919
0.042412203 0.10697783 0.06355229 0.01035655 0.03573942 -0.007613751 0.060077377 0.0075074374
-0.10836146 -0.18062639 -0.1292414 0.11683461 0.1001034 -0.061664842 -0.025017798 0.0847839
0.07354458 -0.10482134 0.04919129 -0.18508263 0.05629393 0.2070245 -0.012469956 -0.14807397
0.22473024 0.04106929 0.05968617 0.08224531 -0.016429646 -0.08501228 -0.017811734 0.13817081

model.gru.bias_ih_l0 f4 [150]
00000000: 206a bd3d 1309 e9bd 4199 9e3d f70c a7bc
00000010: 3c49 8a3d 8e5a d2bd b2e8 b2bb a1fd 81bd
00000020: fb8d 7e3d 308f 7cbd 0070 6a3d 8b42 463c
00000030: 7f3a b13d 9f87 82bd 4a88 263c 31ce 4b3e
00000040: 02fd 053d 07cd eabd b06b b2bd 31ba a7ba
00000050: fdfb 50bd ec82 a23d d928 533e 5f85 033d
00000060: 1d73 a13e 91bf 0e3e 8051 c83d f890 6cbd
00000070: 8d23 023d 5ec4 443d 79ef 99bd 3477 513e
00000080: 22a4 a13b 3ccf dd3d 8051 8a3e 09b0 823c
00000090: 0354 e8bd f212 22be d3db 5c3d 7186 1d3e
000000a0: 5730 da3c f9eb 0cbd 3435 013e 9733 653d
000000b0: 6c36 d7bd fda9 083e bd02 523d 997b 163e
000000c0: 4df1 003e 1149 71be a202 a03e bdc8 483e
000000d0: 1aab 393e 9f7f 853e ec0b 82bd bc67 4bbd
000000e0: d1c5 533e e350 013e ccad 073f 2587 15be
000000f0: 9ae1 7d3d af92 643e 0934 a93e ad40 acbd
00000100: 2961 2b3e aa97 883e 2ef8 413e ffc5 293e
00000110: a440 1f3e 0ace c73d 73a4 113e 07ec 723d
00000120: c63e 9b3e 0840 133e 246b 2a3d 8b9a 3b3e
00000130: 52b0 8b3e a5e7 033e bbfc 923e d6c6 b73c
00000140: 0d9b da3d 0d0d f63d 15ce 353e 08ea 7e3e
00000150: 25a2 ce3b 52e3 50bb 5e31 d63d 649a 923c
00000160: 1098 e33e c797 9c3d 6d06 bc3d 0280 e23d
00000170: 6ef5 6f3e 22e0 083e 7647 a73d a1a5 533e
00000180: bbc7 afbb f7a2 353e fda9 c03c fc8c a93e
00000190: 52dc 5fbd 244d cdbc 26e6 cabd 62cf 17bc
000001a0: 2a98 1fbd 39a5 873c 6263 d73c ea89 15bd
000001b0: 86d4 b9bc 6c92 293c 6aa0 423c 17a2 283b
000001c0: 3cf6 97bd d34e 54bd da74 d7bb d22e ca3d
000001d0: 51b0 7f3c 38ac c1bd 4a5c 863d 9737 23bd
000001e0: 4163 b1bb c6ad a23d 8087 7cbc c500 ab3b
000001f0: e102 8b3b fdfe 63bd 228a 323d 14ae 6bba
00000200: 606f b4bc ecfd a73c 7c5d 0e3d 54a2 993d
00000210: cc4d 40bd 83e7 efbd 6cf1 2abc 007e c23b
00000220: 63a3 acbd f0c5 823d 316f 92bd 623d 313d
00000230: b5de a6bd b203 9ebc 47ce 593d e57f a1bd
00000240: fcc7 3dbd 1350 a93c 1690 be3d 13ba 67bd
00000250: d8f7 51bd 6e3b 253c
0.09248757 -0.11378684 0.077440746 -0.020391924 0.067522496 -0.10271178 -0.0054598683 -0.06347204
0.062147122 -0.06165999 0.057235718 0.012100826 0.08653735 -0.06373524 0.01016433 0.19902875
0.03271199 -0.11464887 -0.08711946 -0.0012796578 -0.051021565 0.079351276 0.20621051 0.032109614
0.31533137 0.13940264 0.0978117 -0.05775544 0.031772185 0.048038833 -0.07516379 0.20455629
0.0049328962 0.108305424 0.27015305 0.01595308 -0.11344149 -0.1582754 0.05392058 0.15383317
0.026634378 -0.03440473 0.12617952 0.055957403 -0.10508427 0.13346095 0.051272143 0.14695586
0.12592049 -0.23563029 0.3125201 0.19607826 0.18131676 0.2607393 -0.0634993 -0.049659476
0.2068093 0.12628512 0.5299957 -0.14602335 0.06198273 0.2232158 0.33047512 -0.084107734
0.16736282 0.2667821 0.1894233 0.16579436 0.15552002 0.09756096 0.14222889 0.059307124
0.3032133 0.14379895 0.041606084 0.18320672 0.2728296 0.12881334 0.28708443 0.02243368
0.10674105 0.12014208 0.17754395 0.24893963 0.00630595 -0.0031873775 0.10458635 0.017895885
0.44451952 0.07646137 0.09180913 0.11059572 0.23433468 0.1336675 0.08167927 0.20668651
-0.005364386 0.17737947 0.023518557 0.33115375 -0.054653473 -0.025061198 -0.099071786 -0.0092657525
-0.038963474 0.016558276 0.026292507 -0.03650848 -0.022684347 0.010349851 0.011879066 0.0025731379
-0.07420012 -0.051832985 -0.006575209 0.098722115 0.015606002 -0.09456676 0.065605715 -0.039847936
-0.0054134433 0.07943301 -0.015413165 0.0052185976 0.0042422866 -0.055663098 0.043588765 -0.0008990478
-0.022025764 0.020506822 0.034757122 0.07501665 -0.046949193 -0.11714079 -0.010433536 0.0059354305
-0.08429601 0.0638541 -0.07150114 0.04327143 -0.08147947 -0.019288871 0.053175237 -0.07885722
-0.046333298 0.020668065 0.09304826 -0.05657394 -0.051261753 0.01008497

model.gru.bias_hh_l0 f4 [150]
00000000: f1ff 01be 0a11 72bc 7382 9f3d c4bc 493c
00000010: 1f3c f83d 871c 0c3c a829 cb3b 9080 0e3e
00000020: 26b4 2d3d 28d4 16bd f56a e3bd 9688 d13d
00000030: a7c2 fabc c4d2 273e a36a 313d e11c 143e
00000040: d31f 6cbc 3fb6 fabd 9872 c23d 9083 2cbe
00000050: 9e30 acbc e8e7 a8bd ab52 803e 0798 8dbd
00000060: 46bb 9e3e 66f5 613c 6240 e83d 9abf 103d
00000070: ffd7 643d 2fed 06be d402 bebd e09f 0b3e
00000080: 386b 183c b29c 8cbd 67b3 e33d 437d 3d3e
00000090: 7cb1 083d 67c1 9bbd b839 8a3d dfd3 f93c
000000a0: 84b3 043e 3da7 8e3b ca0c c93d 9d02 193e
000000b0: 175d 893d af01 6b3d adf3 08bd b264 0a3e
000000c0: 480d c73d 6d8f 25be 50fc 903e 58aa 9f3d
000000d0: b8ad 813e 77bd 883e c419 243e 9895 8abc
000000e0: 2c47 703e 17d5 b43e 9707 a53e 3cf6 98bd
000000f0: 4019 1b3e 5bec 923e 043b ba3e d988 f43d
00000100: 0074 543d 56bd 6c3e f8fd 8d3e 1351 703e
00000110: 90b4 8a3e 57e2 343d 0f57 ab3e 1b92 383e
00000120: f475 833e 286d 7a3e 1b01 263c 6535 4c3e
00000130: 1f6d 253e 81b9 8d3e 76d2 2c3e 07b8 92bd
00000140: 6ffb 863e 1e40 aa3e 53a1 583e 89e2 2c3e
00000150: 376d 0d3e 61e7 d43c b88b 573e 22e2 75bd
00000160: 94e9 da3e e009 1b3e 0efc c43d 49cd 313e
00000170: 1e98 0b3e 91f8 973d 0411 21bc 2f03 223d
00000180: 4270 393e 49d5 53bd f650 be3d 1bc8 9f3e
00000190: 50c1 0fbd c192 15bd e007 b73d c68a 363c
000001a0: 7c20 753b 16fc 15be 266a 51bd 20d6 8b3d
000001b0: 91bc a73d b115 51bd b77e 713d ea10 3b3d
000001c0: d154 463e cb6e c53c 6741 44bc 816a 0cbe
000001d0: 4f9d cebc d647 b33d e272 8dbc ce98 b43d
000001e0: 6633 acbc 3261 85bd 0230 51bd fd46 8b3b
000001f0: 7045 153d e391 8e3d 9a9d 14bc dadb 57bc
00000200: e638 0a3d daa9 fa3c 963d 403d 88a3 22be
00000210: 7db2 8f3d 229d abbd baa0 82b8 1c98 aebc
00000220: 0dc9 6d3d 1eb8 c7bc 1268 0d3e 9e04 a3bd
00000230: b0f8 413d 1771 943c 454d 1ebe c9d1 cb3d
00000240: 5548 a93c 7060 8bbc 227e f5bd 6871 213e
00000250: be55 853c 427c 4e3d
-0.1269529 -0.01477457 0.07788553 0.012313072 0.12120842 0.008551723 0.006200034 0.1391623
0.04240813 -0.03682342 -0.11104385 0.1023113 -0.030610396 0.16388994 0.043314587 0.14464141
-0.014411884 -0.12241792 0.09494513 -0.16847062 -0.021019276 -0.082473576 0.2506307 -0.069137625
0.31002253 0.013791418 0.11340405 0.035338975 0.055870052 -0.13176416 -0.09277883 0.13635206
0.009302907 -0.06865825 0.11118203 0.18504815 0.033372387 -0.07605248 0.0674929 0.030496536
0.12959105 0.0043534325 0.098168924 0.14942403 0.067072086 0.057374652 -0.033435512 0.13514975
0.0971933 -0.16167994 0.283175 0.07796162 0.2532785 0.2670705 0.16025454 -0.016917035
0.2346465 0.35318825 0.32232353 -0.074688405 0.15146351 0.2869595 0.3637315 0.11940164
0.05186844 0.23119101 0.27732825 0.23468427 0.27090883 0.044161167 0.33464858 0.18024485
0.2567593 0.24455702 0.0101320995 0.19942243 0.16154908 0.2768059 0.1687716 -0.07164007
0.26363704 0.33252043 0.2115529 0.16883291 0.13811193 0.025989236 0.21049392 -0.06003011
0.4275633 0.15140486 0.09618388 0.17363466 0.13632247 0.07420457 -0.009830717 0.039553817
0.18109229 -0.051717076 0.09292786 0.31207356 -0.035096467 -0.03651691 0.08937049 0.011141485
0.0037403395 -0.14646944 -0.05112662 0.068279505 0.08190263 -0.051046077 0.058958735 0.045670427
0.19368292 0.024100682 -0.011978484 -0.13712503 -0.025221495 0.08753936 -0.017266694 0.08818208
-0.021020602 -0.06512679 -0.051071174 0.004250406 0.036443174 0.069614194 -0.009070778 -0.013174975
0.03374567 0.03059857 0.046933733 -0.15882695 0.07016466 -0.0837958 -6.228821e-05 -0.021312766
0.058053065 -0.024379786 0.13809231 -0.07959865 0.047356308 0.018120332 -0.15459163 0.09952123
0.020664373 -0.017013758 -0.119869485 0.15765917 0.016276237 0.05041147

model.fc.weight f4 [1, 50]
00000000: 3dda 13bd 09d7 a13c e001 e4bb 476b dd3b
00000010: b072 143c a448 093a a599 92bc a2b4 f83b
00000020: fd5e 043d 1276 8fbc 81d2 553b 76e9 3c3c
00000030: fcc0 5e3c a45d a43c fc0b 3ebb f5f8 89bc
00000040: 9413 813c c4fb 153c c1f8 c1bc a80b 983c
00000050: 3390 debb dccd e2bb 09ed 763c 4bd4 843a
00000060: 57f6 5c3b b7b3 7439 e02d ebbb 9437 183c
00000070: 044c 2cbc d9e1 4bbc 4c21 723c 8511 a5bb
00000080: 18bc 12bc 8ca4 70bd 2ce6 ffbb c0a5 a23b
00000090: aff2 113c 9c24 ef3b a975 adbc aae6 823c
000000a0: 8c46 86bb f966 08ba ea01 713c 055f 1b3c
000000b0: 0a3c fabb a6d7 993c 4598 183c fa5b 45bc
000000c0: 5d2b c33c 0e96 d1bc
-0.0360968 0.019755857 -0.0069582313 0.006757173 0.009060547 0.00052369596 -0.017895529 0.0075898925
0.03231715 -0.017512355 0.003262669 0.011530271 0.013595816 0.020064183 -0.0028998842 -0.016842345
0.015756406 0.009154264 -0.023678185 0.018560246 -0.006792092 -0.006921513 0.015071162 0.0010134069
0.0033716166 0.00023336602 -0.0071770996 0.009290595 -0.01051617 -0.012443983 0.014778446 -0.005037489
-0.008955978 -0.058750674 -0.007809421 0.0049636066 0.008907958 0.0072980653 -0.021174269 0.01597913
-0.0040977653 -0.00052033324 0.014709929 0.009483104 -0.0076365517 0.018779587 0.009313648 -0.012045855
0.023824388 -0.025584247

exp_avg f4 [150, 22]
00000000: ece9 bf38 1cd6 6838 c2b0 80b7 3888 02b8
00000010: 7f8d 31b6 9de5 1eb9 9724 77b7 8afd cab8
00000020: af88 8fb8 3649 c8b7 2c96 d736 da8f 21b9
00000030: a276 5ab7 9d3b 0bb7 d8b6 a438 3c47 ed37
00000040: 0000 0000 31d4 9eb6 1a1e 7a37 68e8 24b7
00000050: 0000 0000 857e 81b4 8145 0637 785a 4138
00000060: 2b40 37b7 5b6e 68b8 6018 feb7 1c8f cab8
00000070: ce75 0e38 e183 7ab8 f808 f036 c840 4236
00000080: eddb 0838 dd06 d8b8 51e4 06b7 37d0 2c36
00000090: eda0 e0b6 ffc3 4eb7 0000 0000 cafe d836
000000a0: 3f65 4cb7 7196 f035 0000 0000 fbee 86b7
000000b0: d043 38b7 fd66 79b7 ba2a 6737 7ef7 0738
000000c0: 0518 c635 3c99 ee37 5f02 a835 95a0 1a38
000000d0: e9d5 0737 81c6 03b5 283a e7b6 9ed5 0338
000000e0: 32a9 cdb6 537b 61b6 27c9 9936 1490 4e36
000000f0: 0000 0000 96cc 0d36 6808 fbb6 01e8 ff36
00000100: 0000 0000 9313 1836 0a3f 65b6 1d98 f1b6
00000110: 1f06 c336 c6b8 0837 dd83 5b35 cfa4 0737
00000120: 7a1a 6db7 7a88 13b7 b903 68b7 4594 efb6
00000130: 5392 9536 fbad 3b37 9b48 9935 990d 9b35
00000140: 901b 85b6 1832 ebb6 0000 0000 e6d2 fcb5
00000150: e8af 1536 4dde f833 0000 0000 e8af 43b6
00000160: 89de 8937 ef06 7237 4c48 7fb7 dfd1 dcb5
00000170: d192 3737 d5b8 1ab6 4139 c036 9309 3436
00000180: 1176 beb6 8cf3 8a36 c3ae f8b5 8507 98b6
00000190: a57b 0b37 7839 71b5 2dda af35 6e8e a534
000001a0: 0000 0000 ce44 7036 7d6e 54b5 5f91 a736
000001b0: 0000 0000 8b89 c5b4 72a9 cc35 3595 6736
000001c0: fcc7 60b6 a42d 4ab6 c222 0f37 738e 9a37
000001d0: a04e f9b6 6fea 9e37 dd2c 7235 5a86 da36
000001e0: 54ab feb6 1d2f 9137 f805 b834 02cd 3736
000001f0: a00f 0db7 d277 2236 0000 0000 aa3c 9935
00000200: 82ed a0b6 3ed2 1336 0000 0000 b1fa 24b5
00000210: 2e92 0637 adce ce37 8b75 20b7 a99c dab7
00000220: 1c66 2cb7 bcb6 0bb8 713d 6a37 b6d6 d5b7
00000230: fdeb 80b6 cedf 46b7 c335 66b5 8e77 05b8
00000240: 6f12 0237 e2d1 45b6 fb69 8437 4043 5d37
00000250: 0000 0000 bf6b 9a37 300d b0b7 da74 4636
00000260: 0000 0000 8fb9 e936 cabf 9bb4 7f5e f335
00000270: 9a30 08b4 5616 1bb4 a570 20b5 cc05 3635
00000280: 7678 0436 75aa 98b4 9790 f9b4 0ea3 dfb5
00000290: 3521 0cb6 f7ff b635 44d9 4b36 5c30 1cb5
000002a0: 0cf6 a135 b680 ee35 0000 0000 4deb 2c36
000002b0: 6fc9 51b6 973e 1db6 0000 0000 3469 2db5
000002c0: 59a9 e838 50e8 8b38 a60e fab7 eb3b e0b8
000002d0: 2628 dab7 6040 5db9 b84e 3638 ce9e 00b9
000002e0: f0dd 56b8 dbe0 8cb7 8d0f 0138 64a1 66b9
000002f0: b31f 59b7 e670 64b7 1a60 9d38 ad8f c537
00000300: 0000 0000 fdc1 3737 8144 9a37 21f1 34b7
00000310: 0000 0000 1a15 8f37 2bc7 8337 a94b 1b38
00000320: 22d9 dcb5 5c06 e5b7 a252 f9b7 4be3 bab8
00000330: 748e 0e38 72e3 75b8 1210 0637 4edf 8bb7
00000340: e765 f4b6 b205 bcb8 2e9e 8637 068c 0db6
00000350: baaf 1138 7563 c637 0000 0000 6048 4037
00000360: a316 72b7 036a 3bb7 0000 0000 de6b d137
00000370: 83b9 5eb7 ac7a 51b7 917d 4437 b9da 6938
00000380: 3c1e 8037 1d6c 3838 80e3 a6b6 1c06 0f38
00000390: 09ac 80b6 0fe0 ab37 db13 1936 447b 2238
000003a0: e2c3 2137 b9a7 8c36 7679 36b7 0b40 39b6
000003b0: 0000 0000 d06f 0637 cf41 36b7 4c28 9a36
000003c0: 0000 0000 c79d a0b6 8e56 4c38 8113 1038
000003d0: 193a 2c36 65de 8936 417a bf36 e340 4bb8
000003e0: 494a 9837 4d32 4eb7 f48b d537 25e5 0737
000003f0: f1b7 98b6 cc90 6ab8 2385 0d37 9c24 52b6
9.151161e-05 5.5512515e-05 -1.5341098e-05 -3.112128e-05 -2.6457417e-06 -0.00015153592 -1.47308665e-05 -9.679336e-05
-6.844231e-05 -2.387595e-05 6.4249816e-06 -0.00015407745 -1.3021434e-05 -8.298925e-06 7.854187e-05 2.8285773e-05
0.0 -4.7334693e-06 1.490817e-05 -9.829273e-06 0.0 -2.4120177e-07 8.003205e-06 4.609904e-05
-1.092259e-05 -5.5415887e-05 -3.029051e-05 -9.658767e-05 3.3965152e-05 -5.9727467e-05 7.1536015e-06 2.894596e-06
3.262975e-05 -0.00010300961 -8.0401815e-06 2.5751194e-06 -6.6944544e-06 -1.2324191e-05 0.0 6.466963e-06
-1.2182921e-05 1.7925178e-06 0.0 -1.6085329e-05 -1.09830435e-05 -1.4865535e-05 1.3778621e-05 3.2417003e-05
1.475914e-06 2.8443166e-05 1.2517665e-06 3.6866015e-05 8.096432e-06 -4.9090164e-07 -6.8911068e-06 3.143178e-05
-6.129173e-06 -3.3599397e-06 4.5831725e-06 3.0780257e-06 0.0 2.1129722e-06 -7.4813615e-06 7.626601e-06
0.0 2.2661159e-06 -3.4160353e-06 -7.200068e-06 5.8121655e-06 8.149253e-06 8.1775744e-07 8.0849995e-06
-1.4132465e-05 -8.793659e-06 -1.3829144e-05 -7.140016e-06 4.4575804e-06 1.1186577e-05 1.1420519e-06 1.1552357e-06
-3.9669176e-06 -7.0093774e-06 0.0 -1.8836843e-06 2.230512e-06 1.1588836e-07 0.0 -2.9159655e-06
1.6435299e-05 1.4425938e-05 -1.5216017e-05 -1.6452358e-06 1.0941833e-05 -2.3055375e-06 5.728711e-06 2.6827663e-06
-5.676186e-06 4.141073e-06 -1.8528302e-06 -4.5308284e-06 8.313834e-06 -8.9863124e-07 1.3102014e-06 3.0837276e-07
0.0 3.5802836e-06 -7.9136936e-07 4.9939113e-06 0.0 -3.6794185e-07 1.52485e-06 3.4508532e-06
-3.3495007e-06 -3.0126912e-06 8.531557e-06 1.8424564e-05 -7.4299314e-06 1.8944234e-05 9.021731e-07 6.512547e-06
-7.589735e-06 1.7307286e-05 3.4277014e-07 2.7388455e-06 -8.407893e-06 2.4209626e-06 0.0 1.1417044e-06
-4.796021e-06 2.2027084e-06 0.0 -6.1459565e-07 8.0210575e-06 2.4653355e-05 -9.564111e-06 -2.6060576e-05
-1.0275773e-05 -3.3310367e-05 1.3961792e-05 -2.5491561e-05 -3.84217e-06 -1.1853828e-05 -8.575991e-07 -3.1821015e-05
7.752896e-06 -2.9477455e-06 1.5784977e-05 1.3188284e-05 0.0 1.8408404e-05 -2.0986976e-05 2.9572316e-06
0.0 6.965543e-06 -2.9010545e-07 1.8132413e-06 -1.2683668e-07 -1.4443626e-07 -5.9768564e-07 6.780872e-07
1.973965e-06 -2.843623e-07 -4.6485067e-07 -1.666225e-06 -2.0880955e-06 1.3634552e-06 3.0375822e-06 -5.81849e-07
1.2067044e-06 1.7769842e-06 0.0 2.576696e-06 -3.1260677e-06 -2.3431255e-06 0.0 -6.4600613e-07
0.000110941655 6.671308e-05 -2.9809144e-05 -0.00010692313 -2.600632e-05 -0.00021100184 4.3465494e-05 -0.0001226619
-5.122827e-05 -1.6794007e-05 3.077048e-05 -0.00021994632 -1.29415885e-05 -1.3616145e-05 7.504244e-05 2.3551134e-05
0.0 1.0952816e-05 1.839013e-05 -1.0784978e-05 0.0 1.7056755e-05 1.5709162e-05 3.7025344e-05
-1.6454471e-06 -2.7301889e-05 -2.9721592e-05 -8.911508e-05 3.3988108e-05 -5.8624377e-05 7.990764e-06 -1.6674076e-05
-7.2836297e-06 -8.9655994e-05 1.6047703e-05 -2.1092142e-06 3.4734352e-05 2.3649753e-05 0.0 1.1460943e-05
-1.4429595e-05 -1.1170751e-05 0.0 2.4964971e-05 -1.3275424e-05 -1.24859325e-05 1.1711746e-05 5.575523e-05
1.5272868e-05 4.3969707e-05 -4.97367e-06 3.4099547e-05 -3.834725e-06 2.0489124e-05 2.2810334e-06 3.873861e-05
9.641955e-06 4.1918506e-06 -1.0876325e-05 -2.7604426e-06 0.0 8.013056e-06 -1.0863368e-05 4.594249e-06
0.0 -4.7867393e-06 4.8718e-05 3.435044e-05 2.5663815e-06 4.1088083e-06 5.706476e-06 -4.8459402e-05
1.8154404e-05 -1.2290268e-05 2.545675e-05 8.099979e-06 -4.5513666e-06 -5.59248e-05 8.435253e-06 -3.1313748e-06

exp_avg_sq f4 [150, 22]
00000000: 220e dd32 cde1 ed32 6a32 f632 e090 a632
00000010: c08c 0f33 fb65 8a34 4d1e 0733 bcd4 6134
00000020: 712b a733 cbe0 f232 829f b032 8c02 9634
00000030: ed3b e632 8928 6231 7595 1533 69f4 a632
00000040: 0000 0000 bcfa 9432 e143 ac32 0ab6 a932
00000050: 0000 0000 dca4 9332 8cb9 0130 fb58 9630
00000060: 13f7 eb2f deb5 2a30 cf14 3a30 6e36 0c32
00000070: 51d8 2e30 fbd6 2431 cd02 2f30 4f2b 8730
00000080: e7ac 2330 75c5 3432 006f 5030 03f8 dd2f
00000090: e0b4 3e30 cf8e cf2f 0000 0000 d3a6 d62f
000000a0: a0ab a52f e3c5 932f 0000 0000 1a39 2430
000000b0: 1dae 8531 9ad6 6d31 062b 1f31 a0cf 5a31
000000c0: cbc3 a831 d992 ee32 cedd 7f31 9a14 a932
000000d0: 22a6 1731 63f5 5431 59c2 3431 887d 0333
000000e0: 5fae 8131 899f e72f d8db 6231 2b5b 5031
000000f0: 0000 0000 7080 3931 8533 3931 6e59 3431
00000100: 0000 0000 b20d 1231 b7ca c82f b096 f02f
00000110: c56c 0b30 ee72 f72f 556e f92f 8093 5231
00000120: f052 ae30 6361 5030 c8c2 5c30 4a01 f32f
00000130: 8b29 9a2f 0796 7e31 f46c 8f2f 2841 722d
00000140: 8443 892f 613e 5330 0000 0000 a2dc 5c2f
00000150: 56f2 272f 8066 6d2f 0000 0000 df4f 672f
00000160: 335e 3830 859f 6030 85b1 1330 0c9b 8830
00000170: 436b 6a30 5d17 7630 e7d6 1430 2ef3 2030
00000180: b497 1c30 2163 4330 f582 0130 bd0b 8830
00000190: 67e7 e72f 7c0a 092f 18d2 3430 cb0c 4b30
000001a0: 0000 0000 48e3 1f30 286f 2330 3799 1a30
000001b0: 0000 0000 99c5 6530 9ea4 9b30 43b7 8d30
000001c0: cc12 8830 9237 ab30 f28d 8f30 6488 5b32
000001d0: c7b7 b530 bef4 1431 5258 5730 a27c b430
000001e0: 1dcd 9330 6893 8632 ef83 8830 038e a72f
000001f0: 0407 5a30 7b69 8930 0000 0000 358c 6d30
00000200: 96b1 5b30 19a6 3530 0000 0000 75d9 9030
00000210: a55d 8930 5b84 0131 b803 9a30 6aab ab30
00000220: 1fd0 be30 0dce 9331 fb65 b930 3def 6031
00000230: be51 9630 78f7 af30 0a18 a830 2589 8f31
00000240: a37a 5b30 3ea9 9d30 380a c530 d3d5 f130
00000250: 0000 0000 ec20 b530 ca15 7730 abe5 5930
00000260: 0000 0000 733d 5f30 376c c62f 80e2 a12f
00000270: c71e d32f 5f36 3f30 7790 c02f c527 7c30
00000280: 1803 c92f ae5a 9330 3f70 c72f 39b2 ba2f
00000290: 63f5 d12f f0fa 9930 e269 a12f b587 dd2f
000002a0: 0831 f62f b4ee b32f 0000 0000 5c0b bc2f
000002b0: 806a 532f 574a 3f2f 0000 0000 3aba 702f
000002c0: 8466 cb32 f4c3 cb32 6f29 0833 62cb ab32
000002d0: ae0e 0533 6882 b934 17b7 cc32 cac8 7d34
000002e0: 1b5e 8c33 99d7 e532 0840 ed32 2d2a d434
000002f0: ad9a c432 f5aa 0332 e5ab ca32 0f7b 7f32
00000300: 0000 0000 dfa6 9832 766a f031 360c db31
00000310: 0000 0000 4a2e 2f32 98ef b130 62b6 f830
00000320: e028 c330 cab4 a930 6e70 5831 1caa 8732
00000330: bae9 1031 b674 2532 8e96 c330 526c 0331
00000340: d812 9530 8e21 9532 7f1c a530 5a6b a630
00000350: b709 1131 c3dc 0331 0000 0000 a338 ae30
00000360: d8e2 8a30 c120 8e30 0000 0000 ebae c530
00000370: 29a2 1930 2644 2330 cb44 4e30 cb94 7f30
00000380: fd2a 9430 cd92 a931 abf2 6d30 b87b 7131
00000390: 44ab e02f 2af3 e430 b6f1 4430 e74c 8231
000003a0: fb6e 5c30 1e67 bc2f d00b 7030 9fca 2330
000003b0: 0000 0000 8a2e 3430 62a6 1730 eb00 ce2f
000003c0: 0000 0000 8f1b b72f 4479 c130 848b b330
000003d0: ca0c 6430 c9c6 0d30 4d83 5b30 3a5c 3532
000003e0: 6989 b530 6ea4 a731 a366 3e30 456d a930
000003f0: f3d2 3c30 b649 6e32 d52a 6a30 0cd4 782f
2.5734213e-08 2.7693114e-08 2.8661095e-08 1.9390825e-08 3.3422793e-08 2.5778704e-07 3.1459695e-08 2.103215e-07
7.7844454e-08 2.8274732e-08 2.0561632e-08 2.794153e-07 2.6802775e-08 3.291037e-09 3.4827696e-08 1.9436088e-08
0.0 1.7343488e-08 2.0054303e-08 1.9756971e-08 0.0 1.7188022e-08 4.7193605e-10 1.0939226e-09
4.2921808e-10 6.210409e-10 6.7695977e-10 8.161448e-09 6.3608235e-10 2.3987343e-09 6.366861e-10 9.834852e-10
5.9544764e-10 1.05222755e-08 7.58277e-10 4.037589e-10 6.9378636e-10 3.7754552e-10 0.0 3.904491e-10
3.0135272e-10 2.687975e-10 0.0 5.9744e-10 3.890604e-09 3.4610026e-09 2.3162001e-09 3.1841196e-09
4.9117026e-09 2.7773625e-08 3.7233465e-09 1.9683558e-08 2.2067828e-09 3.0989546e-09 2.6303921e-09 3.0614984e-08
3.774218e-09 4.2132012e-10 3.3012295e-09 3.0319807e-09 0.0 2.6994051e-09 2.6950329e-09 2.6244282e-09
0.0 2.1253581e-09 3.6523826e-10 4.3762816e-10 5.0722476e-10 4.50107e-10 4.5371232e-10 3.0642866e-09
1.2683739e-09 7.5808354e-10 8.0312335e-10 4.4202358e-10 2.8041955e-10 3.7047145e-09 2.6088964e-10 1.3770575e-11
2.4968128e-10 7.685e-10 0.0 2.0087268e-10 1.5274657e-10 2.159144e-10 0.0 2.1037704e-10
6.7072675e-10 8.1717416e-10 5.373056e-10 9.939369e-10 8.528113e-10 8.952748e-10 5.414748e-10 5.855324e-10
5.696805e-10 7.108146e-10 4.711603e-10 9.898639e-10 4.2183076e-10 1.2463802e-10 6.578218e-10 7.386915e-10
0.0 5.816685e-10 5.9457017e-10 5.6242605e-10 0.0 8.359052e-10 1.1324521e-09 1.0311186e-09
9.900645e-10 1.2457682e-09 1.0444963e-09 1.2778489e-08 1.3221716e-09 2.1675954e-09 7.8342055e-10 1.3132146e-09
1.0753954e-09 1.5666686e-08 9.9328e-10 3.0478028e-10 7.931791e-10 9.998041e-10 0.0 8.6419344e-10
7.99241e-10 6.6083455e-10 0.0 1.0539184e-09 9.994677e-10 1.8847206e-09 1.1206032e-09 1.2490606e-09
1.3883471e-09 4.3016883e-09 1.3489506e-09 3.2732281e-09 1.0937169e-09 1.2803261e-09 1.2230441e-09 4.1774393e-09
7.9846013e-10 1.1471355e-09 1.4336541e-09 1.759583e-09 0.0 1.317884e-09 8.988904e-10 7.927052e-10
0.0 8.121425e-10 3.6092881e-10 2.9446667e-10 3.8402545e-10 6.956266e-10 3.5027245e-10 9.173358e-10
3.6563885e-10 1.072143e-09 3.6277645e-10 3.3959838e-10 3.8191236e-10 1.1203536e-09 2.9360964e-10 4.0296091e-10
4.4781978e-10 3.272952e-10 0.0 3.4205072e-10 1.9228175e-10 1.739776e-10 0.0 2.1894034e-10
2.3678929e-08 2.372142e-08 3.170265e-08 1.9999508e-08 3.0979827e-08 3.4553818e-07 2.3831985e-08 2.3635508e-07
6.536376e-08 2.6757151e-08 2.761955e-08 3.9518764e-07 2.2887741e-08 7.664075e-09 2.3594064e-08 1.4870934e-08
0.0 1.7771013e-08 6.9970225e-09 6.375127e-09 0.0 1.0196866e-08 1.2946542e-09 1.8096211e-09
1.4199735e-09 1.2347752e-09 3.1496046e-09 1.5793425e-08 2.1087616e-09 9.630801e-09 1.4230908e-09 1.9124582e-09
1.0846533e-09 1.7361142e-08 1.2013429e-09 1.2108601e-09 2.11058e-09 1.9188497e-09 0.0 1.2676263e-09
1.0105294e-09 1.0341169e-09 0.0 1.4383351e-09 5.589152e-10 5.93959e-10 7.5040124e-10 9.2979907e-10
1.0780635e-09 4.9352367e-09 8.656495e-10 3.5140442e-09 4.0867054e-10 1.6658295e-09 7.1647877e-10 3.7922407e-09
8.0193246e-10 3.427027e-10 8.732828e-10 5.9586996e-10 0.0 6.5549755e-10 5.5169924e-10 3.7471834e-10
0.0 3.3307088e-10 1.4077064e-09 1.3063617e-09 8.296409e-10 5.157799e-10 7.9858326e-10 1.05565565e-08
1.3208538e-09 4.879033e-09 6.9267453e-10 1.2327425e-09 6.869378e-10 1.3870183e-08 8.518957e-10 2.2630803e-10

exp_avg f4 [150, 50]
00000000: 34c2 4538 f6f8 1eb7 1e98 5b37 5966 03b7
00000010: 83d7 9db6 fae9 3837 d821 4937 f044 5fb7
00000020: 8117 bdb7 2ba3 bf36 7df7 34b7 58b1 a7b6
00000030: f42a 3cb7 7ac2 acb7 b5fa ceb4 5bbc 1b37
00000040: affc 90b7 8377 8bb5 4d8b 9d36 dce4 f0b6
00000050: eb97 4336 4c23 2336 7a27 8cb5 54da f736
00000060: b157 63b7 ee39 4db3 beb3 edb4 b007 10b7
00000070: 4ee0 0e37 67c7 0e37 f05d 17b7 3630 0db4
00000080: 340f 6f37 7bc3 eb37 9226 a0b5 2c55 10b6
00000090: aa36 0a37 cb56 03b8 c344 c136 3271 f0b6
000000a0: 639f 3d37 50f0 8eb6 fc7e 6e36 1353 d2b6
000000b0: bd7a 8036 9d47 8b36 37b3 8eb6 ebbf aab6
000000c0: 003b 0bb7 65a3 8437 6a5f 1238 647d 2ab6
000000d0: 5097 7b37 6510 ea35 44a4 ceb6 b1c9 ceb4
000000e0: 8724 d836 db62 cd34 008c e8b7 b308 f835
000000f0: 06f4 0db7 7a76 08b6 d040 9bb6 9f2e b1b4
00000100: 1361 31b6 6871 3db5 7a1b a7b7 1004 2934
00000110: 7896 c8b6 e193 afb5 18ab a635 2b60 9235
00000120: 1227 a536 b121 a335 6fee e1b6 a7b0 c3b6
00000130: f6a8 39b6 4822 0336 ffc9 4d37 f1af 3836
00000140: 8451 dd36 6684 cf35 9bbc b835 2fe0 da37
00000150: cf89 afb6 4987 deb6 991e 4b36 d731 91b7
00000160: 1e38 cf36 bcbd c3b5 e71a ea36 3ff2 cfb5
00000170: b24f 5eb4 1ac8 41b6 b1f6 2f36 5af7 0933
00000180: a789 d132 667d 93b6 63e9 e1b6 59dc 8db5
00000190: d992 70b7 57e6 51b6 aaa4 6cb6 db4b f635
000001a0: 2477 2635 e6ce 20b6 3150 91b6 b6da e7b5
000001b0: fad7 f436 28cc dc34 26ce 3036 9d36 fa34
000001c0: 39cc 2a36 1304 4536 d7c6 9634 64c9 a135
000001d0: 9d28 4436 6293 43b4 66d4 0a36 1ff1 ddb5
000001e0: 802e 9b34 90f4 c235 e4f7 4ab6 93e1 4ab5
000001f0: 6e7b cc35 d1a0 3bb5 b28f e635 13e8 6034
00000200: 7769 00b5 aa88 52b5 f1f4 27b6 88fd 57b5
00000210: a61d 7eb6 ca08 6ab7 b787 7e35 f86c acb4
00000220: dce6 6db6 64d0 d736 9deb 06b6 d0d1 efb4
00000230: 357d 99b5 da94 f135 2db3 2eb6 0f81 bb35
00000240: 1e9e 47b5 2cdd d533 d38b 73b5 fdbc b635
00000250: 9a7e 4bb5 5367 1936 16d7 5db5 e95e 0436
00000260: 99e5 4bb6 5f3b 16b6 f690 4036 b30c 2235
00000270: 9646 cdb5 1e71 a435 4ba6 c335 2d26 27b6
00000280: 0baa 0836 f3ae 8535 dfd6 9e35 931a 6635
00000290: c46d dab4 01c4 c1b5 59ad 8636 dcf0 45b5
000002a0: 1ee7 4fb4 09da 0a36 be98 1ab6 3839 0bb6
000002b0: 4295 cd35 7559 e435 3086 cc35 3d93 6434
000002c0: 9521 8fb4 8663 5fb5 7c55 80b6 a99a 05b6
000002d0: 8198 4f34 69d4 98b5 235c 6d35 e54f cd35
000002e0: 7323 4734 dfe9 4036 05da 2536 91b2 1036
000002f0: 737f 6cb6 3eaa ca35 e9ef 24b6 3368 bc33
00000300: a35f 5436 34c5 fd34 6a3d b1b5 b453 2b36
00000310: 8da3 9b35 05ae fdb3 28a0 8636 5bc9 ebb5
00000320: a533 c833 b050 7db6 6a38 9a35 f5f9 94b5
00000330: 5203 81b6 099b aa35 51d0 4136 53bc 1fb6
00000340: a477 0e36 43b2 ec35 3d2d b0b4 0967 8934
00000350: d14e bcb5 f587 8cb6 1055 b434 3410 0036
00000360: db34 36b5 a73d 9033 3437 ea35 0bba be35
00000370: fd32 d235 fe9d 9435 9857 7cb5 f2d8 1136
00000380: bdd8 75b5 a0d9 9a35 fbd2 adb5 e4af 00b6
00000390: f2a5 5d35 df20 7636 2eed 9d35 265c 3335
000003a0: c073 4136 8fed 90b6 8c7e d2b5 a8c2 9fb5
000003b0: c3a1 fcb5 bdfb 60b5 ccf2 2535 812c 46b6
000003c0: 3b04 1736 d0f4 17b5 511c 57b5 1331 11b6
000003d0: 276f 9834 71dc 6ab4 2e74 0eb5 bd4c 7233
000003e0: 2556 8cb6 1709 5d36 2ceb bcb6 1c4d d5b5
000003f0: 30c3 adb2 2d61 4434 a90a 49b5 e4a2 00b5
4.7149326e-05 -9.4755e-06 1.3088835e-05 -7.832038e-06 -4.7040535e-06 1.1021732e-05 1.19884135e-05 -1.3307887e-05
-2.25415e-05 5.711239e-06 -1.0786459e-05 -4.9976334e-06 -1.1215674e-05 -2.0594558e-05 -3.8552903e-07 9.282575e-06
-1.7283803e-05 -1.039109e-06 4.6951814e-06 -7.1792e-06 2.9145692e-06 2.4309438e-06 -1.0442302e-06 7.3865904e-06
-1.3550672e-05 -4.778297e-08 -4.427547e-07 -8.584859e-06 8.516085e-06 8.5102865e-06 -9.022173e-06 -1.3149187e-07
1.424905e-05 2.810521e-05 -1.1932154e-06 -2.1507249e-06 8.238168e-06 -3.1313666e-05 5.759853e-06 -7.165735e-06
1.1302388e-05 -4.259906e-06 3.5538678e-06 -6.268159e-06 3.828986e-06 4.1508597e-06 -4.252793e-06 -5.088737e-06
-8.298783e-06 1.5811713e-05 3.4897974e-05 -2.540496e-06 1.4995996e-05 1.743913e-06 -6.1584014e-06 -3.851724e-07
6.441554e-06 3.8256152e-07 -2.7721748e-05 1.8479972e-06 -8.461071e-06 -2.0334542e-06 -4.626905e-06 -3.300274e-07
-2.643156e-06 -7.0573014e-07 -1.9920746e-05 1.574083e-07 -5.9779813e-06 -1.3081554e-06 1.2417759e-06 1.0905836e-06
4.9219316e-06 1.2154252e-06 -6.73328e-06 -5.832018e-06 -2.7665496e-06 1.9540475e-06 1.2265983e-05 2.7520548e-06
6.595803e-06 1.5461235e-06 1.376396e-06 2.6092019e-05 -5.2314494e-06 -6.631865e-06 3.0267167e-06 -1.7308555e-05
6.1756136e-06 -1.4583852e-06 6.9768753e-06 -1.5493205e-06 -2.0704354e-07 -2.8875716e-06 2.6220625e-06 3.2122763e-08
2.43934e-08 -4.3955397e-06 -6.7326923e-06 -1.0569448e-06 -1.4339305e-05 -3.1277502e-06 -3.5262588e-06 1.8350505e-06
6.201319e-07 -2.3962289e-06 -4.3306723e-06 -1.7274494e-06 7.2969096e-06 4.1126737e-07 2.6346038e-06 4.6605865e-07
2.5450847e-06 2.935766e-06 2.8084352e-07 1.2054047e-06 2.9229916e-06 -1.8214408e-07 2.0687235e-06 -1.6535959e-06
2.8904833e-07 1.4525303e-06 -3.0244637e-06 -7.557912e-07 1.5235107e-06 -6.989695e-07 1.7178156e-06 2.0946054e-07
-4.783719e-07 -7.842997e-07 -2.5027514e-06 -8.046268e-07 -3.7866207e-06 -1.3949533e-05 9.4819865e-07 -3.2116782e-07
-3.545013e-06 6.431759e-06 -2.01047e-06 -4.4669878e-07 -1.1435828e-06 1.7999221e-06 -2.6032315e-06 1.3970147e-06
-7.436337e-07 9.958816e-08 -9.0728025e-07 1.361506e-06 -7.580762e-07 2.285892e-06 -8.2641907e-07 1.9724778e-06
-3.0383e-06 -2.23863e-06 2.8694608e-06 6.036818e-07 -1.5294233e-06 1.2251874e-06 1.457703e-06 -2.490716e-06
2.0364557e-06 9.960189e-07 1.1834453e-06 8.572035e-07 -4.068553e-07 -1.4436665e-06 4.0136915e-06 -7.3738715e-07
-1.9362457e-07 2.0690516e-06 -2.3036696e-06 -2.074592e-06 1.531713e-06 1.7013359e-06 1.5238238e-06 2.128772e-07
-2.666026e-07 -8.32188e-07 -3.824649e-06 -1.9908568e-06 1.9333858e-07 -1.1386702e-06 8.8423457e-07 1.5296943e-06
1.8546216e-07 2.874636e-06 2.471382e-06 2.1561611e-06 -3.5240926e-06 1.509972e-06 -2.457755e-06 8.773386e-08
3.164613e-06 4.7268406e-07 -1.3205402e-06 2.5529707e-06 1.1596e-06 -1.18128845e-07 4.012156e-06 -1.7567467e-06
9.32262e-08 -3.7746904e-06 1.1490313e-06 -1.1099606e-06 -3.844886e-06 1.2711108e-06 2.8880497e-06 -2.3802465e-06
2.122929e-06 1.7635251e-06 -3.281547e-07 2.5593206e-07 -1.403003e-06 -4.1881526e-06 3.3589504e-07 1.9082918e-06
-6.78772e-07 6.716737e-08 1.7450425e-06 1.4210249e-06 1.5661059e-06 1.1072841e-06 -9.400478e-07 2.1732963e-06
-9.158501e-07 1.1537231e-06 -1.2950908e-06 -1.9175868e-06 8.25704e-07 3.667599e-06 1.176644e-06 6.681679e-07
2.8826616e-06 -4.31919e-06 -1.5683049e-06 -1.1903076e-06 -1.8822542e-06 -8.381283e-07 6.1820606e-07 -2.9530204e-06
2.2503216e-06 -5.660813e-07 -8.013495e-07 -2.1635249e-06 2.839308e-07 -2.1873144e-07 -5.3068186e-07 5.641481e-08
-4.1823537e-06 3.2936857e-06 -5.630214e-06 -1.5892178e-06 -2.0228612e-08 1.8289275e-07 -7.489385e-07 -4.7920753e-07

exp_avg_sq f4 [150, 50]
00000000: 7377 0533 ef5a 3a30 dd64 bd30 f75a c630
00000010: 76e8 3230 d06c c830 715f 1b31 04d7 8030
00000020: 7a66 6b32 cac5 4830 34c8 d930 32b7 7530
00000030: 2e62 9330 985a 9a31 c865 a12f eec5 8330
00000040: 2330 8031 f661 2730 32f8 0830 642e 9f31
00000050: 192e aa30 dc78 b32f 1984 1930 c1b7 bc30
00000060: c089 bd30 f7f5 6d30 4172 6f30 f821 3b30
00000070: 3455 d530 cd47 9b30 ec58 f530 81e0 0a30
00000080: da3b 0c31 86b5 e332 5ae6 df2f 4275 7330
00000090: d324 1231 fe95 0f32 f5ce b130 66a6 3130
000000a0: 8fe7 cf30 3441 1030 fdf1 9030 c9fb 6230
000000b0: 756d 8b30 e3eb 5830 a46d 0230 5b58 f52f
000000c0: d8f1 9230 6fdc fa30 808d 2b30 b3af 6b2e
000000d0: 875a 3e2f 4fdb cd2d f199 c52e a0a0 492e
000000e0: 8d61 a52e 6e36 8a2e 5f2f 2530 5523 992e
000000f0: 7aba c72e 1705 8b2e 9a5e a42e cded 162e
00000100: 2cbd ef2d 4018 fc2e c4fe c02f d3bc 592e
00000110: 5ed7 632d be54 0e2f 6eee fc2e cc01 692d
00000120: 4fc5 8c2e d759 342e 7b09 bd2e 5273 ff2d
00000130: c567 712d 1327 372d a31f 3b2f 46bc 952e
00000140: 1a0e c12e b557 982e 21a0 842d eb4a fc2f
00000150: b438 b22d 2bb8 ba2e 152f 4a2e 4274 832f
00000160: 7a59 e42e 30b3 a12e 6868 022f 6340 db2d
00000170: a23d f02d 7054 932d be71 062f 2edf 8c2e
00000180: ec63 192e d657 aa2d abea 0e2f 4f92 062f
00000190: 9b7e 8931 7278 6e2e 9a8e ac2f 451f ce2e
000001a0: 9cf9 ca2e 595a f02e 64f9 8b2f 151d a92e
000001b0: 3822 fd30 fb36 022f ffd7 832f d9d1 0e2f
000001c0: 27c8 b42e 7c4b aa2f bbf6 672e 9d81 132f
000001d0: 6b1a 4f30 a197 ab2e 7a92 742e 819e e22f
000001e0: c34d 392f edb1 192e 643e e42e bc9a e82e
000001f0: cee3 352f 64f4 bf2e 020c b42e cf5e 4c2e
00000200: 7698 b32f eb91 0b2f 1382 3c2f db97 ca2e
00000210: 7adc f82e 5e3e 7531 540f 7c2e d0f6 ec2e
00000220: 4550 122f a744 cc30 dd39 ec2f ca58 bc2e
00000230: 4e81 9d2f 7c64 c52e aa92 952e 72b7 c02e
00000240: a91e 3d2f 8863 012f 1be0 832e caba 7c2e
00000250: b67d 4d2f 904b 872f 87bc 012f 2332 932d
00000260: b769 ae2e bcc7 b42d 3a3a 2a2e 0648 ff2d
00000270: 4a4d 4c2e 3e2d 0b2e f827 e42e d258 7e2e
00000280: 0819 9a2e 39a9 302e 4088 382e a8c5 052e
00000290: fe3b 9c2d 6e6a 832e 92d0 1b2f 78b8 0c2e
000002a0: 8d40 4b2d bcc9 a82e 7ffa 872e b4f5 572d
000002b0: c4db 5c2e 290d 272e 2344 722e bcd0 002d
000002c0: 2ab0 9e2d e782 152d 303b ee2e 6f10 382e
000002d0: 4eb4 612e 1511 232e 0613 8d2d 949e af2e
000002e0: 5904 132d 9be4 242e 7631 dc2d eec3 3b2f
000002f0: 25fb ce2e 0a22 202e 9d34 9a2e 86bc 902d
00000300: 2a8b 1f2e f438 332d 55e7 a62e dc61 392e
00000310: 2f5e c12d 1768 562d 75a7 9e2e ba7c b32e
00000320: 2431 cd2e 102a a72d a1e5 b12d 99fb 0b2d
00000330: 8372 152e 67e0 a02d 2ee4 6f2d 717d 2a2d
00000340: e938 ad2e cb01 632d e41b d12d da1b 482d
00000350: 5ad7 1a2d 9f07 aa2d dd19 d82c d12e 012e
00000360: ea8c 102e 8108 702d 466c 252d 106c 1f2e
00000370: 4737 072e b33f cd2c f25d 502d b72f 242e
00000380: 266d 912d b785 302d aea6 7d2d b587 702d
00000390: e13a 9d2d d323 b22d 9b42 f12d 6417 312d
000003a0: 7013 912d 78fb da2e 1a08 4c2d 6f84 972d
000003b0: 6cf6 a22d 6c09 6f2e e227 d12d 1fec f12d
000003c0: 6579 a32d b85f 692d 6cac 782d 1653 7d2d
000003d0: 1260 8d2d c2af 8f2d 2bdc 132d a151 932d
000003e0: b928 032e ddfa a22d dbef 1430 518f 3d2e
000003f0: af1c 3e2f ffa4 622e bc94 0a2f 5626 9d2e
3.1075114e-08 6.779563e-10 1.3780227e-09 1.443225e-09 6.508637e-10 1.4582842e-09 2.260972e-09 9.374337e-10
1.3702101e-08 7.304065e-10 1.5845729e-09 8.9390817e-10 1.0723562e-09 4.492289e-09 2.935805e-10 9.58776e-10
3.730763e-09 6.0893457e-10 4.982922e-10 4.632783e-09 1.238223e-09 3.2645786e-10 5.58488e-10 1.3731026e-09
1.3790711e-09 8.6569635e-10 8.711006e-10 6.8078476e-10 1.5522006e-09 1.1298141e-09 1.7851369e-09 5.0523147e-10
2.0406703e-09 2.6508825e-08 4.0727138e-10 8.856952e-10 2.1266728e-09 8.3578e-09 1.2937266e-09 6.462869e-10
1.5127045e-09 5.2479554e-10 1.0546156e-09 8.257613e-10 1.0144691e-09 7.891556e-10 4.7449533e-10 4.462802e-10
1.0691634e-09 1.8252545e-09 6.241052e-10 5.3588866e-11 1.7312561e-10 2.3403194e-11 8.985868e-11 4.5844772e-11
7.52066e-11 6.285182e-11 6.009397e-10 6.963911e-11 9.082597e-11 6.321892e-11 7.474661e-11 3.431726e-11
2.7255163e-11 1.1463941e-10 3.5105618e-10 4.9507797e-11 1.2951277e-11 1.2944931e-10 1.1501987e-10 1.3244916e-11
6.401512e-11 4.1007055e-11 8.596409e-11 2.9041356e-11 1.3722305e-11 1.0411022e-11 1.701879e-10 6.8091796e-11
8.779129e-11 6.9277396e-11 1.5077774e-11 4.5891765e-10 2.0261438e-11 8.4910155e-11 4.59713e-11 2.3911367e-10
1.0384134e-10 7.3532624e-11 1.1860524e-10 2.4926011e-11 2.7312212e-11 1.6749463e-11 1.2227638e-10 6.4061076e-11
3.487692e-11 1.936577e-11 1.2998196e-10 1.2239208e-10 4.001618e-09 5.422191e-11 3.1387942e-10 9.37335e-11
9.230236e-11 1.09299854e-10 2.5461155e-10 7.690396e-11 1.8417898e-09 1.1842964e-10 2.3982236e-10 1.2989378e-10
8.2210065e-11 3.0976455e-10 5.274246e-11 1.341562e-10 7.5343703e-10 7.8031144e-11 5.5609274e-11 4.1221784e-10
1.6853278e-10 3.4946202e-11 1.03793224e-10 1.0577625e-10 1.6542787e-10 8.729087e-11 8.187585e-11 4.6468437e-11
3.266824e-10 1.2693817e-10 1.7144712e-10 9.2128714e-11 1.1316899e-10 3.5687644e-09 5.731178e-11 1.077588e-10
1.330714e-10 1.4862466e-09 4.2969264e-10 8.565022e-11 2.865001e-10 8.9763724e-11 6.801788e-11 8.7637356e-11
1.7200343e-10 1.1767842e-10 5.9969994e-11 5.7464068e-11 1.8689303e-10 2.4610047e-10 1.179946e-10 1.673423e-11
7.9313826e-11 2.055233e-11 3.870524e-11 2.9022128e-11 4.6452876e-11 3.1645124e-11 1.03753395e-10 5.7831802e-11
7.0075556e-11 4.0168067e-11 4.195777e-11 3.0416253e-11 1.7761789e-11 5.976096e-11 1.4171267e-10 3.1996156e-11
1.1553547e-11 7.675591e-11 6.183586e-11 1.2275892e-11 5.02174e-11 3.7983092e-11 5.5084947e-11 7.322306e-12
1.8040753e-11 8.498736e-12 1.0833501e-10 4.1851352e-11 5.131922e-11 3.707708e-11 1.6038292e-11 7.986248e-11
8.356948e-12 3.7492325e-11 2.503307e-11 1.7077159e-10 9.412408e-11 3.641002e-11 7.012455e-11 1.6454626e-11
3.6276017e-11 1.0187618e-11 7.589899e-11 4.2151047e-11 2.1983386e-11 1.2187604e-11 7.2147545e-11 8.1621335e-11
9.33105e-11 1.9004381e-11 2.0224546e-11 7.957101e-12 3.3980384e-11 1.8289549e-11 1.3636243e-11 9.691235e-12
7.8772384e-11 1.2903854e-11 2.3772935e-11 1.1374868e-11 8.801704e-12 1.9330147e-11 6.1419606e-12 2.9372785e-11
3.2866966e-11 1.3644309e-11 9.403206e-12 3.6248393e-11 3.0744542e-11 5.8335225e-12 1.1844291e-11 3.7331662e-11
1.6533063e-11 1.0034132e-11 1.4418395e-11 1.36725535e-11 1.7874981e-11 2.0252166e-11 2.7428107e-11 1.0066479e-11
1.6493223e-11 9.958162e-11 1.1597856e-11 1.7225525e-11 1.8526701e-11 5.4350677e-11 2.377826e-11 2.7503387e-11
1.8584865e-11 1.326577e-11 1.4135453e-11 1.4399834e-11 1.6072508e-11 1.633527e-11 8.40487e-12 1.6748216e-11
2.982212e-11 1.8528673e-11 5.418294e-10 4.3100915e-11 1.729059e-10 5.1532997e-11 1.2603868e-10 7.146343e-11
