lightning_logs/version_33479210/checkpoints/epoch=49-step=11950-v2.ckpt (torch, 142804 bytes, 15 tensors)

model.gru.weight_ih_l0 f4 [150, 22]
0.051468566 -0.059887696 -0.09598268 0.10986482 0.09877199 0.09916907 -0.11603904 0.20381384
-0.014531201 0.015069321 -0.026337115 0.08690836 -0.08230463 -0.096709855 -0.192993 -0.06571544
0.022805661 0.04717082 -0.1816501 0.037579913 0.025795154 0.010246782 0.0682101 -0.0707811
-0.2183548 0.13636583 0.036451917 0.025580456 -0.092757575 -0.18477678 -0.024407947 -0.2036004
0.060445316 0.1055365 -0.05046307 0.11868941 -0.042846754 -0.084243156 0.09286312 0.15619005
-0.08334611 -0.089391924 0.050305773 0.041895125 -0.03370674 0.09159488 -0.12024046 0.06536757
-0.07603778 0.15142237 -0.10235125 0.029433789 0.10915527 -0.27042496 0.15347873 0.037110187
-0.11487568 0.028077671 -0.08029999 0.23296392 -0.09243002 0.019395638 0.009827514 0.13449259
0.069605455 -0.046909217 -0.09996761 -0.007087432 -0.06954112 0.0457846 0.031804163 0.13112046
-0.020422816 -0.11015641 -0.06792255 -0.14603476 0.10736281 0.2869178 -0.08401172 -0.06218811
0.047231458 -0.07106504 -0.02222233 0.19395496 -0.06258781 -0.03385377 -0.10039262 -0.08411972
-0.13282894 0.19457433 0.006716561 -0.057301484 0.09484576 -0.005368415 0.07004815 0.0037328142
-0.051723283 0.18385907 0.14521217 0.022802643 -0.07141085 0.1233645 0.1047135 0.088899754
-0.0152768 -0.09602384 -0.116639 0.17294264 0.104498684 -0.010376862 0.085690774 0.015996939
0.16848683 -0.0674409 0.06741824 0.0032810406 -0.1884748 -0.05837533 -0.088186756 0.061633267
-0.19949596 0.060991716 0.029548367 0.06350631 -0.0040097297 -0.01857559 0.04576713 -0.12309795
0.036293793 0.14694794 0.11644627 0.042853393 -0.02291139 -0.2029298 0.055718876 -0.09232907
0.16250013 0.00016722146 0.13490745 0.15227777 -0.13344106 -0.074846394 -0.008410842 0.18875007
-0.008639382 0.21568616 0.20461118 0.08496098 0.119020075 -0.1187348 -0.009857733 -0.02980105
0.11597631 0.11658698 -0.1307055 -0.108277254 -0.09602181 -0.14123495 -0.10442431 -0.061556496
-0.10324397 -0.021460734 0.08432764 -0.04156501 -0.052343454 0.14692724 -0.01724816 0.049929302
-0.098464146 -0.03188995 0.042873867 0.034158062 0.09908939 -0.19560759 0.026492666 -0.15273312
0.117523514 0.032731656 -0.06637476 -0.12157376 0.12322305 -0.043207206 -0.054204937 0.11544482
0.088754185 0.016472304 -0.05038115 -0.049230214 0.0048228637 -0.11356529 -0.096384406 -0.11379645
-0.019743389 -0.030020991 0.03173038 -0.23851664 0.1306248 -0.009659852 0.07487009 -0.03465683
-0.013434676 0.0016144258 -0.0020627012 0.11073091 0.12503445 0.057527862 -0.048272915 -0.12296307
0.13486534 0.09927576 -0.0036788678 0.18694468 -0.0390949 0.22353315 -0.14083964 -0.016334409
-0.096347235 -0.08766074 0.006860715 0.027786814 -0.048895575 -0.04018075 0.061031178 0.034857117
-0.04906273 0.14439754 -0.10329245 -0.1519176 -0.0150433015 0.034286175 -0.009921846 0.058539644
-0.044584572 0.12971625 0.023341324 -0.030502308 0.016267285 0.059365686 -0.0046969187 -0.007988605
-0.08898001 -0.1947493 -0.1322536 0.00033888576 0.015795924 0.021115996 0.1383162 0.11140787
0.11062935 0.017834432 0.10444133 -0.09382458 -0.04689413 -0.033957418 0.06979991 0.011845172
00000000: b4d0 523d cd4c 75bd 9192 c4bd cf00 e13d
00000010: f848 ca3d 2719 cb3d e0a5 edbd 93b4 503e
00000020: 4614 6ebc 50e5 763c efc0 d7bc 03fd b13d
00000030: 548f a8bd d10f c6bd f59f 45be d195 86bd
00000040: f0d2 ba3c 3136 413d 7c02 3abe 65ed 193d
00000050: 5c50 d33c 1ee2 273c bdb1 8b3d aef5 90bd
00000060: 6798 5fbe 7ca3 0b3e 9b4e 153d 1b8e d13c
00000070: aff7 bdbd 2036 3dbe 2df3 c7bc a07c 50be
00000080: 8295 773d 8523 d83d 5db2 4ebd 6f13 f33d
00000090: 1480 2fbd ad87 acbd 052f be3d 49f0 1f3e
000000a0: 5eb1 aabd 1d13 b7bd 6d0d 4e3d 399a 2b3d
000000b0: 1410 0abd 1996 bb3d a140 f6bd 6fdf 853d
000000c0: b2b9 9bbd 770e 1b3e 889d d1bd 211f f13c
000000d0: cc8c df3d 2475 8abe 8729 1d3e da00 183d
000000e0: f143 ebbd 2503 e63c 5274 a4bd 188e 6e3e
000000f0: f34b bdbd 9ae3 9e3c 9503 213c 6db8 093e
00000100: 4e8d 8e3d e123 40bd d1bb ccbd b03d e8bb
00000110: 936b 8ebd a288 3b3d 1545 023d 7144 063e
00000120: c04d a7bc af99 e1bd fa1a 8bbd 238a 15be
00000130: 08e1 db3d e4e6 923e 560e acbd f6b8 7ebd
00000140: c675 413d 8c8a 91bd 9b0b b6bc 219c 463e
00000150: 0a2e 80bd 40aa 0abd a59a cdbd f646 acbd
00000160: 4f04 08be 7e3e 473e 9916 dc3b f6b4 6abd
00000170: 7e3e c23d 87e9 afbb 6875 8f3d 3ba2 743b
00000180: cbdb 53bd 8d45 3c3e 80b2 143e 9ccc ba3c
00000190: da3f 92bd 87a6 fc3d 0874 d63d 1311 b63d
000001a0: 8b4b 7abc 26a8 c4bd 6ee0 eebd e017 313e
000001b0: 6803 d63d b703 2abc a57e af3d 030c 833c
000001c0: d087 2c3e 741e 8abd 9312 8a3d ba06 573b
000001d0: 8aff 40be f81a 6fbd 429b b4bd 2a73 7c3d
000001e0: ab48 4cbe 73d2 793d 6b0f f23c 990f 823d
000001f0: 0d64 83bb d62b 98bc 5076 3b3d c71a fcbd
00000200: cda8 143d 8579 163e 627b ee3d 0a87 2f3d
00000210: abb0 bbbc d4cc 4fbe 7a39 643d 0617 bdbd
00000220: 6f66 263e 2b58 2f39 2e25 0a3e b4ee 1b3e
00000230: c6a4 08be 1149 99bd a1cd 09bc b347 413e
00000240: 328c 0dbc d5dc 5c3e 9885 513e 0600 ae3d
00000250: ccc0 f33d 3b2b f3bd 5482 21bc 5521 f4bc
00000260: fd84 ed3d 28c5 ee3d aad7 05be 77c0 ddbd
00000270: 15a7 c4bd e59f 10be 6adc d5bd aa22 7cbd
00000280: 9371 d3bd 6cce afbc f8b3 ac3d 1240 2abd
00000290: 1766 56bd 1874 163e 034c 8dbc ab82 4c3d
000002a0: 92a7 c9bd 099f 02bd 829c 2f3d 53e9 0b3d
000002b0: 61ef ca3d 5b4d 48be 2607 d93c 1266 1cbe
000002c0: 2bb0 f03d a111 063d 7def 87bd aafb f8bd
000002d0: 5e5c fc3d 0afa 30bd ff05 5ebd 556e ec3d
000002e0: c1c4 b53d edf0 863c 775c 4ebd 9fa5 49bd
000002f0: 1d09 9e3b eb94 e8bd 3065 c5bd 1d0e e9bd
00000300: e3bc a1bc 95ee f5bc b7f7 013d b53d 74be
00000310: 82c2 053e 5b44 1ebc 7d55 993d 52f4 0dbd
00000320: 1e1d 5cbc 249b d33a 622e 07bb e3c6 e23d
00000330: 0809 003e 56a2 6b3d d2b9 45bd 10d4 fbbd
00000340: 241a 0a3e 1751 cb3d 2919 71bb 6d6e 3f3e
00000350: f921 20bd e0e5 643e 4438 10be bdcf 85bc
00000360: b351 c5bd 7987 b3bd d9cf e03b 2ca1 e33c
00000370: ba46 48bd 9294 24bd d4fb 793d 56c6 0e3d
00000380: 00f6 48bd f3dc 133e fe8a d3bd 4a90 1bbe
00000390: 2e78 76bc a96f 0c3d 3d8f 22bc 44c7 6f3d
000003a0: 509e 36bd 56d4 043e 4e36 bf3c fadf f9bc
000003b0: f842 853c 6f29 733d 9ce8 99bb a3e2 02bc
000003c0: 273b b6bd 5c6c 47be 7d6d 07be 7aac b139
000003d0: 7466 813c 74fb ac3c c3a2 0d3e cf29 e43d
000003e0: a491 e23d 8419 923c 56e5 d53d 1a27 c0bd
000003f0: 0f14 40bd ef16 0bbd 41f3 8e3d 4112 423c

model.gru.weight_hh_l0 f4 [150, 50]
-0.04537994 0.0984157 0.08334486 -0.16647793 0.17424561 0.07844431 0.14887352 0.03701413
-0.047783535 0.10786315 -0.01790456 0.026579697 -0.037787594 -0.017602779 -0.030783504 0.12979603
-0.015349346 0.092336915 -0.019362008 -0.15038653 0.1668784 0.01132549 -0.11038938 0.17883071
0.10699349 0.02410045 0.008980155 0.10365592 -0.052399524 0.109293304 0.07981122 0.09373148
-0.22026236 -0.020509493 -0.09114654 -0.0041290736 -0.2000062 -0.27571526 -0.18010877 0.091554046
-0.0076069687 -0.018897867 0.052711345 0.19231193 0.049998906 0.16847572 0.042499818 0.16595821
-0.047408305 -0.097231045 -0.021208761 -0.08045017 0.02056976 -0.0016202232 0.05533992 -0.14415284
0.0077682617 -0.042510908 -0.17983635 -0.027997997 0.049075626 -0.016840952 0.06537759 -0.20686592
-0.04976332 -0.007243777 0.013701065 -0.04687487 0.011696441 0.034264714 -0.10582273 0.113955595
0.06477819 -0.03719788 -0.04470355 -0.017795444 -0.027459338 0.0022220877 -0.060560204 -0.06393732
0.042101946 -0.052556746 -0.0031462735 0.10903091 -0.033904057 0.07239919 -0.08658621 0.027891403
0.05358004 0.17464837 0.15938222 -0.12208396 -0.0060102004 0.027928354 -0.12684675 -0.0023972574
-0.02676458 0.032608107 0.09913038 -0.07085964 0.12734136 -0.057326198 0.35314912 -0.051834058
0.14501923 -0.06876979 0.24068572 -0.1018781 -0.21457356 -0.2626008 -0.15120088 0.0065188305
0.175986 0.21089166 -0.051440213 0.03595442 -0.089573525 0.06803009 -0.30217096 -0.17139037
-0.16273582 -0.052467402 -0.08535091 0.033941172 -0.09009549 -0.03221358 -0.035478096 -0.16806488
-0.17885047 0.012873318 -0.029350076 0.20040648 -0.02174798 0.012467753 0.012690609 -0.11729318
-0.019016612 -0.20286168 0.11491185 0.031999778 -0.045588527 0.04120634 0.19621786 0.09237016
0.13403593 0.00023257884 0.20404351 0.13692464 -0.10986692 0.23869994 -0.07895183 0.002069037
0.013592959 0.110593066 0.054101888 -0.10079206 0.076382175 -0.10255954 -0.17476647 0.0380501
0.14525053 0.006313956 0.13129337 -0.050548952 0.15352114 0.096761994 0.0231706 0.045469914
-0.15301871 -0.17790696 -0.061548356 -0.11245797 0.106202915 -0.03011519 -0.11452826 0.06489264
-0.056196347 0.07060049 0.008130568 0.013336 0.059957195 0.09122389 -0.053691905 -0.013850349
0.16151808 -0.08180188 0.031808674 -0.20383923 0.082911596 0.010389148 0.07427782 -0.10115075
0.03818828 0.13049749 -0.10099922 0.12356227 0.14175048 0.17853399 -0.022297839 -0.041423425
-0.013395941 -0.13649964 0.12584682 0.18417007 -0.06886292 -0.19723819 0.08651977 -0.13558747
-0.057569772 -0.017425742 -0.17577533 -0.0411083 -0.15012662 -0.04947306 0.20290777 -0.09310317
0.038035452 0.081919774 0.032620784 -0.032944962 -0.2023157 -0.09085072 -0.0056985584 -0.077630825
-0.030291254 -0.14652844 -0.118720226 0.22377355 -0.04642317 0.21709777 -0.019889586 -0.012330358
0.18751237 0.14863645 -0.06327114 -0.017848987 -0.07006903 0.11637276 -0.16511343 0.028118728
-0.0012526831 0.113772415 -0.024326915 0.06308173 0.066610165 0.121920995 -0.07289936 -0.15868989
-0.15363382 0.19077769 0.031605434 -0.08761888 -0.1059784 -0.17747943 0.050182167 -0.06781627
00000000: 51e0 39bd 2c8e c93d b6b0 aa3d 3179 2abe
00000010: 716d 323e 69a7 a03d 4d72 183e 219c 173d
00000020: abb8 43bd 5be7 dc3d 95ac 92bc aabd d93c
00000030: 2ac7 1abd b433 90bc b02d fcbc 40e9 043e
00000040: d37b 7bbc 231b bd3d 139d 9ebc edfe 19be
00000050: 2ce2 2a3e 8c8e 393c d413 e2bd 661f 373e
00000060: 671f db3d 4f6e c53c 8021 133c 8e49 d43d
00000070: e2a0 56bd 2bd5 df3d 1174 a33d 4af6 bf3d
00000080: 758c 61be 8603 a8bc 0aab babd 2e4d 87bb
00000090: 6dce 4cbe 8d2a 8dbe 6f6e 38be b080 bb3d
000000a0: e143 f9bb b3cf 9abc dae7 573d 6bed 443e
000000b0: a7cb 4c3d e684 2c3e 4a14 2e3d f3f0 293e
000000c0: 362f 42bd 1221 c7bd ffbd adbc 0fc3 a4bd
000000d0: ea81 a83c ab5d d4ba 1dac 623d cd9c 13be
000000e0: e78c fe3b eb1f 2ebd 0527 38be 0e5c e5bc
000000f0: 8603 493d 09f6 89bc b0e4 853d a9d4 53be
00000100: 9fd4 4bbd 355d edbb 6f7a 603c ddff 3fbd
00000110: 6ea2 3f3c 2859 0c3d 96b9 d8bd 8d61 e93d
00000120: 6daa 843d ce5c 18bd 121b 37bd c0c7 91bc
00000130: 68f2 e0bc 72a0 113b fa0d 78bd 92f1 82bd
00000140: 1773 2c3d be45 57bd b631 4ebb 994b df3d
00000150: fbde 0abd 0746 943d 1c54 b1bd 837c e43c
00000160: be76 5b3d 06d7 323e 1835 233e 2807 fabd
00000170: 37f1 c4bb 01ca e43c 1de4 01be 4e1b 1dbb
00000180: 6441 dbbc 1490 053d de04 cb3d dc1e 91bd
00000190: c665 023e e0ce 6abd f6cf b43e f34f 54bd
000001a0: ec7f 143e 2dd7 8cbd 5176 763e 77a5 d0bd
000001b0: 2cb9 5bbe 9d73 86be 67d4 1abe ea9b d53b
000001c0: ad35 343e fcf3 573e f9b2 52bd f144 133d
000001d0: 5372 b7bd 5c53 8b3d 27b6 9abe f580 2fbe
000001e0: 38a4 26be 0fe8 56bd 75cc aebd e605 0b3d
000001f0: fc83 b8bd 63f2 03bd 7b51 11bd 3319 2cbe
00000200: 9424 37be 9cea 523c 926f f0bc 5b37 4d3e
00000210: d228 b2bc 8c45 4c3c 46ec 4f3c 6837 f0bd
00000220: bac8 9bbc f9ba 4fbe e756 eb3d 3312 033d
00000230: 09bb 3abd fbc7 283d 56ed 483e 912c bd3d
00000240: b740 093e 68e0 7339 c8f0 503e f935 0c3e
00000250: e801 e1bd c26d 743e 7fb1 a1bd ae98 073b
00000260: 01b5 5e3c 9e7e e23d f199 5d3d 116c cebd
00000270: 426e 9c3d bc0a d2bd fbf5 32be 6cda 1b3d
00000280: 8ebc 143e 4de5 ce3b c571 063e 6b0c 4fbd
00000290: a534 1d3e 272b c63d 45d0 bd3c a93e 3a3d
000002a0: f0b0 1cbe 3e2d 36be 211a 7cbd 5d50 e6bd
000002b0: ea80 d93d 22b4 f6bc cb8d eabd 6fe6 843d
000002c0: 242e 66bd fd96 903d 1336 053c 3d7f 5a3c
000002d0: ad95 753d 97d3 ba3d 0bec 5bbd 93ec 62bc
000002e0: ff64 253e be87 a7bd d049 023d 3bbb 50be
000002f0: 8ecd a93d 3f37 2a3c f81e 983d 2028 cfbd
00000300: 506b 1c3d 22a1 053e aed8 cebd 370e fd3d
00000310: 0a27 113e 9dd1 363e f5a9 b6bc 9cab 29bd
00000320: a67a 5bbc 90c6 0bbe fddd 003e 1497 3c3e
00000330: 0108 8dbd cff8 49be 4731 b13d 71d7 0abe
00000340: 48ce 6bbd 6ec0 8ebc 73fe 33be 2d61 28bd
00000350: cbba 19be 43a4 4abd 0ec7 4f3e e0ac bebd
00000360: 10cb 1b3d 8ec5 a73d 5f9d 053d 4cf1 06bd
00000370: d92b 4fbe f10f babd f9ba babb e9fc 9ebd
00000380: 5d25 f8bc 8d0b 16be 9723 f3bd e524 653e
00000390: 3926 3ebd e14e 5e3e 7cef a2bc 4505 4abc
000003a0: 3e03 403e 2734 183e 4d94 81bd 0a38 92bc
000003b0: 5a80 8fbd d754 ee3d 7f13 29be 3f59 e63c
000003c0: 1231 a4ba 8301 e93d 3d49 c7bc fe30 813d
000003d0: e96a 883d b7b1 f93d 424c 95bd 9a7f 22be
000003e0: 2f52 1dbe 3a5b 433e b374 013d 8771 b3bd
000003f0: 340b d9bd 2bbd 35be d18b 4d3d 42e3 8abd

model.gru.bias_ih_l0 f4 [150]
0.13555686 -0.12237447 0.14034648 0.16865632 -0.20963956 0.060366075 0.048288487 0.13689947
0.045129284 0.1444437 0.030161364 -0.17814067 -0.041734193 0.07351165 0.049041178 0.069369934
-0.055522934 0.005203186 0.2022132 -0.14023997 0.11505415 0.093295775 0.07186026 0.137477
-0.031661168 0.20658839 -0.03029411 0.108775474 -0.09575975 0.18709424 0.1457132 0.24273248
0.12461121 -0.003582194 -0.058617514 0.094358385 0.09523101 0.2329706 0.19628398 -0.30104864
0.14120379 -0.07704233 0.23408924 -0.18015838 -0.042312283 0.19814774 0.13153127 -0.061838746
0.10666185 0.13997006 -0.08811045 0.42268872 0.1558789 0.05931648 0.13219038 -0.018802894
0.1619751 -0.066804975 0.30647987 0.02421279 0.18371998 0.09724436 0.30835187 0.21394783
-0.026930675 0.28096777 0.19313239 0.13652824 0.12563166 0.2965437 0.21532187 0.1336719
0.00039478403 0.035007775 0.39740148 0.19655982 -0.0492903 0.15309985 0.47052974 0.05940521
-0.03480972 0.39305562 -0.031300936 -0.024125202 0.20537809 -0.021009339 0.24685435 -0.05306774
0.27462813 0.6334963 0.056104124 0.09549077 0.24432462 0.571128 0.15551706 -0.013585209
0.30240598 0.060414348 0.21313685 0.06410801 0.012806462 -0.070110284 0.019384058 -0.016413659
-0.025947625 0.015445626 0.009572079 -0.0774339 -0.014115548 -0.014442869 0.084984206 -0.022126708
0.009428182 0.003935209 -0.054988563 -0.009890504 -0.023252705 -0.026935948 -0.053323634 -0.0050258655
0.01613599 0.08841583 -0.005114906 0.015391714 0.04136501 0.013386422 -0.034080494 -0.043994483
0.016484369 -0.06642763 0.09543477 0.045594502 -0.03733899 -0.03528861 0.07461215 0.055379495
-0.049026858 0.09881591 0.016392957 -0.036320064 -0.038217887 0.0052220398 0.03250295 -0.06407179
-0.020632152 0.041637547 -0.033812907 0.058418497 0.024504814 0.013210319
00000000: 6bcf 0a3e 779f fabd fdb6 0f3e 3eb4 2c3e
00000010: c1ab 56be 6b42 773d 26ca 453d 602f 0c3e
00000020: 7cd9 383d 0de9 133e f714 f73c 826a 36be
00000030: 79f1 2abd 478d 963d 67df 483d d311 8e3d
00000040: 046c 63bd 7d7f aa3b fa10 4f3e 119b 0fbe
00000050: 83a1 eb3d db11 bf3d 792b 933d c5c6 0c3e
00000060: 24af 01bd e88b 533e 5a2b f8bc adc5 de3d
00000070: b01d c4bd a295 3f3e d735 153e dd8e 783e
00000080: 2934 ff3d 3ec3 6abb eb18 70bd f83e c13d
00000090: 7a08 c33d d88f 6e3e abfe 483e 0c23 9abe
000000a0: ba97 103e 5ec8 9dbd 17b5 6f3e 707b 38be
000000b0: a54f 2dbd 3ee7 4a3e 22b0 063e a04a 7dbd
000000c0: 8771 da3d 5054 0f3e 4073 b4bd a86a d83e
000000d0: b89e 1f3e d6f5 723d ea5c 073e 8708 9abc
000000e0: cddc 253e 0cd1 88bd eeea 9c3e e759 c63c
000000f0: 1721 3c3e 0d28 c73d 4ce0 9d3e 2415 5b3e
00000100: b89d dcbc 02db 8f3e 7fc4 453e 0fce 0b3e
00000110: 96a5 003e 93d4 973e 567d 5c3e 49e1 083e
00000120: 04fb ce39 5064 0f3d 3578 cb3e fa46 493e
00000130: a0e4 49bd 35c6 1c3e 46e9 f03e e152 733d
00000140: a394 0ebd 963e c93e 6935 00bd 37a2 c5bc
00000150: a24e 523e c71b acbc 63c7 7c3e 8f5d 59bd
00000160: 0f9c 8c3e d02c 223f 70cd 653d aa90 c33d
00000170: 3c30 7a3e 7235 123f dd3f 1f3e 7f94 5ebc
00000180: f5d4 9a3e 0975 773d 8c40 5a3e 0f4b 833d
00000190: 32d2 513c fb95 8fbd 51cb 9e3c f075 86bc
000001a0: 1d90 d4bc a70f 7d3c 36d4 1c3c aa95 9ebd
000001b0: e644 67bc c9a1 6cbc 330c ae3d 1243 b5bc
000001c0: a978 1a3c edf2 803b b03b 61bd c80b 22bc
000001d0: 757c bebc c7a8 dcbc e269 5abd 04b0 a4bb
000001e0: a02f 843c 5c13 b53d f19a a7bb 872d 7c3c
000001f0: 5b6e 293d b952 5b3c fd97 0bbd 8f33 34bd
00000200: 3a0a 873c 360b 88bd 4e73 c33d 4dc1 3a3d
00000210: c5f0 18bd ca8a 10bd 41ce 983d 9cd5 623d
00000220: 63d0 48bd ff5f ca3d 864a 863c 59c4 14bd
00000230: 5c8a 1cbd a51d ab3b d021 053d 1238 83bd
00000240: c204 a9bc 228c 2a3d 677f 0abd 3c48 6f3d
00000250: 52be c83c 1870 583c

model.gru.bias_hh_l0 f4 [150]
0.09171641 -0.08679308 0.013261067 -0.040643163 -0.16379458 -0.015137227 -0.061057016 0.043511875
0.08663137 0.1882152 0.15006156 -0.16504005 -0.12049989 -0.04677764 -0.051680095 -0.06572126
0.02042346 0.021878444 0.18186465 -0.034988295 0.20651725 0.0026303895 0.04654723 0.17424998
-0.049610887 0.11896365 0.047735136 0.22039393 -0.095291376 0.1661522 0.11707755 0.060472474
0.10217405 -0.18714826 0.008212882 0.105796546 -0.050021186 0.13401735 0.028653318 -0.4047422
-0.07628318 0.026844468 0.026213253 -0.19702958 -0.04257184 0.17954497 -0.013782212 -0.16481844
0.0858867 -0.0020928711 -0.012735591 0.60761076 0.070391804 0.22794674 0.13359681 0.030291295
0.19100864 -0.1343309 0.21385193 0.21269871 0.03238589 0.049447488 0.21612448 0.19386345
0.14462213 0.222384 0.26336682 0.19973114 -0.017772594 0.3859243 0.15105624 0.13464898
0.049113497 0.22629794 0.2016339 -0.023564061 0.05616771 0.14649595 0.2437049 0.1525121
0.101416215 0.32036534 0.11140633 0.016457533 0.156658 0.075300716 0.053254664 -0.10866148
0.13530976 0.5364669 0.07592063 0.06917451 0.20072399 0.46623313 0.1928575 0.097635195
0.06488691 0.046708044 0.06322711 0.025058392 -0.0023087675 0.030608037 -0.030465981 0.011289508
-0.0062653474 -0.057946254 -0.048395135 0.12053716 -0.03142 0.04842617 -0.1537538 0.07164739
-0.00931732 0.0113356775 0.12201708 0.038265303 0.04191501 -0.0015467419 0.07863822 0.0025966628
-0.04607348 -0.13389798 0.0031755557 -0.0034809795 -0.09307582 -0.029995315 0.09841627 0.13070822
-0.02819162 0.09743806 -0.12442635 -0.03715222 0.039466638 0.101483576 -0.14856523 -0.06649536
0.09753064 -0.13353969 -0.04742644 -0.037040513 0.048963163 -0.06297079 -0.024237797 0.011850406
0.0039955247 -0.054670617 0.057297956 -0.071576454 -0.029112194 -0.0125596775
00000000: d0d5 bb3d 92c0 b1bd f244 593c 7279 26bd
00000010: c4b9 27be 2202 78bc ec16 7abd 8239 323d
00000020: ca6b b13d 7cbb 403e bda9 193e 4200 29be
00000030: a5c8 f6bd e999 3fbd 82ae 53bd de98 86bd
00000040: 1a4f a73c 6c3a b33c ba3a 3a3e e34f 0fbd
00000050: 4279 533e 9d62 2c3b 4fa8 3e3d 966e 323e
00000060: c934 4bbd 37a3 f33d eb85 433d f2ae 613e
00000070: 2028 c3bd cd23 2a3e 5bc6 ef3d fcb1 773d
00000080: a140 d13d cba3 3fbe 538f 063c dcab d83d
00000090: 04e3 4cbd d83b 093e 5dba ea3c 5f3a cfbe
000000a0: 5b3a 9cbd eee8 db3c 2dbd d63c 1fc2 49be
000000b0: cf5f 2ebd a3da 373e c9ce 61bc 2ac6 28be
000000c0: 5ee5 af3d 8d28 09bb f1a8 50bc 618c 1b3f
000000d0: 9429 903d df6a 693e 9acd 083e 7325 f83c
000000e0: c597 433e 0a8e 09be 00fc 5a3e b1cd 593e
000000f0: 11a7 043d 7389 4a3d bc4f 5d3e 2484 463e
00000100: d317 143e a2b8 633e 04d8 863e 5286 4c3e
00000110: d597 91bc df97 c53e 7dae 1a3e 6ce1 093e
00000120: 3c2b 493d a6ba 673e 1e79 4e3e 6b09 c1bc
00000130: 1d10 663d 0903 163e c78d 793e 222c 1c3e
00000140: 4eb3 cf3d ed06 a43e 0029 e43d f3d1 863c
00000150: f46a 203e 4337 9a3d 9021 5a3d e989 debd
00000160: a48e 0a3e e555 093f 467c 9b3d 5eab 8d3d
00000170: 978a 4d3e 1cb6 ee3e 707c 453e f6f4 c73d
00000180: 6ee3 843d ef50 3f3d 377d 813d 4247 cd3c
00000190: b14e 17bb b5bd fa3c cb93 f9bc a1f7 383c
000001a0: 8b4d cdbb 0d59 6dbd fa39 46bd 30dc f63d
000001b0: 42b2 00bd 855a 463d a371 1dbe debb 923d
000001c0: aca7 18bc 47b9 393c 17e4 f93d 14bc 1c3d
000001d0: 13af 2b3d 0cbc caba 130d a13d c62c 2a3b
000001e0: 8cb7 3cbd 8d1c 09be fc1c 503b 2521 64bb
000001f0: 899e bebd bcb8 f5bc 788e c93d 60d8 053e
00000200: 1df2 e6bc 9b8d c73d 3ed3 febd ed2c 18bd
00000210: c5a7 213d 9fd6 cf3d 7c21 18be b82e 88bd
00000220: 25be c73d a1be 08be 3a42 42bd cbb7 17bd
00000230: 998d 483d d4f6 80bd 588e c6bc 3528 423c
00000240: e4ec 823b 4cee 5fbd 43b1 6a3d ad96 92bd
00000250: b27c eebc 1bc7 4dbc

model.fc.weight f4 [1, 50]
-0.005465323 0.064771704 -0.0011766402 -0.005562701 6.132448e-05 0.01581488 0.0044882987 0.013751427
-0.009702783 0.009486931 0.0141063025 -0.010476087 0.013329275 0.024404 -0.012436829 -0.00847954
-0.0061275153 -0.0006110925 -0.014183544 0.0009142577 0.008990274 0.0005567987 -0.005752817 -0.003941021
-0.005131737 0.007708201 -0.006432458 -0.0032679024 -0.0023659826 0.0027544363 0.0041470253 0.019712655
-0.01651755 0.0008259241 -0.010531623 0.006995393 -0.0194247 -0.026117714 0.0036835698 0.04503813
0.0040813135 0.0039793234 0.0032440345 0.054928325 -0.0054863486 -0.0019004567 0.006289355 0.02379143
0.00558637 0.0075620627
00000000: 7416 b3bb 07a7 843d 7e39 9aba 5147 b6bb
00000010: 549b 8038 358e 813c 9412 933b aa4d 613c
00000020: 6cf8 1ebc 136f 1b3c 1f1e 673c e5a3 2bbc
00000030: 0863 5a3c e6ea c73c d7c3 4bbc c5ed 0abc
00000040: 53c9 c8bb b931 20ba 1862 68bc ccaa 6f3a
00000050: f14b 133c 21f6 113a 2082 bcbb ae23 81bb
00000060: 2128 a8bb 1495 fc3b 5ec7 d2bb 4e2a 56bb
00000070: 9a0e 1bbb c683 343b c5e3 873b 6f7c a13c
00000080: d04f 87bc d482 583a d48c 2cbc 9c39 e53b
00000090: 8c20 9fbc d1f4 d5bc 0c68 713b e779 383d
000000a0: 8abc 853b fc64 823b de99 543b 86fc 603d
000000b0: d4c6 b3bb bf18 f9ba ef16 ce3b 3fe6 c23c
000000c0: de0d b73b 2ecb f73b

exp_avg f4 [150, 22]
-3.236605e-07 9.638017e-06 -1.39824215e-05 -9.3753147e-07 -2.292671e-06 1.15642815e-05 6.6145635e-06 1.2293472e-05
-1.9055738e-05 -4.2307943e-06 -3.87568e-06 1.3847087e-05 -4.8330166e-06 1.8503038e-06 -1.8533918e-07 -9.863649e-06
0.0 -1.0684115e-05 -1.3093652e-05 2.4254894e-06 0.0 -1.1166213e-05 3.0323801e-05 2.4690813e-05
2.0285272e-05 4.8625818e-05 -9.35641e-05 -0.00025166688 6.934825e-05 -0.00014905781 -2.8746426e-06 -8.8751876e-05
4.5376757e-05 -0.0002295051 1.1472294e-05 -4.629022e-05 -1.2943388e-05 7.4203206e-05 0.0 -6.715902e-05
7.053222e-05 -1.10703495e-05 0.0 5.2419422e-05 1.1956353e-06 -2.707759e-06 1.7457928e-06 1.5004371e-06
1.7839914e-06 -3.958452e-06 4.5437142e-07 -4.749547e-06 -1.787961e-06 -4.5569342e-07 2.3941564e-07 -4.1476546e-06
6.5370625e-07 -5.9976816e-07 -4.778916e-07 1.1380227e-07 0.0 -5.808534e-07 -2.1103272e-06 -1.7800149e-06
0.0 3.7019723e-07 -2.7125811e-06 2.100014e-06 -1.231903e-06 6.702402e-06 -1.938113e-06 3.6984588e-06
-5.9597396e-06 2.0852215e-06 -3.6348963e-06 2.8298562e-06 -9.660986e-07 2.8674544e-06 -7.3498137e-07 1.9208346e-05
-8.380722e-07 -2.76064e-06 0.0 -2.2330746e-06 -6.5944787e-06 -3.689854e-06 0.0 2.880087e-06
-1.522944e-07 9.59291e-07 1.8230387e-06 2.5447252e-06 -2.0895552e-06 -3.238052e-06 -7.905706e-07 -3.5404373e-06
1.7267882e-07 -2.6626557e-08 1.9907711e-06 -3.4105276e-06 -8.329947e-07 -1.0273216e-06 -2.308947e-06 1.9908973e-06
0.0 1.0297335e-06 -1.504681e-06 -1.0232796e-07 0.0 3.513946e-06 9.387056e-07 -5.7052516e-06
3.8333073e-06 6.7601577e-06 3.574216e-06 -6.185689e-06 1.9953426e-05 -7.1668715e-06 7.8172684e-07 -4.275564e-06
1.5352816e-05 -5.4519624e-06 -9.382694e-06 1.2063916e-07 4.6348323e-06 -3.0176292e-07 0.0 4.1277635e-06
2.2842935e-06 5.6005842e-06 0.0 -7.237387e-06 5.1234456e-06 7.863686e-06 -2.974042e-05 -1.6362363e-05
1.0791e-05 3.889352e-05 -1.6991362e-06 4.4961067e-05 -1.3891097e-05 1.5175488e-06 4.6499435e-06 4.2055035e-05
-2.2853332e-05 7.78066e-06 2.0450777e-06 -3.1329555e-06 0.0 1.1172821e-05 3.4527454e-07 4.2068864e-06
0.0 -1.200597e-05 -4.3449477e-06 -3.3937772e-06 -1.1178139e-06 9.726709e-06 -3.3097964e-05 -4.8015565e-05
-8.064627e-06 -6.599829e-05 -2.8250495e-06 8.085538e-06 3.1341657e-05 -5.503016e-05 4.20188e-05 -4.7031494e-06
-2.4182775e-05 -1.1783596e-05 0.0 -1.1955126e-05 -4.026479e-06 -1.4122566e-05 0.0 1.9915842e-05
5.624206e-06 -5.9808735e-07 1.9268986e-05 7.248527e-06 4.5597e-06 -3.1884597e-06 -1.1154542e-05 9.421912e-07
9.2834935e-06 7.5685136e-08 5.99825e-06 -3.2205785e-06 1.2643588e-06 5.581393e-06 -8.211035e-07 1.1888392e-05
0.0 2.4859346e-06 -2.9681469e-06 -6.263924e-07 0.0 7.0756787e-06 4.870718e-06 1.6589244e-06
-1.8000387e-06 1.9617517e-05 3.9516635e-06 -1.6142503e-05 9.507668e-06 -1.8843573e-05 1.4854069e-06 -4.9487535e-06
9.326784e-06 -1.551434e-05 8.187892e-06 -4.356003e-06 4.302063e-06 4.5209244e-06 0.0 -2.9000346e-06
-7.0521223e-06 -2.214731e-06 0.0 7.840524e-06 -2.9912562e-06 1.7447454e-05 -7.324644e-06 5.332983e-06
-3.757975e-06 7.710586e-06 2.2403285e-05 9.421886e-06 -1.7341812e-05 -8.2326534e-07 1.39240365e-05 8.672508e-06
-8.437164e-06 -1.0802318e-05 3.290155e-06 -1.4774002e-05 0.0 2.614501e-06 -1.629605e-05 1.2518297e-05
0.0 -9.680662e-06 -7.0822084e-06 2.4908043e-06 -8.23712e-06 3.6697802e-06 -6.515261e-07 2.6758029e-05
3.4073448e-06 2.3546147e-05 -8.750014e-06 1.3713599e-05 9.096474e-08 2.3065963e-05 -6.215639e-06 -1.584646e-06
00000000: 8fc3 adb4 f8b2 2137 0b96 6ab7 acaa 7bb5
00000010: cadb 19b6 3604 4237 abf2 dd36 0f40 4e37
00000020: e3d9 9fb7 3ff6 8db6 d60b 82b6 c950 6837
00000030: 4c2b a2b6 f457 f835 a501 47b4 0d7c 25b7
00000040: 0000 0000 ed3f 33b7 cfac 5bb7 97c5 2236
00000050: 0000 0000 8556 3bb7 de5f fe37 1e1f cf37
00000060: 4a2a aa37 93f3 4b38 d837 c4b8 28f2 83b9
00000070: 0f6f 9138 674c 1cb9 fce9 40b6 4d20 bab8
00000080: ec52 3e38 4ea7 70b9 2179 4037 bf27 42b8
00000090: 6e27 59b7 8b9d 9b38 0000 0000 b9d7 8cb8
000000a0: b3ea 9338 caba 39b7 0000 0000 eddc 5b38
000000b0: b779 a035 f2b6 35b6 fc50 ea35 a062 c935
000000c0: 7a71 ef35 d8d2 84b6 55f0 f334 4c5e 9fb6
000000d0: dff9 efb5 07a6 f4b4 0989 8034 152c 8bb6
000000e0: 5a7a 2f35 c1ff 20b5 7648 00b5 7663 f433
000000f0: 0000 0000 f1eb 1bb5 259f 0db6 d9e8 eeb5
00000100: 0000 0000 85bf c634 ca09 36b6 f7ed 0c36
00000110: dd57 a5b5 32e5 e036 8710 02b6 0a33 7836
00000120: c6f9 c7b6 d5ef 0b36 0bef 73b6 8fe8 3d36
00000130: e5aa 81b5 7e6e 4036 894b 45b5 9c21 a137
00000140: e2f7 60b5 6f43 39b6 0000 0000 eedb 15b6
00000150: 2446 ddb6 369f 77b6 0000 0000 8547 4136
00000160: 5e86 23b4 fdc0 8035 22af f435 0cc6 2a36
00000170: 493a 0cb6 4f4d 59b6 9937 54b5 4098 6db6
00000180: 9869 3934 6bb8 e4b2 3099 0536 6be0 64b6
00000190: f69a 5fb5 80e2 89b5 68f3 1ab6 5b9b 0536
000001a0: 0000 0000 6035 8a35 72f4 c9b5 64bf dbb3
000001b0: 0000 0000 22d1 6b36 5cfb 7b35 bd6f bfb6
000001c0: dc9f 8036 50d5 e236 90dc 6f36 aa8e cfb6
000001d0: a861 a737 f57a f0b6 dcd7 5135 d176 8fb6
000001e0: ecc9 8037 00f0 b6b6 5d6a 1db7 0a89 0134
000001f0: e884 9b36 fb01 a2b4 0000 0000 3881 8a36
00000200: dd4b 1936 a7ec bb36 0000 0000 aed8 f2b6
00000210: 10ea ab36 46ee 0337 117b f9b7 e841 89b7
00000220: fe0a 3537 9921 2338 e00d e4b5 9494 3c38
00000230: cf0d 69b7 94ae cb35 b606 9c36 4064 3038
00000240: 28b5 bfb7 ae89 0237 2b3e 0936 c43f 52b6
00000250: 0000 0000 e772 3b37 2c5e b934 e128 8d36
00000260: 0000 0000 406d 49b7 d1ca 91b6 a6c0 63b6
00000270: cb07 96b5 e62f 2337 abd2 0ab8 5264 49b8
00000280: 4f4d 07b7 9068 8ab8 fb95 3db6 1fa7 0737
00000290: d974 0338 2fd0 66b8 583d 3038 bfcf 9db6
000002a0: 1ddc cab7 29b2 45b7 0000 0000 e092 48b7
000002b0: 311b 87b6 f6ef 6cb7 0000 0000 f210 a737
000002c0: 90b7 bc36 408c 20b5 d5a3 a137 5f38 f336
000002d0: 86ff 9836 52f9 55b6 6524 3bb7 e3ea 7c35
000002e0: 4dc0 1b37 5888 a233 9344 c936 1e21 58b6
000002f0: 0ab3 a935 cd47 bb36 ce69 5cb5 4174 4737
00000300: 0000 0000 08d4 2636 6030 47b6 5c25 28b5
00000310: 0000 0000 9e6b ed36 266f a336 35a8 de35
00000320: dc98 f1b5 4c90 a437 8898 8436 c369 87b7
00000330: 2083 1f37 4412 9eb7 315e c735 780d a6b6
00000340: 3b7a 1c37 cb24 82b7 ba5e 0937 c829 92b6
00000350: 715a 9036 72b2 9736 0000 0000 379e 42b6
00000360: 45a1 ecb6 caa0 14b6 0000 0000 cb8a 0337
00000370: 64bd 48b6 1f5c 9237 36c6 f5b6 faf1 b236
00000380: 8531 7cb6 b75c 0137 b0ee bb37 b112 1e37
00000390: 4279 91b7 5dfe 5cb5 489b 6937 2380 1137
000003a0: 588d 0db7 9a3b 35b7 6fcc 5c36 dbdd 77b7
000003b0: 0000 0000 c974 2f36 80b3 88b7 ad05 5237
000003c0: 0000 0000 206a 22b7 b5a3 edb6 b127 2736
000003d0: 2932 0ab7 5846 7636 88e4 2eb5 6e76 e037
000003e0: bda9 6436 f784 c537 06cd 12b7 7613 6637
000003f0: 6558 c333 c77d c137 ef8f d0b6 06b0 d4b5

exp_avg_sq f4 [150, 22]
7.2734185e-10 8.471125e-10 5.36136e-10 8.6655944e-10 8.955631e-10 3.2952383e-09 6.921275e-10 9.091821e-10
1.3419184e-09 6.4312633e-10 6.5127453e-10 3.983244e-09 5.8238153e-10 3.0901484e-10 4.8534043e-10 9.158308e-10
0.0 5.70187e-10 1.0402665e-09 1.0979412e-09 0.0 1.0948102e-09 5.0196824e-08 6.249644e-08
5.6804982e-08 4.4869626e-08 1.373605e-07 5.2726034e-07 5.2428884e-08 3.103655e-07 4.1592177e-08 1.6933126e-07
3.888331e-08 4.0594531e-07 5.2011284e-08 4.2140677e-08 7.32113e-08 2.4460016e-08 0.0 2.9956862e-08
2.2050688e-08 2.1568841e-08 0.0 2.2929541e-08 3.1923764e-10 4.4203247e-10 4.1528075e-10 4.5151136e-10
3.0013508e-10 2.5683133e-09 3.5636225e-10 1.252536e-09 7.896358e-10 8.780858e-10 3.8214298e-10 2.0907818e-09
2.6759256e-10 2.3067652e-10 3.473834e-10 3.9524553e-10 0.0 3.3443787e-10 3.7124495e-10 3.716676e-10
0.0 4.4372028e-10 4.1477016e-10 3.328164e-10 3.0926822e-10 8.496753e-10 2.386514e-10 1.2812034e-09
3.5661432e-10 9.2633173e-10 4.1526546e-10 3.1120162e-10 4.9640475e-10 1.5353322e-09 2.531621e-10 9.723671e-10
2.9962827e-10 2.8926064e-10 0.0 2.6924146e-10 2.6034983e-10 2.1120808e-10 0.0 3.0097141e-10
6.142363e-10 1.6287025e-09 1.3246197e-09 1.649839e-09 6.797907e-10 1.7573648e-09 8.5545593e-10 7.1744166e-10
8.328874e-10 1.6117824e-09 9.278739e-10 1.4873622e-09 1.0956951e-09 2.0730905e-11 7.7599493e-10 5.63057e-10
0.0 7.282817e-10 2.907938e-10 3.9116987e-10 0.0 3.4859352e-10 8.4317464e-10 1.0047747e-09
8.622062e-10 1.5456542e-09 7.451757e-10 5.3496434e-09 6.83713e-10 2.4008187e-09 1.3812372e-09 9.715202e-10
6.968551e-10 5.311509e-09 8.933062e-10 2.479576e-10 7.806669e-10 5.823715e-10 0.0 5.285237e-10
3.2677722e-10 3.2672903e-10 0.0 3.7245276e-10 1.0290223e-09 1.1233577e-09 2.625573e-09 1.1357054e-09
1.0206075e-09 8.025736e-09 8.479574e-10 8.542856e-09 2.4413789e-09 9.636423e-10 1.0395965e-09 1.0007646e-08
1.0585566e-09 2.218636e-10 9.507463e-10 6.2984934e-10 0.0 8.160128e-10 3.1953465e-10 2.502408e-10
0.0 3.891892e-10 7.6389844e-10 7.5573947e-10 8.6647434e-10 8.9320634e-10 9.0458796e-10 1.8719883e-09
1.25014e-09 1.8121932e-09 3.2281993e-09 1.0942619e-09 1.1076203e-09 2.2892772e-09 1.1056025e-09 5.075047e-10
7.478304e-10 1.2913844e-09 0.0 5.3549065e-10 6.8969797e-10 8.6122576e-10 0.0 8.707978e-10
6.4652006e-10 9.2363983e-10 7.709122e-10 8.841667e-10 5.5745475e-10 1.1312258e-09 5.076443e-10 7.9982676e-10
9.878351e-10 1.5501459e-09 6.2754363e-10 1.0672319e-09 1.62813e-09 1.4794135e-10 2.2094115e-09 3.0072814e-10
0.0 3.157102e-10 2.396313e-10 2.058787e-10 0.0 2.337053e-10 1.1988842e-09 2.3302835e-09
2.3408893e-09 4.5395008e-09 1.2605847e-09 1.9070562e-08 1.924654e-09 1.4600312e-08 3.6541181e-09 1.7932109e-09
2.626956e-09 2.0225713e-08 1.6342411e-09 5.8784605e-10 1.5043894e-09 1.4563941e-09 0.0 1.4577023e-09
1.0909583e-09 1.0284565e-09 0.0 8.729208e-10 2.8368545e-09 1.2205387e-09 1.5936672e-09 1.3531941e-09
1.7508996e-09 2.8161387e-09 1.7341207e-09 1.5431241e-09 2.4192397e-09 3.2128133e-09 1.5158317e-09 1.9603015e-09
2.2250246e-09 6.6145805e-10 2.3272557e-09 2.1579067e-09 0.0 1.3423983e-09 1.9701556e-09 1.7289475e-09
0.0 1.4417739e-09 1.4977904e-09 1.8139867e-09 1.0368378e-09 6.533046e-10 9.129675e-10 8.96966e-09
1.8275804e-09 6.592728e-09 7.638133e-10 2.32381e-09 1.0541146e-09 7.6643225e-09 1.7832162e-09 1.086943e-09
00000000: 22ee 4730 3eda 6830 385f 1330 b332 6e30
00000010: a72b 7630 7272 6231 2540 3e30 01ea 7930
00000020: 8e6e b830 fec7 3030 5f05 3330 fcdc 8831
00000030: 7515 2030 f9e1 a92f cc68 0530 ddbd 7b30
00000040: 0000 0000 58bb 1c30 20f9 8e30 5fe6 9630
00000050: 0000 0000 3678 9630 fe97 5733 c835 8633
00000060: bdf9 7333 adb6 4033 5e7d 1334 0e89 0d35
00000070: 2b2e 6133 4fa0 a634 15a3 3233 6cd1 3534
00000080: a700 2733 b3f0 d934 0363 5f33 2afe 3433
00000090: 5638 9d33 251c d232 0000 0000 eba9 0033
000000a0: fa69 bd32 6246 b932 0000 0000 98f6 c432
000000b0: b480 af2f 8a02 f32f 924d e42f 9338 f82f
000000c0: 4200 a52f 3f7e 3031 87e9 c32f b125 ac30
000000d0: ae0d 5930 cc5d 7130 d815 d22f 6cad 0f31
000000e0: 4e1c 932f aba1 7d2f def9 be2f dd49 d92f
000000f0: 0000 0000 f2db b72f 1518 cc2f 9153 cc2f
00000100: 0000 0000 14f0 f32f b605 e42f bff7 b62f
00000110: a205 aa2f 958e 6930 3333 832f 5616 b030
00000120: 010d c42f cda0 7e30 6b4b e42f bc15 ab2f
00000130: 6173 0830 b303 d330 662d 8b2f 20a4 8530
00000140: eeb8 a42f d105 9f2f 0000 0000 5e04 942f
00000150: fb20 8f2f ca39 682f 0000 0000 f675 a52f
00000160: 09d7 2830 e0d8 df30 ea0d b630 8dc0 e230
00000170: 05dc 3a30 c787 f130 5c25 6b30 7835 4530
00000180: 3ef1 6430 8d85 dd30 520d 7f30 e86b cc30
00000190: 5897 9630 d959 b62d ca4d 5530 9dc5 1a30
000001a0: 0000 0000 4530 4830 97dd 9f2f 440c d72f
000001b0: 0000 0000 2da4 bf2f 24c5 6730 5e18 8a30
000001c0: 5e00 6d30 df6e d430 14d5 4c30 f6cf b731
000001d0: 06f0 3b30 a6fb 2431 f7d5 bd30 5486 8530
000001e0: d18c 3f30 8780 b631 d68c 7530 ee50 882f
000001f0: 8d96 5630 c014 2030 0000 0000 8d47 1130
00000200: cea5 b32f 069f b32f 0000 0000 11c2 cc2f
00000210: 816d 8d30 a364 9a30 926d 3431 1517 9c30
00000220: 6f45 8c30 8fe1 0932 b315 6930 e1c3 1232
00000230: 31c5 2731 2671 8430 8de1 8e30 18ee 2b32
00000240: a67c 9130 0df1 732f 69ab 8230 b521 2d30
00000250: 0000 0000 cc4d 6030 81aa af2f 4392 892f
00000260: 0000 0000 83f5 d52f 93fa 5130 70bc 4f30
00000270: b62c 6e30 cf85 7530 b8a6 7830 5ea4 0031
00000280: 64d1 ab30 e110 f930 15d7 5d31 eb64 9630
00000290: ed3a 9830 6451 1d31 eef3 9730 7880 0b30
000002a0: e38f 4d30 8d7c b130 0000 0000 ce31 1330
000002b0: 2e95 3d30 60bb 6c30 0000 0000 f35c 6f30
000002c0: ceb6 3130 60e3 7d30 20e8 5330 b309 7330
000002d0: 643b 1930 7879 9b30 4b8a 0b30 ceda 5b30
000002e0: 5cc4 8730 e90c d530 757f 2c30 e2ad 9230
000002f0: bbc4 df30 caa9 222f 61d4 1731 b953 a52f
00000300: 0000 0000 4390 ad2f 1bbd 832f b45d 622f
00000310: 0000 0000 197b 802f fdc5 a430 c822 2031
00000320: 5cdd 2031 dff9 9b31 e240 ad30 9cd0 a332
00000330: df42 0431 dad4 7a32 ed1b 7b31 0075 f630
00000340: e685 3431 d0bc ad32 bf9b e030 fd95 2130
00000350: ffc2 ce30 502a c830 0000 0000 5758 c830
00000360: aff0 9530 9959 8d30 0000 0000 57f2 6f30
00000370: 79f2 4231 e3bf a730 2e08 db30 49fb b930
00000380: 4ea4 f030 0986 4131 f355 ee30 da15 d430
00000390: b73f 2631 69c8 5c31 9655 d030 fdb5 0631
000003a0: 0ce7 1831 f9d1 3530 84ed 1f31 4c4a 1431
000003b0: 0000 0000 717f b830 5863 0731 ef9f ed30
000003c0: 0000 0000 e927 c630 d1da cd30 fc4f f930
000003d0: 7d80 8e30 3994 3330 60f4 7a30 fb18 1a32
000003e0: 452e fb30 4086 e231 95f4 5130 e6b0 1f31
000003f0: 5ce0 9030 0cac 0332 5815 f530 6863 9530

exp_avg f4 [150, 50]
1.3769787e-06 3.989666e-06 1.2889805e-07 -5.8274185e-07 -8.97815e-07 2.3880148e-07 -5.8309183e-07 1.0028571e-06
-8.789262e-07 -5.886716e-08 1.0613649e-06 -1.9112038e-06 -1.2443811e-06 3.972693e-07 -9.3215016e-07 -8.0274174e-07
-8.5559617e-07 1.092483e-06 -1.045654e-06 -1.918126e-06 2.0578962e-06 -3.9769662e-07 3.362083e-07 1.3207173e-06
-1.2171307e-07 -1.5424831e-06 -3.003908e-07 -2.9005056e-07 2.6699593e-07 -8.649716e-07 1.8569426e-06 1.0665315e-06
-1.2342744e-06 7.466488e-07 -6.91399e-08 2.3473095e-07 -1.1559518e-06 -8.245706e-08 5.739094e-07 2.5677148e-06
3.722256e-07 -2.1384102e-07 -1.2479597e-06 3.4133643e-06 -6.967103e-07 4.9772035e-07 4.021714e-07 1.4526864e-06
1.1524098e-06 2.1482424e-07 -1.1664399e-05 -7.028367e-05 3.39182e-06 2.1898513e-06 3.5904447e-06 1.3144842e-07
1.3781993e-06 3.0179564e-05 1.0339434e-05 -5.6735835e-06 -1.6730397e-05 3.723848e-05 5.724723e-06 -1.7531092e-05
1.6757103e-05 1.5523914e-05 5.9797853e-06 3.7004777e-06 4.536882e-06 -2.3858083e-06 -9.262809e-06 -6.0158077e-06
8.38564e-06 -3.2715639e-06 2.4033427e-05 -2.3232446e-05 4.642522e-06 3.2032353e-06 -2.26697e-05 1.2135263e-05
5.498231e-06 1.01833575e-05 1.6092175e-05 3.041019e-05 3.1820614e-06 1.3337151e-06 9.473903e-07 3.6591416e-06
-1.9904182e-06 -7.4712785e-05 -3.967089e-06 -9.301652e-06 3.1831835e-06 -8.826006e-05 3.260752e-06 1.8807077e-05
-5.3407416e-06 -3.4003573e-05 -2.1750218e-05 -1.4296726e-05 -1.325807e-07 -1.0493737e-06 2.0886716e-07 -2.437842e-07
2.3531173e-08 4.1891155e-07 4.688589e-07 1.7388505e-08 -3.5856928e-08 -9.336471e-08 -9.130557e-08 2.8344851e-07
1.6106388e-07 -1.6667765e-07 6.2964865e-08 1.650631e-07 1.8806283e-08 2.171171e-07 -1.7114137e-07 -1.04944405e-07
-1.8566439e-07 -8.960986e-08 -3.6733115e-07 -2.7131702e-07 -1.2963568e-07 1.8300912e-07 -8.514885e-08 -2.2069351e-07
-2.5151584e-07 1.3137559e-07 -2.1946303e-07 1.4830563e-07 1.2600755e-07 -1.7690651e-07 -6.506623e-08 1.7762753e-07
-8.289953e-08 -1.997328e-07 3.0873383e-07 -1.6411558e-06 5.4106764e-09 3.970392e-07 9.101638e-08 -1.5000137e-06
-9.766705e-08 -2.2666981e-07 -2.2767711e-08 -4.652865e-07 -2.5908435e-07 9.969927e-09 -9.792211e-08 7.1693444e-07
-4.304582e-07 8.4147194e-07 -2.3987326e-07 2.553489e-07 -1.4389137e-07 -2.0134142e-07 -9.218172e-07 -4.522914e-08
7.6192e-07 -7.943915e-07 -2.622697e-07 7.8062605e-08 9.8499335e-08 -3.426241e-07 -1.8088135e-08 -2.4019687e-07
-3.345709e-07 2.236624e-08 3.7205652e-07 -2.4541117e-07 -5.6209916e-07 -2.9530136e-07 -4.0812918e-07 5.4909356e-07
-7.683026e-08 3.7778918e-08 3.4139805e-07 -1.953504e-07 1.05263496e-07 4.0193342e-07 -3.1200642e-07 -6.694241e-07
2.1973031e-07 1.5568271e-07 -3.6445311e-07 1.0067421e-06 1.9296576e-07 5.719016e-07 -6.4883847e-07 -3.3250646e-07
1.9115377e-07 8.510405e-07 -2.3150069e-07 -3.6858043e-07 8.445114e-07 1.8909539e-06 1.6445052e-08 8.3839444e-07
-1.5745731e-07 -1.5743819e-06 -1.0939515e-07 -8.7980965e-08 -2.9782066e-07 -8.754835e-08 5.430727e-08 6.51119e-08
6.071367e-08 1.1413771e-07 -1.796327e-07 5.7441866e-07 3.2242826e-07 -6.0231605e-07 3.5229223e-07 -4.454617e-08
-9.7094855e-08 -9.05903e-08 2.415674e-07 -6.179138e-08 -1.3995168e-07 1.5191794e-07 -2.436889e-07 -1.3211209e-07
3.183878e-07 6.140032e-08 1.4728322e-07 2.2760346e-07 -1.1326165e-07 9.450374e-08 -6.279627e-08 -1.3636047e-07
7.6680465e-08 4.0400136e-07 8.939065e-08 2.2777876e-07 3.0225948e-07 -8.4536126e-08 -2.0017525e-07 -1.4276757e-06
-1.118402e-07 6.953733e-08 1.2134028e-07 -1.4864173e-06 2.6264886e-09 4.09787e-07 -2.3110151e-07 -2.4063635e-07
-3.2588858e-07 -3.3957892e-07 -1.1324722e-08 -4.3511636e-06 1.909988e-06 -7.969273e-07 4.555991e-06 1.6471807e-06
00000000: a1d0 b835 f8de 8536 3a67 0a34 b76d 1cb5
00000010: 6101 71b5 a034 8034 c485 1cb5 e899 8635
00000020: 59ef 6bb5 20d5 7cb3 3874 8e35 3b42 00b6
00000030: 9c04 a7b5 4748 d534 df38 7ab5 fe7b 57b5
00000040: 1fac 65b5 6ea1 9235 6658 8cb5 27b9 00b6
00000050: 631a 0a36 0283 d5b4 1e80 b434 8043 b135
00000060: 3cb0 02b4 5107 cfb5 6645 a1b4 3fb8 9bb4
00000070: a457 8f34 6530 68b5 103c f935 be25 8f35
00000080: 58a9 a5b5 516d 4835 107a 94b3 5a0a 7c34
00000090: 3426 9bb5 4013 b1b3 c10e 1a35 0151 2c36
000000a0: 4cd6 c734 2c9c 65b4 927f a7b5 2711 6536
000000b0: 9105 3bb5 159b 0535 04ea d734 edf9 c235
000000c0: 80ac 9a35 70aa 6634 36b2 43b7 4265 93b8
000000d0: 069f 6336 5cf5 1236 5ff3 7036 4424 0d34
000000e0: 91fa b835 1f2a fd37 8877 2d37 b65f beb6
000000f0: 4158 8cb7 8330 1c38 ff16 c036 bc0f 93b7
00000100: 9b91 8c37 5a39 8237 f7a5 c836 b955 7836
00000110: 853b 9836 e01b 20b6 7667 1bb7 65db c9b6
00000120: 0db0 0c37 0a8d 5bb6 649b c937 4ce3 c2b7
00000130: f6c6 9b36 2af7 5636 cf2a beb7 8f98 4b37
00000140: 727d b836 30d9 2a37 affd 8637 6319 ff37
00000150: 668b 5536 1a02 b335 2a50 7e35 938f 7536
00000160: 2093 05b6 1faf 9cb8 091d 85b6 4b0e 1cb7
00000170: ad9e 5536 4218 b9b8 4bd3 5a36 e4c3 9d37
00000180: 9f34 b3b6 0f9f 0eb8 3d74 b6b7 f8db 6fb7
00000190: 815b 0eb4 35d8 8cb5 f844 6034 72e1 82b4
000001a0: 9921 ca32 c4e6 e034 7ab7 fb34 ba5d 9532
000001b0: 1c01 1ab3 cb7f c8b3 c513 c4b3 de2c 9834
000001c0: e7f0 2c34 01f8 32b4 4d37 8733 333c 3134
000001d0: 748b a132 b220 6934 fbc2 37b4 cc5d e1b3
000001e0: 0a5b 47b4 8b6f c0b3 9c35 c5b4 87a9 91b4
000001f0: fc31 0bb4 2a81 4434 13db b6b3 c5f7 6cb4
00000200: 1308 87b4 3f10 0d34 8aa5 6bb4 f13d 1f34
00000210: b14c 0734 b1f3 3db4 8aba 8bb3 e2b9 3e34
00000220: 8006 b2b3 2276 56b4 0ec0 a534 af45 dcb5
00000230: d0e8 b931 a728 d534 c974 c333 1454 c9b5
00000240: 07bd d1b3 8662 73b4 ba92 c3b2 7dcc f9b4
00000250: 4818 8bb4 3448 2b32 4049 d2b3 5c73 4035
00000260: b919 e7b4 83e1 6135 eec7 80b4 e316 8934
00000270: 8f80 1ab4 4f30 58b4 cc72 77b5 f741 42b3
00000280: be86 4c35 2b3e 55b5 13ce 8cb4 5fa3 a733
00000290: 9586 d333 e6f1 b7b4 3b60 9bb2 68f4 80b4
000002a0: 139f b3b4 e21f c032 0fbf c734 0ec1 83b4
000002b0: 29e3 16b5 e989 9eb4 d91c dbb4 6c65 1335
000002c0: e2fd a4b3 5c42 2233 6449 b734 82c1 51b4
000002d0: 380d e233 4fc9 d734 d681 a7b4 79b2 33b5
000002e0: 02ef 6b34 bd29 2734 0eaa c3b4 651f 8735
000002f0: 0632 4f34 c784 1935 d72b 2eb5 5783 b2b4
00000300: f33f 4d34 0f73 6435 6d92 78b4 4fe1 c5b4
00000310: 62b2 6235 aecc fd35 0d43 8d32 070e 6135
00000320: 8911 29b4 5a4f d3b5 9fec eab3 0cf0 bcb3
00000330: 29e4 9fb4 3702 bcb3 7a3f 6933 a5d3 8b33
00000340: b161 8233 df1b f533 10e1 40b4 c031 1a35
00000350: 341a ad34 d8ae 21b5 ad22 bd34 0853 3fb3
00000360: 7682 d0b3 8b8a c2b3 c5b0 8134 2cb2 84b3
00000370: a045 16b4 e31e 2334 59d4 82b4 b2da 0db4
00000380: e3ee aa34 2fdb 8333 e724 1e34 2a63 7434
00000390: 403a f3b3 fbf1 ca33 9dda 86b3 7b6a 12b4
000003a0: 88ab a433 86e5 d834 08f7 bf33 5993 7434
000003b0: 3a46 a234 3a8a b5b3 c1ef 56b4 909e bfb5
000003c0: cd2c f0b3 8d54 9533 c349 0234 e980 c7b5
000003d0: ad7d 3431 b200 dc34 b324 78b4 cf30 81b4
000003e0: c9f5 aeb4 5f4f b6b4 a78e 42b2 3600 92b6
000003f0: 582d 0036 6dec 55b5 aadf 9836 b314 dd35

exp_avg_sq f4 [150, 50]
4.0940102e-11 1.6056059e-10 1.1710785e-11 5.3775318e-11 4.5347198e-11 3.5745924e-11 1.486857e-11 3.8449036e-11
4.114278e-11 4.701789e-11 5.861249e-11 5.7989027e-11 3.0063795e-11 1.4815948e-10 4.2789987e-11 3.9010413e-11
6.993687e-11 1.80455e-11 3.5068434e-11 4.9404546e-11 6.0874195e-11 5.5687097e-11 5.1062307e-11 1.6683864e-11
6.610564e-11 4.0129428e-11 1.9045735e-11 3.739137e-11 1.4671694e-11 8.243546e-12 1.7338183e-11 3.1905825e-11
6.4655434e-11 6.620629e-11 5.6846673e-11 4.687061e-11 5.55463e-11 9.3850025e-11 7.421309e-12 1.9610799e-10
6.3742427e-12 1.6897645e-11 1.2415099e-11 2.5166536e-10 4.732005e-11 2.425963e-11 8.737502e-11 2.1743597e-10
9.617295e-11 1.370837e-11 5.1812077e-10 3.5476578e-08 7.2973e-10 2.114837e-09 1.312375e-09 1.8053367e-09
1.1771303e-09 5.153226e-09 1.446682e-09 1.160265e-09 2.970644e-09 5.211322e-09 1.2546189e-09 3.843454e-09
2.7302214e-09 2.5889317e-09 4.2051362e-09 1.0767595e-09 9.510381e-10 2.1920432e-09 4.1413215e-09 2.5861246e-09
1.4182695e-09 1.0672669e-09 5.438192e-09 3.3289176e-09 7.327342e-10 1.3115539e-09 3.123328e-09 6.8955425e-10
1.0274772e-09 1.9436688e-09 5.4904055e-09 3.6761367e-09 2.0244066e-09 2.1813502e-09 1.6120912e-09 6.9320794e-09
1.0441101e-09 4.1278515e-08 5.2724874e-10 1.5371299e-09 2.3204885e-09 6.126481e-08 2.9255336e-09 3.1704357e-09
1.5734343e-09 9.068607e-09 3.0067413e-09 1.0921285e-09 1.0200772e-11 1.9143281e-10 1.1739591e-11 1.4697835e-11
9.758129e-12 1.533696e-11 1.1395966e-11 2.9102673e-11 1.17627965e-11 2.5699224e-11 1.7671574e-11 3.3578664e-11
1.6570625e-11 2.7428084e-11 2.0424206e-11 1.41035525e-11 1.7412929e-11 9.778164e-12 1.0799312e-11 1.5326683e-11
2.2469355e-11 1.95864e-11 2.4336798e-11 6.680178e-12 2.6626427e-11 1.595006e-11 5.1105955e-12 1.7692837e-11
3.0943508e-11 4.9331893e-12 8.503992e-12 1.2341119e-11 2.2674522e-11 1.9394791e-11 1.5448769e-11 1.8205581e-11
1.2878318e-11 3.024115e-11 8.521142e-12 2.9832406e-10 7.436171e-12 1.1133689e-11 6.812666e-12 2.1835275e-10
1.5438742e-11 1.5522191e-11 1.6099079e-11 4.315081e-11 2.779265e-11 5.2564593e-12 8.053251e-12 1.2007295e-10
5.075889e-12 1.8949897e-11 1.24399215e-11 4.1003225e-11 1.1623003e-11 1.8118607e-11 1.135549e-11 1.976479e-11
1.7397635e-11 1.752039e-11 1.3377868e-11 3.7069625e-11 1.1961628e-11 1.1102102e-11 1.5998662e-11 6.957535e-12
1.0373244e-11 1.3045363e-11 2.1133525e-11 1.500483e-11 1.1372516e-11 7.588869e-12 1.8242706e-11 1.41233535e-11
7.687418e-12 8.673003e-12 8.8453975e-12 5.4322514e-12 5.1064556e-12 8.845279e-12 1.8854333e-11 2.0289673e-11
1.349405e-11 1.1579244e-11 1.303887e-11 2.3388846e-11 3.3823122e-12 2.0389629e-10 6.117891e-12 7.0377723e-12
6.8535273e-12 1.4837842e-10 9.36964e-12 1.5336085e-11 1.4499443e-11 4.1388067e-11 2.166074e-11 5.77703e-12
8.651119e-12 1.2050044e-10 8.010073e-12 3.0820322e-11 8.967056e-11 2.8341217e-11 2.9485577e-11 5.2752844e-11
1.7639662e-11 2.019231e-11 2.330735e-11 3.8149452e-11 2.6073617e-11 3.987785e-11 4.0320594e-11 4.1529197e-11
3.2487398e-11 1.1981401e-11 3.028868e-11 3.347462e-11 6.464562e-11 6.207962e-11 1.4400267e-11 9.338831e-12
2.7255484e-11 9.112747e-11 6.4399675e-12 1.6363898e-11 4.347527e-11 5.7095483e-12 9.141941e-12 3.185373e-11
5.2378005e-11 2.7632684e-11 1.9589065e-11 1.6616855e-11 1.9173507e-11 6.8891774e-11 3.6965802e-11 1.2635165e-10
9.171014e-12 4.494494e-11 1.2456532e-11 1.4206177e-10 1.7957564e-11 3.4646837e-11 3.586033e-11 6.3032954e-11
2.5960976e-11 1.0625399e-11 1.666516e-11 2.0946542e-10 1.7998408e-11 4.791488e-11 2.151979e-11 8.8927e-11
00000000: 750e 342e ca89 302f b004 4e2d a081 6c2e
00000010: 6870 472e 5536 1d2e 0bc9 822d c419 292e
00000020: a7f2 342e 70c9 4e2e e6e3 802e d709 7f2e
00000030: d338 042e 30e7 222f 3e31 3c2e d291 2b2e
00000040: f5ca 992e dbba 9e2d 8c3b 1a2e 9348 592e
00000050: 20dd 852e 19ea 742e 0c93 602e b9c0 922d
00000060: 2b5e 912e b87d 302e 2f87 a72d f172 242e
00000070: b80d 812d a105 112d 1e82 982d c452 0c2e
00000080: c62d 8e2e d496 912e aa03 7a2e 9e23 4e2e
00000090: 934b 742e de60 ce2e 9b8e 022d 7e9f 572f
000000a0: 1346 e02c 1da2 942d a368 5a2d c05a 8a2f
000000b0: a41d 502e d563 d52d c323 c02e c912 6f2f
000000c0: 8f7c d32e 0329 712d 826b 0e30 e95e 1833
000000d0: 2f96 4830 9b54 1131 175f b430 a31f f830
000000e0: 97c8 a130 4110 b131 99d4 c630 3277 9f30
000000f0: 1f24 4c31 460f b331 fa6e ac30 610f 8431
00000100: 909e 3b31 f8e8 3131 c57c 9031 1bfd 9330
00000110: aeb5 8230 d5a2 1631 734b 8e31 96b7 3131
00000120: ecec c230 1eaf 9230 d8da ba31 f0c2 6431
00000130: 9669 4930 3342 b430 2ba2 5631 118b 3d30
00000140: 2437 8d30 6291 0531 1ea6 bc31 489f 7c31
00000150: bd1d 0b31 b8e6 1531 6b90 dd30 372f ee31
00000160: 5c80 8f30 354a 3133 d5ed 1030 f342 d330
00000170: 7776 1f31 af90 8333 880a 4931 e5de 5931
00000180: 4c40 d830 28cc 1b32 279f 4e31 db19 9630
00000190: 3174 332d 8c7b 522f 6b86 4e2d 9548 812d
000001a0: b5aa 2b2d c3e7 862d de7a 482d 65fd ff2d
000001b0: edee 4e2d 820d e22d d970 9b2d 37ae 132e
000001c0: bbc1 912d 8e42 f12d 39a7 b32d c11c 782d
000001d0: 6e2a 992d f004 2c2d c7fb 3d2d 9fd0 862d
000001e0: 7da4 c52d a748 ac2d 9911 d62d b209 eb2c
000001f0: 6235 ea2d 584c 8c2d 27d0 b32c baa0 9b2d
00000200: 4b17 082e 3892 ad2c 939a 152d 751b 592d
00000210: 7c72 c72d 3099 aa2d 89e3 872d 5323 a02d
00000220: ca8e 622d 8200 052e d0e7 152d 6101 a42f
00000230: 89d1 022d addd 432d 0ab3 ef2c d614 702f
00000240: f5cc 872d de88 882d e79b 8d2d 7ec7 3d2e
00000250: 7c77 f42d faf1 b82c 9eac 0d2d 8805 042f
00000260: 8b97 b22c 60af a62d 6dd8 5a2d 8755 342e
00000270: 5a79 4c2d 7a5f 9f2d 95c4 472d 5ada ad2d
00000280: fe07 992d 691c 9a2d 9058 6b2d b008 232e
00000290: 626e 522d 6c4f 432d c9b9 8c2d e7cb f42c
000002a0: f07c 362d 187f 652d 78e4 b92d e0fb 832d
000002b0: 4211 482d 3a81 052d ec76 a02d ee75 782d
000002c0: 0e3d 072d bc93 182d 219c 1b2d 5f21 bf2c
000002d0: ddaa b32c 989b 1b2d 2fd8 a52d 4878 b22d
000002e0: cc63 6d2d 47b4 4b2d da61 652d 00bb cd2d
000002f0: 5202 6e2c b42f 602f 1041 d72c 9e9e f72c
00000300: 1623 f12c d024 232f 1bd5 242d cbe5 862d
00000310: b013 7f2d d206 362e a687 be2d dc42 cb2c
00000320: 2d31 182d dc7d 042f 29ea 0c2d 998c 072e
00000330: 0a30 c52e bf4a f92d cfad 012e 6c02 682e
00000340: fd28 9b2d 0a9d b12d 7d03 cd2d 77c8 272e
00000350: 9158 e52d 7862 2f2e f454 312e b8a5 362e
00000360: 8fe1 0e2e 6fc7 522d 0636 052e 1239 132e
00000370: 4028 8e2e b883 882e 0955 7d2d 5b4a 242d
00000380: e5bd ef2d 3464 c82e 1296 e22c 39f0 8f2d
00000390: cd34 3f2e 0ae3 c82c a4d3 202d 1d18 0c2e
000003a0: 645c 662e 460f f32d a74e ac2d d529 922d
000003b0: e6a6 a82d 9f7e 972e cb93 222e d4ec 0a2f
000003c0: 9356 212d 81ab 452e 3c23 5b2d d532 1c2f
000003d0: d7f4 9d2d df60 182e 24b7 1d2e 669c 8a2e
000003e0: ec5a e42d 8bec 3a2d 9b96 922d 464f 662f
000003f0: d050 9e2d 5cbb 522e 424a bd2d 738d c32e
