lightning_logs/version_33479210/checkpoints/epoch=199-step=47800-v1.ckpt (torch, 329840 bytes, 27 tensors)

model.gru.weight_ih_l0 f4 [150, 22]
000000 b0 af 92 bd ad 20 84 bd ee be 1e 3c 56 c1 30 bd
       -0.07162416 -0.06451545 0.009689076 -0.04315313
000010 54 22 14 bd 0b f9 4c 3d fb c7 64 bc b0 a3 2d 3b
       -0.03616555 0.050042193 -0.013963695 0.002649527
000020 d9 c8 6f bc 9b ad 33 3d 60 8d a0 bc 40 5c 94 3d
       -0.014635288 0.043866735 -0.019598663 0.07244158
000030 b9 62 18 bc 37 32 31 bd a1 de 64 bc 7e d9 68 3d
       -0.009300881 -0.04326078 -0.0139690945 0.05684804
000040 36 5b 05 00 7f 9e 28 3d 23 f1 62 3d cc 05 da 3c
       4.91898e-40 0.04116678 0.055405747 0.026614092
000050 63 65 05 00 8d 8a a0 3d eb 46 7d 3c f9 34 92 bb
       4.95548e-40 0.078389265 0.015458803 -0.0044618812
000060 45 45 7d 3c 9f 18 c3 3b 64 81 d7 ba 44 ae 4b 3d
       0.01545841 0.005953863 -0.001644176 0.04972674
000070 eb ae b9 3c 41 16 d8 bc 34 59 a9 bc 7d 9b 2d bd
       0.022666415 -0.026377799 -0.020672418 -0.042384613
000080 e6 90 a0 39 93 00 75 3d 82 52 cf bc d7 6b 05 3c
       0.00030625536 0.059815 -0.025307897 0.008143387
000090 ce 7e 38 3c 02 85 34 3c 3c 6d 05 00 ee c7 e2 3b
       0.011260701 0.01101804 4.98363e-40 0.006920806
0000a0 65 80 1b 3c 79 5f 9c 3b 0a 96 05 80 da 56 a4 3c
       0.009491061 0.0047721234 -5.13001e-40 0.020060945
0000b0 eb 50 8e ba b6 cc 21 bd 42 3e 8a 3a 4b 31 4e 3d
       -0.0010857856 -0.03950187 0.0010547119 0.05033998
0000c0 62 e5 9f bd 59 d6 d4 3d 32 eb ba bc 6d cc ca 3c
       -0.07807423 0.10392446 -0.022817228 0.024755681
0000d0 41 9b 80 bc c7 34 f0 bc 4c de a5 bc e2 b0 e6 3d
       -0.01569903 -0.029322041 -0.020247601 0.112642065
0000e0 96 d8 26 bc 7f 37 59 bc 65 1d 46 bc bc 70 da bc
       -0.010183474 -0.01325786 -0.012091969 -0.026665084
0000f0 60 33 06 80 09 2a 17 3d 0c 60 ae 3c 01 c0 53 bc
       -5.69443e-40 0.036905322 0.021286033 -0.012924195
000100 82 6f 05 80 70 4c 03 3d 52 72 09 3c d8 b3 b3 bb
       -4.99179e-40 0.03205532 0.0083890725 -0.0054840855
000110 8c 26 23 bd 3b 14 56 bc a8 1e 5a bd 35 e7 b2 3d
       -0.039831683 -0.013066347 -0.053251892 0.087355055
000120 2a 25 95 3c 22 b7 d7 3b 53 43 d2 bc 50 4a 06 bc
       0.018206198 0.0065831104 -0.025666868 -0.008196428
000130 bb e3 49 bc ba 1d c1 3d 0f cd a7 bc 02 d9 45 3b
       -0.012322362 0.09429498 -0.020483522 0.0030189161
000140 f7 98 14 3b f8 7e dc bc 72 78 05 00 41 c4 38 3d
       0.0022674182 -0.026916012 5.02385e-40 0.045109037
000150 bc 3b 05 3d 2d d1 3e 3c c5 70 05 00 52 bd 1f 3d
       0.03252767 0.011646551 4.99632e-40 0.03899891
000160 3d 0a da 3c 44 4f 69 3a 5f ca a5 bb 5f e7 d2 3a
       0.02661621 0.0008900056 -0.005059525 0.0016090682
000170 b6 96 d5 3b 7c a4 26 3d 69 3c 9c 3c 04 b6 01 ba
       0.0065182103 0.04068421 0.019071775 -0.0004948082
000180 87 21 5a 3c c5 5b 04 3c 58 05 a7 bc 11 96 2b 3d
       0.013313658 0.00807852 -0.02038829 0.04189116
000190 f2 3d 43 3c 7e 5c de 3b 01 bd 5b 3c 09 4b c0 3b
       0.011916624 0.0067859283 0.013411761 0.00586832
0001a0 57 71 05 80 f1 76 f7 b9 81 b7 88 3a b3 df 78 bb
       -4.99836e-40 -0.0004720013 0.0010430665 -0.0037975132
0001b0 a5 62 05 80 86 96 87 3a af 78 91 3d e6 73 92 bc
       -4.94564e-40 0.0010344542 0.07103097 -0.01787753
0001c0 90 10 22 3c f0 47 66 3d 20 08 20 3c ab 16 f1 3d
       0.009891644 0.05622095 0.009767562 0.11771902
0001d0 32 8c 9e bb f8 b4 42 ba 92 24 ff 3c 57 a3 a3 bd
       -0.00483849 -0.0007427479 0.031145368 -0.07990139
0001e0 f5 ea 01 3b fe ef 22 3e d2 12 bf 3c e5 3d 93 3c
       0.0019823883 0.15911862 0.023324404 0.01797385
0001f0 e2 e8 73 3d fb 3a 9b 3d 21 76 05 80 55 a1 59 3d
       0.059548266 0.07579609 -5.01554e-40 0.053132374
000200 03 53 93 3b 41 ff ef bc 61 5e 05 00 35 79 94 3d
       0.0044959798 -0.02929652 4.93034e-40 0.07249681
000210 33 01 f1 3c 4b 81 ab bc 87 b2 b0 3c 38 01 2f 3d
       0.029419517 -0.020935675 0.021569503 0.04272577
000220 a7 51 c0 bb b8 3a 62 3d 0f 9f c5 3c 91 3a 31 bc
       -0.0058691087 0.05523178 0.024123697 -0.010817186
000230 e5 94 c1 bc 30 be 41 bd 55 7b e2 bc 82 eb 8e 3d
       -0.023630569 -0.047300518 -0.0276467 0.06978513
000240 de 17 31 3c 49 e5 25 3c c6 6c 13 3d c0 ec b1 3c
       0.010808913 0.010125467 0.035992406 0.021719337
000250 68 76 05 00 48 61 e6 3b 43 0a f2 3b fd 48 b9 bc
       5.01654e-40 0.00703064 0.007386477 -0.022617811
000260 1c 58 05 00 54 3c 12 3d dc 32 99 bc e1 b6 da bb
       4.90785e-40 0.035702065 -0.01870101 -0.006674633
000270 9c 2e 58 bd 14 41 38 bd 93 94 74 3d c9 65 cc 3d
       -0.052778825 -0.04498394 0.059712004 0.099803515
000280 52 f1 ab bd ec 84 f5 bc dd 88 97 bc 8f 26 41 bc
       -0.083956376 -0.029970609 -0.018497879 -0.011788978
000290 b9 fc 16 bd 78 35 9d 3d 5e ad e8 3a 36 90 25 bd
       -0.03686211 0.07676214 0.0017751863 -0.040420733
0002a0 eb f0 4b bd 78 28 8a 3b 46 ae 05 00 23 f8 a9 bc
       -0.049790304 0.00421625 5.21695e-40 -0.020748204
0002b0 06 dc ad 3c b1 71 9a 3d f6 71 05 00 25 94 63 bc
       0.02122308 0.07541216 5.00059e-40 -0.013890301
0002c0 56 d0 d1 ba d7 a6 a6 bc 4e a9 17 bc 74 35 69 bc
       -0.0016007524 -0.020343227 -0.009256674 -0.014233936
0002d0 f9 55 3a bc 8a 24 40 3d f9 68 4e bb 87 11 cd bc
       -0.011373037 0.046909846 -0.0031495674 -0.025032772
0002e0 0e 41 1c bc 46 20 82 3c f0 8f 5d 3b be d3 45 3d
       -0.009536995 0.01588453 0.0033807717 0.048297636
0002f0 1f 7d dd bc 4c 53 60 bc d2 9c d1 bc 88 b7 12 bd
       -0.027037201 -0.0136917345 -0.025587473 -0.03581956
000300 e7 87 05 00 96 7e bb 3b 5e ed 24 b9 39 9b 05 3b
       5.0793e-40 0.0057218773 -0.00015728685 0.002038671
000310 c3 54 06 80 1c 8b e9 bc 23 3b d0 3c 0a 80 bd bc
       -5.8142e-40 -0.028508715 0.025418824 -0.023132343
000320 48 6b a0 3c bc 53 21 3d da 42 0b 3d 45 a6 a6 3d
       0.019582406 0.039386496 0.0339993 0.08137182
000330 4c 35 e2 3a 6d 51 68 3c d6 fa 60 bc 28 34 5c bd
       0.0017258315 0.01417957 -0.013731679 -0.053760678
000340 1c 27 d4 bc 5c 3a c3 3d f8 dd 6e bc 4c bf 05 3c
       -0.025897555 0.095326155 -0.014579289 0.0081632845
000350 35 d3 b0 3c ea 7f 47 3c cb fb 05 00 31 d5 a1 3c
       0.021585086 0.012176493 5.49504e-40 0.019754978
000360 6e 44 cd bc 81 70 bb 3b 09 68 05 80 66 e0 41 3d
       -0.025057044 0.0057201986 -4.96498e-40 0.047333144
000370 a7 4c 00 bc 7a 9c 7e 3b 85 5c aa bc 32 09 8a bc
       -0.007830775 0.0038850592 -0.02079607 -0.016850088
000380 a1 d3 63 bd 1e 92 38 3d fd f2 8f 3c 41 f5 1c bc
       -0.055621747 0.045061223 0.01757192 -0.009579957
000390 6c f3 02 bc fa 11 57 bc 6c 6d 84 bc 6c 38 6a 3d
       -0.007992607 -0.013126845 -0.016165458 0.057182714
0003a0 88 7f dd 3b 26 71 ce 3c 14 be 05 bc bf c4 7b bc
       0.0067595877 0.025200438 -0.008162994 -0.015366732
0003b0 4a ba 05 80 ac dc bb 3c ae 5f e0 3c 9e e2 b4 bc
       -5.26005e-40 0.022932373 0.027389374 -0.022080716
0003c0 d1 a6 05 00 b9 bc 11 3c 70 1e 59 3c 51 d4 0e 3c
       5.1902e-40 0.008895093 0.013251886 0.008717612
0003d0 eb ff 17 3c cd cd 83 3c 90 eb b3 3c bd 87 54 bb
       0.009277324 0.016089344 0.02196291 -0.003242954
0003e0 d1 b6 94 3b 74 f8 e1 3b cd 3e 98 3c e7 aa 70 bc
       0.004538395 0.006896073 0.018584633 -0.014689184
0003f0 93 88 cd bc 55 ed 91 3a 8a 49 d1 3a af ed a3 ba
       -0.025089538 0.0011133353 0.0015967351 -0.0012506748

model.gru.weight_hh_l0 f4 [150, 50]
000000 34 40 a2 bb 96 8d 1c 3b 77 41 60 3c bc 12 dd 3c
       -0.0049515013 0.0023888103 0.013687483 0.026986472
000010 72 15 af bc d2 9d 41 bc eb fd 7b bc 64 d2 7d 3b
       -0.02137253 -0.011817412 -0.015380363 0.003873014
000020 b6 1a cd 3c d6 3b 34 3b 5b 65 26 bc b2 45 e5 3c
       0.02503715 0.0027501485 -0.010156001 0.027987335
000030 59 4f 70 bb 89 de 3e 3d 28 c4 b5 bc 1a 85 ab 3c
       -0.0036668389 0.046598945 -0.022188261 0.020937491
000040 fd 0b c3 bc 75 0b 98 3b 91 b2 8f bb 71 62 3e 3b
       -0.023809427 0.0046400377 -0.0043853004 0.0029050375
000050 51 b3 d0 3c d4 45 15 bc 44 dc 70 3c 9a 07 0a bc
       0.02547613 -0.009110887 0.014700953 -0.008424664
000060 67 af f9 b9 ef ba 20 bc 68 04 d7 3c f4 0e 2e 3c
       -0.00047623666 -0.009810193 0.026247218 0.010623682
000070 ed 5d af 3c 0c b9 b2 3c 51 de 83 3c 57 6a 35 bc
       0.021407092 0.021816753 0.01609722 -0.011072717
000080 b9 98 3b 3c b3 08 2f 3d f7 2a d9 3b cf ed 28 3c
       0.011449986 0.042732906 0.0066274363 0.010310604
000090 91 23 87 bc 59 e2 3a bd c1 89 ff bc 67 c6 ce 3c
       -0.016496452 -0.04562602 -0.031193616 0.02524109
0000a0 22 c7 b4 3b 89 ce 5b 3c 70 da 19 bd 3e 99 b4 bc
       0.0055169025 0.013415941 -0.037561834 -0.022045728
0000b0 ac b2 7c bd 76 03 b9 bc d1 b2 5c bc 43 25 04 3c
       -0.061693832 -0.022584658 -0.0134703675 0.0080655245
0000c0 cb 7b 22 3c 15 23 f5 3c 3b 7a cf ba 05 86 b9 3a
       0.00991721 0.029923955 -0.0015829274 0.0014154321
0000d0 a7 6d 3a 3c 2a 80 09 bc 0a 63 b2 3b 45 74 45 3b
       0.011378682 -0.008392373 0.0054439353 0.0030129116
0000e0 8f 8b 18 3c 0b 21 3b bb 22 9a 4d bc b8 05 1a 3b
       0.009310617 -0.002855363 -0.012548955 0.0023501944
0000f0 11 e8 13 bb a0 89 9b bb d1 15 19 bc c4 e5 d2 bb
       -0.0022568742 -0.004746631 -0.00934358 -0.0064360816
000100 37 eb 9b 3a 8b 12 53 3c f5 e7 e0 3b b7 d4 82 bb
       0.0011895661 0.012882839 0.006863589 -0.0039926427
000110 c7 6b c0 3a 93 41 d9 bb a2 10 35 bb 35 31 19 3c
       0.0014680558 -0.0066301315 -0.0027628322 0.009350111
000120 36 33 a2 bb 5c f8 4a 3c 56 5a a9 3b 1f 95 bb 3b
       -0.0049499525 0.012388315 0.0051682396 0.0057245637
000130 cb e0 0c bc db 97 80 bc b1 27 18 bc ea 58 c5 bb
       -0.008598517 -0.01569741 -0.009286807 -0.0060225623
000140 91 22 32 b9 03 6a 0c 3c 9c 81 10 b8 49 cc b3 bb
       -0.0001698828 0.008570197 -3.4452984e-05 -0.005486999
000150 f6 ec db 3b 08 7a 35 3b d3 d2 4d 3b d5 62 f2 3a
       0.0067115976 0.0027691144 0.0031406179 0.0018492589
000160 64 8c 37 bb 13 b7 37 bc f9 eb 81 bb 4e fc 9f ba
       -0.0028007263 -0.011213082 -0.0039648977 -0.001220593
000170 2c c2 df 3b 5b 57 66 ba ad 3e 5e bb 69 95 28 3b
       0.006828567 -0.00087868207 -0.003391187 0.002572382
000180 58 0a 15 3c 90 29 0f bc 0f ce 82 3a 58 15 b0 b7
       0.009096704 -0.008737937 0.0009979623 -2.0990774e-05
000190 c8 5c 55 bd 45 96 1c ba c9 3e f8 3c fc 0f 8c bc
       -0.052090436 -0.00059733196 0.030303376 -0.017097466
0001a0 ab 2f c3 3c 2a fb 8b 3b 9f 15 d7 bb 35 2d 28 3d
       0.02382644 0.0042718844 -0.0065638567 0.041058738
0001b0 38 28 a8 bc 02 df 3a bc bf 8e 9a 3c b3 d9 a8 bc
       -0.02052699 -0.011405708 0.018866895 -0.02061162
0001c0 08 aa a6 bc 66 ec de bb d4 3d b9 3b 67 22 bf 3c
       -0.02034475 -0.0068030832 0.0056531224 0.023331834
0001d0 d4 54 fb 3c ab 73 bd bc fb ae 03 bd 8a 20 1b bd
       0.030680098 -0.023126444 -0.032149296 -0.03787283
0001e0 c2 d9 83 bc b6 c4 08 3d 38 d3 b8 3c 19 75 de 3b
       -0.016095046 0.033390723 0.022561654 0.0067888615
0001f0 8e db ae 3c a1 19 e9 3c 24 7c da bc bb 89 89 bc
       0.021344926 0.028454604 -0.026670523 -0.016789308
000200 42 19 48 bc 21 43 31 bd 6c 0e 41 3c 5b 05 86 3c
       -0.012213053 -0.04327691 0.011783224 0.016359976
000210 31 8c 57 3d 59 77 4f bc 56 b1 35 bd 2c f0 17 3c
       0.05262393 -0.012662732 -0.044358574 0.00927357
000220 14 ad 0f bc 51 4e 40 3c 3b 04 d2 3a 44 66 b9 bc
       -0.008769292 0.011737422 0.0016022989 -0.022631772
000230 18 c4 0f bd be 7e fe 3b dc f7 1a ba f7 b1 ef 3b
       -0.03509912 0.0077665737 -0.0005911568 0.0073149162
000240 f2 7c d3 3b b9 a6 0c bd b0 8c cc 3c 5b 80 84 bc
       0.0064541036 -0.034338687 0.024969429 -0.016174486
000250 f9 62 0a 3d 7f fd b3 bc 9b 4f b4 bc cb 8f 93 3b
       0.033785794 -0.021971462 -0.022010615 0.0045032254
000260 5b a6 f6 3b 80 e4 5c bc 1f ca 9f 3c 52 ef c8 3b
       0.0075271553 -0.013482213 0.019505559 0.006132045
000270 dc 54 96 ba fc 23 73 3c ad 44 21 bc c3 8c 01 bc
       -0.0011469382 0.014840122 -0.009843034 -0.007907095
000280 3f f2 02 3b ec 27 3a bc b6 54 39 bc 71 53 3a bc
       0.0019980816 -0.011362057 -0.011311701 -0.011372433
000290 4c 39 4b 3c c9 ed de 3b 61 46 74 3c 62 d7 62 bc
       0.012403797 0.0068032485 0.014909358 -0.013845297
0002a0 92 ff d8 bb 04 2e 5b bc f4 ca 6b bc 13 75 28 3c
       -0.006622263 -0.01337767 -0.0143916495 0.010281819
0002b0 10 44 a5 3b 75 1c 0f bb be 6a 0a 3c 6b 79 8d 3c
       0.005043514 -0.002183703 0.008448301 0.01726981
0002c0 28 fe 1c bc e8 e2 7c bc 96 5e b5 bb ad ef 98 bc
       -0.00958208 -0.015434958 -0.005534957 -0.018668974
0002d0 3b 33 5a bb 49 99 df 3b 2a 31 d0 3c 38 df 92 bb
       -0.0033294696 0.006823693 0.025414068 -0.004482176
0002e0 8b ed b8 bc 36 59 3f 3c 2f 03 ce bb fc eb d9 3b
       -0.022574207 0.011678984 -0.0062870006 0.006650446
0002f0 a3 39 10 bb 39 d2 30 bc 50 98 99 bc dc 43 8d 3b
       -0.002200701 -0.0107923085 -0.018749386 0.004311068
000300 c6 f4 ab 3b c0 02 a7 3a ed f1 b4 ba c6 05 81 bc
       0.005247685 0.0012741908 -0.001380501 -0.015749823
000310 1c 28 2d 3c 34 65 9e bb 37 e1 69 3c 09 2e 9b bb
       0.010568645 -0.0048338417 0.014274887 -0.0047357124
000320 5f 60 74 3b 56 4f 1b bb cf 03 a4 3a 97 cb 9b 3b
       0.0037288887 -0.002369841 0.0012513342 0.0047544944
000330 04 15 e3 3a 22 78 8e 39 af 28 16 bb cb 84 15 bb
       0.0017324989 0.00027173857 -0.0022912433 -0.0022814746
000340 ed 73 9b 3b d5 44 ee ba 09 7e 4b 3a dd ea f7 b9
       0.004744044 -0.0018178473 0.0007762616 -0.00047286498
000350 a8 67 fb ba ee 0b 11 3b 14 f8 45 b9 db 06 75 3b
       -0.0019180672 0.0022132355 -0.000188798 0.003738812
000360 c7 ba df 3a da 52 28 ba 39 63 0b 3b 95 25 f3 3a
       0.0017069214 -0.0006421037 0.0021268858 0.0018550629
000370 6d ea ab 3b e6 2d 72 bb 48 cd b5 bb 89 3e 66 bb
       0.0052464516 -0.0036953627 -0.005548153 -0.0035132489
000380 eb cf 81 39 f4 c5 1e bb db 6f 7a ba fb 2e 59 ba
       0.00024759708 -0.0024226876 -0.0009553411 -0.00082848937
000390 90 bb 72 3b 4c 6b d0 3b 4d 23 92 ba 1c 41 b3 ba
       0.0037038065 0.006360447 -0.0011149436 -0.001367602
0003a0 78 5e 25 b7 15 ab 2d 3b f3 b8 c2 ba a4 00 8a ba
       -9.856762e-06 0.0026499678 -0.0014856145 -0.0010528755
0003b0 ef e6 2a bb ed 97 ad ba 78 59 85 b6 b0 80 75 bb
       -0.0026077589 -0.001324413 -3.9741244e-06 -0.0037460737
0003c0 e2 75 80 3b 38 b7 b3 ba fe 4e 14 3a 1d 5a 6c 3a
       0.0039203027 -0.001371122 0.00056575227 0.00090161135
0003d0 9b 8e 33 ba 36 64 f5 ba f8 cf e1 ba f9 83 08 3b
       -0.0006849558 -0.0018721882 -0.0017228117 0.0020830615
0003e0 14 54 ad ba 62 af 5f 3b 92 3c d5 bc b3 42 cd bc
       -0.001322391 0.0034131636 -0.026029859 -0.025056219
0003f0 8d 05 15 3d 9a cc 93 3b b8 3b a0 3c 9b 7c 1b bc
       0.036382247 0.0045104744 0.019559726 -0.0094901575

model.gru.bias_ih_l0 f4 [150]
000000 37 33 5a 3d f1 6b a3 bc 47 24 c2 3c 11 a9 ad 3a
       0.0532715 -0.019948931 0.023698939 0.0013249238
000010 c3 b3 48 bb 13 60 8e 3d b9 e5 ae 3b 6e d2 9b 3d
       -0.0030624724 0.069519185 0.0053374437 0.07608496
000020 30 d3 a6 bb 95 a4 c3 bc 7d ae 3a 3c 6d 4e a2 bc
       -0.0050910935 -0.02388219 0.01139414 -0.019812787
000030 9a 9d a3 3b fc c9 d8 bb b2 34 af 3b 1c b7 46 3d
       0.004993153 -0.0066158753 0.005346858 0.04851447
000040 20 6e 83 3b 55 cc 2d bb c6 0c a8 bc f2 e8 1a 3d
       0.0040109307 -0.0026519496 -0.020513903 0.03781981
000050 b2 93 4c bc f5 9b 8c bc 40 cb b5 3c 56 e0 89 bc
       -0.012486385 -0.01716421 0.022191644 -0.016830605
000060 68 31 a7 bb cc 9c ed bb 3b 92 3a bc ba 14 b3 3a
       -0.005102325 -0.0072513577 -0.011387403 0.0013662793
000070 c5 a6 c7 3b f1 e5 f6 bc 29 f7 fc 3c 92 e5 74 bc
       0.0060928785 -0.030138941 0.030879574 -0.014947312
000080 e9 8c 10 3e 38 c2 9b bc c5 c5 94 3d ec 57 9b bc
       0.14116253 -0.01901351 0.07264284 -0.018962823
000090 28 12 ae bc 76 5a e1 3a 8e 65 95 bc a8 ad 7c 3c
       -0.021248892 0.0017193097 -0.018236902 0.015422262
0000a0 8d 8b d8 bc 6c 99 89 bc 04 e7 4e 3b 28 cf 3e bb
       -0.02643373 -0.01679679 0.0031570802 -0.0029115174
0000b0 94 23 c5 bc d2 bf aa bc c9 d9 96 bb 31 c4 78 bc
       -0.024064817 -0.02084342 -0.0046035987 -0.015183494
0000c0 4e c9 ac 3d 7f f7 01 3c 3d 96 86 bc 4d bb 6f 3c
       0.08436833 0.007932543 -0.016429061 0.014632058
0000d0 6b 92 9f 3b 36 38 1f 3d db 3a ee 3a e3 06 a3 3d
       0.0048697493 0.038871966 0.0018175499 0.07960298
0000e0 e8 6e 36 3d 16 ce e4 bc 9d 79 7d 3b cd 87 c6 3c
       0.044539362 -0.0279303 0.0038677223 0.024234677
0000f0 ff f4 a4 3c 94 d1 f8 3b 7b 6c 1e 3c 6e 68 54 3c
       0.020136354 0.007593343 0.009669418 0.012964351
000100 dc cd c0 bc 9a b3 a0 3c ac 64 91 3c dd 13 5a 3b
       -0.023535661 0.01961689 0.0177482 0.0033276
000110 a4 7f 02 3d 4c f2 20 3d 32 10 74 3d 62 f4 98 3c
       0.03186001 0.039293572 0.059585758 0.018671218
000120 14 32 3f 3d 9c cf 48 3d 2c da fd 3c a1 fc 9c 3c
       0.046678618 0.049026117 0.030987822 0.019163432
000130 88 84 4a 3c a8 6d 1e 3c 3e fb 8b 3c 63 0b 82 3d
       0.0123606995 0.009669699 0.017087575 0.06349828
000140 fa ed 78 3d 19 3a ed 3c 38 bb 28 3b 48 ca 85 3c
       0.060773827 0.028958367 0.0025746357 0.016331807
000150 6f bb 91 3d 22 c9 ce 3c 41 ef 31 3d 2d d5 8d 3c
       0.07115828 0.025242392 0.04344106 0.017313564
000160 bf 27 06 ba 09 10 d2 ba 13 89 f7 3c 34 9a 5e bc
       -0.0005117617 -0.0016026507 0.03021673 -0.01358657
000170 d9 78 6c bb 11 bd 6d bb bc 3e 80 bc 4a 08 b7 3c
       -0.0036082773 -0.0036276022 -0.015654914 0.02234282
000180 64 0f 0c 3c d3 73 d7 3c dd 65 0d 3d 4d b5 6a bc
       0.008548591 0.026300346 0.034520973 -0.014325452
000190 00 18 e2 bc f2 6b c5 3c 0a 79 94 3c d1 f8 4c bd
       -0.027599335 0.024099324 0.018124122 -0.050041977
0001a0 b2 7d 13 3c e7 60 01 bc a0 d4 c6 bc ee 27 3a 3d
       0.009002136 -0.0078966385 -0.02427131 0.045448236
0001b0 a2 e1 6d bb 32 04 69 bc 2c 4a cc 3c 2a 3e c5 3c
       -0.0036297818 -0.014222192 0.024937712 0.024077494
0001c0 ba c3 0f 3a 21 c7 de bb dc 4b 50 3d 33 6a c4 3c
       0.00054841826 -0.0067986404 0.050853595 0.023976421
0001d0 b5 a1 d7 3c 74 cf 1e bc c6 a4 32 3c 48 65 04 bd
       0.026322225 -0.009693015 0.010903543 -0.03232315
0001e0 04 bb b5 bb 0e 90 da 3b 1e 1a 3d bd d7 b5 28 bd
       -0.0055459756 0.0066700047 -0.046167485 -0.04118904
0001f0 c4 2c b0 bb d7 ca 39 3c 4a a2 c8 bc fa 09 b6 bc
       -0.00537643 0.011339865 -0.024491448 -0.022221554
000200 2b a7 bd bc 86 6f d4 bc 50 78 7f 3c f6 8b d6 3c
       -0.023151001 -0.025932085 0.01559265 0.026189785
000210 8e 79 f8 3c ce 5b 28 3b 51 06 7d bd 6b e2 68 3c
       0.0303314 0.0025689485 -0.061773602 0.0142141385
000220 24 2e 8e bc c9 c5 21 3d b6 5f 27 bb 0f 20 b2 bb
       -0.017355986 0.039495263 -0.0025539226 -0.0054359506
000230 63 bd 35 bd 07 38 97 3c 47 9f 24 bb a0 df ec bc
       -0.044370066 0.018459333 -0.002511935 -0.028915226
000240 6d 5b 24 3d f4 f7 09 3d 29 04 76 3c 56 87 f1 bc
       0.040126253 0.033683732 0.01501564 -0.029483479
000250 af 9a 7f 3d 02 a4 aa bc
       0.062403377 -0.020830158

model.gru.bias_hh_l0 f4 [150]
000000 bc e6 6d 3d f1 6b a3 bc 47 24 c2 3c f3 a7 ad 3a
       0.058081374 -0.019948931 0.023698939 0.0013248905
000010 c3 b3 48 bb 65 0b 8c 3d b9 e5 ae 3b 5a f4 8d 3d
       -0.0030624724 0.06838111 0.0053374437 0.06931372
000020 34 4f a8 bb 95 a4 c3 bc db ae 3a 3c 6d 4e a2 bc
       -0.005136395 -0.02388219 0.011394228 -0.019812787
000030 9a 9d a3 3b fc c9 d8 bb 32 e1 ae 3b 0f ba 46 3d
       0.004993153 -0.0066158753 0.005336904 0.048517283
000040 20 6e 83 3b 55 cc 2d bb ac 0c a8 bc 19 e7 1a 3d
       0.0040109307 -0.0026519496 -0.020513855 0.03781805
000050 b2 93 4c bc f5 9b 8c bc 32 c9 b5 3c ea 38 8a bc
       -0.012486385 -0.01716421 0.022190664 -0.016872842
000060 50 31 a7 bb cc 9c ed bb 27 92 3a bc ba 14 b3 3a
       -0.005102314 -0.0072513577 -0.0113873845 0.0013662793
000070 85 a7 c7 3b f1 e5 f6 bc 29 f7 fc 3c 92 e5 74 bc
       0.006092968 -0.030138941 0.030879574 -0.014947312
000080 e4 ee 0e 3e 38 c2 9b bc 30 03 46 3d ec 57 9b bc
       0.13958317 -0.01901351 0.048342884 -0.018962823
000090 28 12 ae bc a6 5a e1 3a 8d 65 95 bc 75 ba 7c 3c
       -0.021248892 0.0017193153 -0.0182369 0.015425314
0000a0 8d 8b d8 bc 76 99 89 bc 04 e7 4e 3b 76 cf 3e bb
       -0.02643373 -0.016796809 0.0031570802 -0.0029115356
0000b0 94 23 c5 bc 34 99 a9 bc c9 d9 96 bb 31 c4 78 bc
       -0.024064817 -0.020702936 -0.0046035987 -0.015183494
0000c0 4b c1 99 3d 61 f7 01 3c c9 96 86 bc 4d bb 6f 3c
       0.07507571 0.007932515 -0.016429322 0.014632058
0000d0 6b 92 9f 3b 36 38 1f 3d db 3a ee 3a 4e 07 a3 3d
       0.0048697493 0.038871966 0.0018175499 0.07960378
0000e0 e8 6e 36 3d 14 ce e4 bc 9d 79 7d 3b cd 87 c6 3c
       0.044539362 -0.027930297 0.0038677223 0.024234677
0000f0 ff f4 a4 3c 94 d1 f8 3b 7b 6c 1e 3c 6e 68 54 3c
       0.020136354 0.007593343 0.009669418 0.012964351
000100 dc cd c0 bc 9a b3 a0 3c ac 64 91 3c dd 13 5a 3b
       -0.023535661 0.01961689 0.0177482 0.0033276
000110 a4 7f 02 3d 4c f2 20 3d 32 10 74 3d 62 f4 98 3c
       0.03186001 0.039293572 0.059585758 0.018671218
000120 14 32 3f 3d 9c cf 48 3d 22 da fd 3c a4 fc 9c 3c
       0.046678618 0.049026117 0.030987803 0.019163437
000130 88 84 4a 3c a8 6d 1e 3c 3e fb 8b 3c 63 0b 82 3d
       0.0123606995 0.009669699 0.017087575 0.06349828
000140 fa ed 78 3d 19 3a ed 3c 04 cc 28 3b 48 ca 85 3c
       0.060773827 0.028958367 0.0025756368 0.016331807
000150 6a 50 92 3d 22 c9 ce 3c 41 ef 31 3d 2d d5 8d 3c
       0.07144244 0.025242392 0.04344106 0.017313564
000160 bf 27 06 ba 09 10 d2 ba 13 89 f7 3c 34 9a 5e bc
       -0.0005117617 -0.0016026507 0.03021673 -0.01358657
000170 8f 79 6c bb 11 bd 6d bb bc 3e 80 bc b1 03 b7 3c
       -0.0036083197 -0.0036276022 -0.015654914 0.022340627
000180 64 0f 0c 3c d3 73 d7 3c cf 45 0d 3d 4d b5 6a bc
       0.008548591 0.026300346 0.034490403 -0.014325452
000190 8a 18 f9 3b 76 43 a6 bc da 28 3f bd a5 5b 25 3d
       0.0076018022 -0.02029584 -0.04666982 0.040370602
0001a0 a9 04 d0 bb d0 48 84 3d 24 7b 50 bc ed e0 94 3c
       -0.006348212 0.064592004 -0.0127246715 0.01817366
0001b0 ca 8b 0d bd c4 43 71 bc 90 5c 8c bd 2e fe e1 bc
       -0.03455714 -0.014725629 -0.068535924 -0.027587023
0001c0 dc 60 16 3d 95 1a e1 bc 7c 2a c3 bd b7 e6 2b bc
       0.036713466 -0.027478496 -0.095295876 -0.010492018
0001d0 1a cf 41 3b 05 0e 32 3b 42 ba 60 bd b0 7a 4c bc
       0.0029572905 0.0027169 -0.05486513 -0.012480423
0001e0 ff f3 c7 3a 2a ba bb bc cc 3d a9 3d 34 b7 a5 3d
       0.0015255212 -0.022915918 0.0826374 0.08091584
0001f0 69 f5 15 3c 76 5c 82 bc 28 9c 59 bc c7 06 c6 3c
       0.009152749 -0.01591323 -0.013281859 0.024173154
000200 11 93 71 3d 9c 58 19 bd 47 b5 0a bd df a7 6a bc
       0.058978144 -0.03743802 -0.033864286 -0.01432225
000210 4f 17 16 bc 3e c2 58 3c d2 fe 96 3d e4 b8 6c 3c
       -0.009160831 0.013229905 0.07372822 0.014448378
000220 4c 46 8f 3c 57 b4 db bc bf 7e 3c 3d ce 71 15 bd
       0.017489575 -0.026819391 0.046019312 -0.036485486
000230 9d 38 a6 3c 25 ce c3 3c 0b 23 aa bb 79 12 5e 3d
       0.020290667 0.023902008 -0.0051921657 0.054216836
000240 bb 95 85 bc a8 1a ea bc d1 f6 2a bd ae f0 1f 3d
       -0.016306749 -0.028577164 -0.04173929 0.03904789
000250 a5 37 a5 bc 2e 31 22 bd
       -0.020168135 -0.039597683

model.gru.weight_ih_l1 f4 [150, 50]
000000 c5 59 3b bc be 03 2e 3a 9a 95 0f bb ad 26 99 bb
       -0.011434977 0.0006638131 -0.0021909238 -0.0046738
000010 dc 22 97 3b 96 20 08 bb 60 7b ea ba 9f 64 6d 3c
       0.00461231 -0.0020771376 -0.0017889552 0.014489322
000020 2d d0 ac bb 97 9a 50 ba 1d 65 e4 3a 09 1c a5 3a
       -0.00527384 -0.0007957606 0.0017425154 0.0012596856
000030 62 42 4d ba f6 be 03 3a 1d d4 23 3b 57 35 51 3a
       -0.0007830021 0.0005025709 0.0024998256 0.00079806655
000040 27 a2 9f 3b 98 2a 66 bb a9 d7 de bb 58 be 0b bc
       0.004871625 -0.0035120603 -0.006800611 -0.008529268
000050 ec cc b1 bb c5 56 07 3c d4 8c 0b 3c 22 53 89 ba
       -0.00542604 0.008260434 0.008517463 -0.0010477046
000060 08 af 20 3b 0a 19 ef 3a 23 12 13 bc 8e 6d 99 bb
       0.002451839 0.0018241715 -0.008976492 -0.0046822494
000070 f5 b3 00 ba c7 41 2c bc 5c af 8d 3b 7f 72 40 3b
       -0.0004909628 -0.010513729 0.004323883 0.002936512
000080 2d 40 af 3b 38 9e 5d 3a 47 15 49 bc 34 ed 93 3a
       0.0053482265 0.00084540574 -0.012273139 0.0011285902
000090 4c e0 d4 ba 81 fa af 3a 39 5a 1d 3b 9f 49 3f ba
       -0.0016241162 0.0013426096 0.0024010076 -0.0007297042
0000a0 09 39 0d bc 55 ce f2 3b df 7c d8 ba 3e de f8 3a
       -0.008619555 0.0074098506 -0.0016516707 0.0018987132
0000b0 2e 8d f8 3b bd 05 80 bc 76 1f 8b 3a 79 aa f2 ba
       0.0075851893 -0.015627736 0.0010614234 -0.001851394
0000c0 22 4e 16 3c b7 02 cc bb f9 02 08 bc 7f 7e 9c 3b
       0.009173902 -0.0062259096 -0.00830149 0.0047758217
0000d0 4f c8 84 3b 3f ea 03 3b 0e 81 06 bc bd 4c ca ba
       0.004052199 0.0020128635 -0.00820948 -0.0015434247
0000e0 65 34 0b bb 03 13 e2 ba cf 3d 08 3b 4f 6d 7e bb
       -0.0021240946 -0.0017248098 0.0020788794 -0.0038822477
0000f0 68 d7 bb 39 1a fa 38 3c be 0b 1d 3b 51 39 05 bb
       0.0003582791 0.011290098 0.0023963298 -0.0020328353
000100 10 ab b9 3a be 7e 4e ba 83 7d f6 b8 08 e4 35 3c
       0.001416536 -0.00078771624 -0.000117535725 0.01110173
000110 0b 4c 1c bc be 2e e7 3a 7f 4a ad 3b c4 6d c7 bb
       -0.009539614 0.0017637832 0.0052884216 -0.006086083
000120 ba 65 e0 3b 2c d4 00 3c f1 5e 4d bc 63 91 fa bb
       0.0068480643 0.007863086 -0.012534843 -0.007646726
000130 97 da e8 3b d1 6c a8 3b 2d aa 83 3b 19 8e 11 bc
       0.007106136 0.005139925 0.0040180893 -0.008883976
000140 86 e6 00 3c a7 3e b8 39 99 62 b8 3a 4e 30 f4 ba
       0.007867461 0.00035141894 0.001406747 -0.0018630119
000150 58 bb fa 3a de e5 b0 3b e3 df 31 b9 e4 ea dd bb
       0.0019129319 0.005398496 -0.0001696344 -0.006772386
000160 1f 5f c9 bb 47 c9 cb 3b f6 dc 1b 3c 3b a8 bf 3b
       -0.0061453725 0.0062190625 0.00951313 0.005848912
000170 67 b4 4f bb af 85 9f bb a8 26 67 bb 99 97 19 3b
       -0.0031693222 -0.0048682312 -0.0035270844 0.0023436307
000180 7d 0a 3d bc 4a 59 28 3c b2 56 21 b9 09 10 a0 3b
       -0.011538145 0.010275194 -0.00015386453 0.004884724
000190 34 fa e8 bc d0 77 58 3c 28 43 c6 3c 57 e9 37 bc
       -0.028439619 0.013212159 0.024201944 -0.011225066
0001a0 5f 1a b3 3c 64 03 37 3c 56 9f 76 3c fc 93 ec 3c
       0.02186316 0.011170242 0.015052637 0.028879158
0001b0 cd 32 b8 bc 4b 5e 9f 3c 93 cf 2f 3c c0 ca 27 bc
       -0.022485161 0.019454142 0.010730642 -0.01024121
0001c0 d3 7e d1 bc 93 4a ae bc 4f 0c 3f 3c 6c b2 03 3d
       -0.02557317 -0.021275794 0.011660649 0.03215258
0001d0 fe 43 a5 3c 19 04 b6 bb 99 29 8d bc ef 5a a2 bc
       0.020174023 -0.0055546877 -0.01723175 -0.019818751
0001e0 73 cc 86 bc 54 aa 9e 3c 02 fd 8d bc ee 90 f7 3c
       -0.01645491 0.019368328 -0.017332558 0.030220475
0001f0 e1 e4 a1 3c 28 7f ae 3c 2f db c9 bc 39 ca a3 bc
       0.019762458 0.021300867 -0.024640648 -0.019993888
000200 b5 84 9d bc 5c 56 b8 bc dc 76 b3 bc fe 2e 50 3c
       -0.019228319 -0.022502117 -0.021907263 0.012706516
000210 dd 62 18 3d fc f5 c2 bc 20 f0 12 bd 33 e2 a4 3c
       0.03720366 -0.023798935 -0.035873532 0.020127391
000220 9d df 9c 3c ac 19 82 3c 64 cd 1c 3c 06 aa 57 bc
       0.019149596 0.015881382 0.009570453 -0.013163095
000230 d5 d9 09 bd 0b e2 9c 3c 6e c4 bc 3c a2 58 c0 3c
       -0.033655006 0.019150754 0.023042884 0.023479763
000240 15 74 93 3c e9 6e d7 bc e0 f0 8a 3c d9 43 a7 bc
       0.017999688 -0.026298003 0.016960561 -0.020418094
000250 72 46 62 3c d1 15 8f bc 31 66 87 bd e0 6f 20 3d
       0.013810741 -0.017466458 -0.06611288 0.039169192
000260 93 84 44 3d 26 19 3b bd c3 a5 39 3d b5 51 fa 3c
       0.047977995 -0.04567828 0.0453241 0.03055654
000270 b7 04 f8 3c e4 e9 63 3d 50 97 42 bd 88 fc 16 3d
       0.030275686 0.055642977 -0.047507584 0.036861926
000280 86 a4 13 3d bf 10 b7 bc f9 83 60 bd d9 6e 2b bd
       0.036045574 -0.022346852 -0.05481336 -0.04185376
000290 91 f6 23 3d 36 17 62 3d 47 d7 1b 3d 05 8b 0a bd
       0.040030066 0.055197917 0.0380471 -0.033823986
0002a0 df bb 1e bd b6 63 2b bd 4f 3d 3e bd 23 ad 3f 3d
       -0.038753387 -0.04184314 -0.046445187 0.046795975
0002b0 d5 c3 17 bd 06 c7 75 3d a9 22 32 3d 36 08 52 3d
       -0.037051994 0.060004257 0.043490086 0.05127736
0002c0 a4 38 5f bd ef eb 43 bd e7 91 2c bd 1c b6 85 bd
       -0.054497376 -0.047832426 -0.04213133 -0.06528875
0002d0 10 d7 6c bd 00 70 10 3d 79 e4 9f 3d 38 ec 47 bd
       -0.057822287 0.03526306 0.078072496 -0.04880926
0002e0 f2 5b 9e bd 46 73 50 3d 67 1a 31 3d 95 c2 51 3d
       -0.07732381 0.050891183 0.04323807 0.05121096
0002f0 d8 93 f4 3c 43 a2 0c bd b2 b0 8e bd d5 36 3f 3d
       0.029855654 -0.034334432 -0.06967296 0.04668315
000300 e9 cb 4f 3d 99 f8 2e 3d 1b b5 13 3d 44 61 23 bd
       0.050731573 0.04271755 0.036061388 -0.03988768
000310 23 e9 2e 3d 00 76 2e bd b1 3c 34 3d 0d 17 1a bd
       0.042702805 -0.042593002 0.044003192 -0.03761964
000320 b7 04 2f bc 70 d1 f1 3b 2a b6 59 3b c2 c8 2b bc
       -0.010682276 0.007379703 0.003322015 -0.010484876
000330 7f 0b 92 3b 8c c5 21 3c 1a e9 e5 3b de 2b 90 3c
       0.004456937 0.009873759 0.0070163133 0.017599043
000340 17 91 55 bc 82 d0 ad 3b bf 05 b6 ba 85 3f ad ba
       -0.01303508 0.005304397 -0.001388721 -0.0013217783
000350 3d 82 59 3a 71 73 3c bc 65 e0 f8 3b d1 5d 22 3c
       0.00082973 -0.011502133 0.0075951093 0.009910063
000360 3c 79 f0 3b dd d0 db bb 44 56 19 bc 4d 31 71 bc
       0.007338671 -0.006708248 -0.009358946 -0.014721227
000370 b1 cf 26 bc e1 54 11 3c 72 b4 c4 3a 7c c5 fe 3a
       -0.010181353 0.008870334 0.001500739 0.0019437517
000380 db 3a b7 3b 4e c1 ca 3b ed 0c 92 bc 6c 9f 2d bc
       0.005591733 0.0061875945 -0.01782843 -0.010597091
000390 1a 80 2d bc 45 17 73 bc 9a 7e 91 bb b0 3a e1 3b
       -0.010589624 -0.014837091 -0.004440141 0.006873451
0003a0 7d 39 42 3c 7c 83 d8 bb 8f 1a aa bc 47 7f cb 3b
       0.011854527 -0.006607471 -0.020764617 0.006210241
0003b0 0f 8c b5 3b b8 ad 3a 3c 31 22 3b 3c 2d 72 1a bc
       0.005540378 0.011393957 0.011421726 -0.009426636
0003c0 80 3f 44 bc b2 af 37 3c ef fc ff 3b c3 21 a7 3b
       -0.01197803 0.011211323 0.0078121345 0.0051004603
0003d0 39 38 8d 3c ab 9b a2 bc d0 27 06 3c 71 b4 37 bc
       0.017238723 -0.019849619 0.008188203 -0.011212454
0003e0 5d 8d 5a 3c 8c cd 42 bc 42 7f 79 3b 92 71 74 bb
       0.013339368 -0.0118898265 0.0038070236 -0.0037299138
0003f0 17 87 9d bb a2 20 25 3b 2d c0 70 b9 12 f5 07 3a
       -0.0048073637 0.0025196453 -0.00022959775 0.00051863596

model.gru.weight_hh_l1 f4 [150, 50]
000000 3f 0c f3 39 59 1f d6 3a 3a 86 fe b9 88 b4 6e 36
       0.00046357696 0.0016336247 -0.00048546662 3.5569847e-06
000010 ab c4 8a b7 14 36 44 b9 b7 44 91 b9 80 86 a2 39
       -1.6542463e-05 -0.00018712162 -0.00027707752 0.00030999258
000020 cb d7 0a ba 2f 27 37 ba d6 81 07 ba 20 cc e1 b9
       -0.0005296438 -0.0006986735 -0.00051691884 -0.0004306743
000030 2b c7 85 ba d4 15 20 38 73 5a 57 b9 cd bb 37 ba
       -0.0010206451 3.81673e-05 -0.00020537693 -0.00070088805
000040 26 38 a9 ba 23 05 bc ba c4 9a b5 3a 52 ec d4 ba
       -0.001291041 -0.0014344793 0.0013855328 -0.0016244745
000050 c5 41 db b7 07 f1 58 3b 77 b6 ad ba 71 05 c6 39
       -2.613746e-05 0.0033102648 -0.0013253231 0.00037769557
000060 64 2e 01 3b c5 c1 2c ba bb f0 f5 b9 99 c8 02 bb
       0.001971149 -0.0006590153 -0.000469094 -0.0019955991
000070 cc a7 c2 39 f6 52 b7 b8 4d 4d ab ba d3 87 dc 3a
       0.00037127582 -8.741573e-05 -0.0013069302 0.0016825147
000080 00 60 5a 39 0c b9 bc b8 0b 5a 94 39 04 46 d1 b7
       0.00020825863 -8.999006e-05 0.00028295847 -2.4947345e-05
000090 87 73 38 35 ad 12 c2 39 07 3a 8c ba 0d 72 1e 3a
       6.8713456e-07 0.00037016478 -0.0010698446 0.00060442166
0000a0 ea cc 2b bc eb 3f 34 ba e7 cd cf 39 c5 13 7d 3a
       -0.010485867 -0.00068759796 0.00039635526 0.000965413
0000b0 8c 99 15 3b 75 fd 96 39 e4 d0 5c b8 97 b1 57 ba
       0.0022827117 0.0002879907 -5.2646632e-05 -0.0008228062
0000c0 cd 21 c5 b9 8f b9 1d 3c 7b 43 44 ba 49 ea 55 ba
       -0.00037599952 0.00962676 -0.0007486862 -0.00081602164
0000d0 d4 88 63 bb 69 45 4c bb eb 78 a6 3a 9a 11 88 3b
       -0.0034719007 -0.0031169301 0.0012700831 0.004152489
0000e0 c3 c1 52 bb 7f a3 39 3b 85 42 f3 ba 4c 50 c5 3a
       -0.0032158948 0.002832621 -0.0018559253 0.0015053838
0000f0 fc 02 cf bb de 73 92 ba fe 98 0a bb af 98 52 3b
       -0.0063174944 -0.0011173447 -0.002114832 0.0032134464
000100 96 d1 1a 3b 8a 9c 87 3b 43 47 3a 3a a5 ca 25 bb
       0.0023623458 0.004138534 0.0007105956 -0.0025297788
000110 eb fa e0 3a e5 7a 9e b9 e7 72 b7 ba 34 0b ad bb
       0.0017164623 -0.00030227672 -0.0013996036 -0.0052808765
000120 4b e0 46 bb 11 29 b8 3a 5f f1 21 3b 2f a1 35 ba
       -0.0030346091 0.0014050325 0.0024710519 -0.000692862
000130 c4 70 c5 3a e3 2d 65 3b cb a0 a4 3a 71 13 34 bb
       0.0015063514 0.0034969978 0.0012560127 -0.0027477408
000140 07 07 7b bb a0 b9 84 bb 97 f1 91 bb 5d 1e 80 3b
       -0.003830375 -0.0040504485 -0.0044538486 0.0039098696
000150 b6 9e d8 3b 35 b7 09 ba 09 a0 6a bb 8a e7 4c 3b
       0.0066107167 -0.0005253435 -0.0035800955 0.0031265938
000160 c7 3d a4 3b 23 46 c5 bb cf 1e 17 3b c1 87 de ba
       0.0050122472 -0.006020324 0.0023059135 -0.0016977714
000170 b7 19 83 3b 93 12 55 39 c2 da 07 ba 15 a1 1f 3b
       0.004000868 0.00020320182 -0.0005182439 0.0024357487
000180 ef 26 b8 3a 4d 31 2b bb 57 36 56 b9 de b6 7c bb
       0.0014049689 -0.0026121915 -0.00020428874 -0.0038561146
000190 59 ec d9 3a 1c ad c7 b8 6a 05 24 3c f2 4b 5a 3c
       0.0016626223 -9.5213036e-05 0.010011056 0.013323771
0001a0 91 27 77 bb f0 ea 3a 3b ca 8b 56 b9 e5 ac 6f bc
       -0.0037712792 0.0028521381 -0.00020460706 -0.014628624
0001b0 72 39 77 3c 3f 05 0e 3b 03 8d f9 ba 96 79 15 ba
       0.01508938 0.0021670607 -0.0019039217 -0.00057020166
0001c0 73 b7 45 bb 0b 2e e0 bb 5a a2 6a ba a3 03 59 3b
       -0.0030169159 -0.0068414262 -0.0008950584 0.003311374
0001d0 8c cc a1 3a 62 76 b7 bb b5 bb 3f 3b 1b 03 48 bb
       0.0012344285 -0.005598829 0.002925617 -0.003051943
0001e0 1f 7e cc 3b 41 bf 91 3b d9 ff 5a bb 42 04 b8 3b
       0.0062406207 0.004447848 -0.0033416657 0.005615742
0001f0 e4 4c e5 3b 6a 36 12 bb 0d d5 bf 39 a4 2a 07 ba
       0.0069976915 -0.0022310265 0.00036589094 -0.0005156195
000200 ec a7 85 3b 7d 00 2f 3c 03 26 dc 3b d1 8e 1c bb
       0.0040788557 0.010681269 0.0067183985 -0.0023888836
000210 96 cd f9 ba 1d 0e 9c 3b 1c 85 27 3a 38 d6 8d ba
       -0.0019058462 0.0047624246 0.0006390379 -0.0010821288
000220 1a 0f 0d 3c c1 f1 6a bc 76 d9 ce ba 31 60 51 3b
       0.0086095575 -0.014339865 -0.0015781361 0.0031948204
000230 ae cd b9 bc 4b cf 92 bb 04 4c 1b 3a 26 f0 0f 3b
       -0.022681084 -0.0044802777 0.0005924108 0.0021963208
000240 f4 d2 b8 3b 28 20 8d b8 37 77 13 ba 1e 01 25 39
       0.005640382 -6.7293935e-05 -0.00056253694 0.00015736042
000250 f4 2c 19 3b 3d 81 be 3c 6f c0 79 3b b5 56 b9 ba
       0.0023372741 0.023254985 0.0038109084 -0.0014140221
000260 00 28 da 3c ed b1 10 3d df 3c 1d bc c9 9e e7 ba
       0.026630402 0.035325933 -0.009597032 -0.0017671223
000270 80 3a 8b 3b f9 0a 1c bd 96 55 26 3d 80 33 57 3b
       0.004248917 -0.0380964 0.040608965 0.0032837093
000280 65 a1 34 bb 6f 26 47 b9 49 66 12 bb 43 b2 ad bc
       -0.002756202 -0.00018992437 -0.0022338799 -0.021203166
000290 61 4b b7 bb e8 d2 07 3c e7 e6 92 3b 10 c3 c6 bb
       -0.0055937027 0.00829003 0.004483092 -0.0060657337
0002a0 de 46 dc 37 55 ef fd bb 10 33 62 3c f8 96 56 3c
       2.6259044e-05 -0.007749478 0.01380612 0.013097517
0002b0 0c fb 43 bb 8c 6b f2 3b 78 5c 38 3c ae 2d 81 39
       -0.0029904274 0.0073980745 0.011252515 0.0002463883
0002c0 a7 b9 35 bb 2e b9 96 bb a0 b6 ac 3b c1 17 f0 3c
       -0.0027729066 -0.004599712 0.005270794 0.029308202
0002d0 ba 3d a3 3c cf 9a e8 b9 3b 6f e1 3a e5 df 03 3c
       0.019926894 -0.0004436583 0.0017199287 0.008048986
0002e0 d7 8f dc bb 7c 38 91 ba 28 30 c2 3c e5 10 1f bd
       -0.0067310142 -0.0011079456 0.023704603 -0.03883447
0002f0 9f 0c c7 bb 8c d9 42 3c f3 d2 42 bd 50 5c 1a bc
       -0.0060745026 0.0118926875 -0.047564458 -0.009421423
000300 fc 8d 1e bb e2 40 d5 3b 74 9a 65 3c 32 88 c6 ba
       -0.0024193516 0.006507979 0.014013875 -0.001514679
000310 3f 3f aa ba 8b 4f 7c 3b fe e5 84 3b 0f e8 47 3d
       -0.001298882 0.003849956 0.0040557375 0.048805293
000320 44 5d 81 b9 33 d2 9d 39 fa 5d 9a 3b de 3e d5 3b
       -0.00024674286 0.00030101984 0.00471091 0.0065077385
000330 03 4e 73 bb 97 3c b7 b9 be 64 17 3a 73 08 f3 bb
       -0.0037125356 -0.00034949623 0.00057752046 -0.0074167787
000340 fa 36 fa 3b 60 0d be 39 9f e4 0a bb 9e e4 48 ba
       0.0076359482 0.0003624959 -0.0021193398 -0.0007663461
000350 6e 73 18 3a fa 88 87 bb 15 98 d8 ba 78 b8 bd 3a
       0.000581554 -0.004136202 -0.0016524816 0.0014474532
000360 b3 e8 a8 3a 8e d7 e1 39 01 f0 13 bb 94 39 3f bb
       0.0012886733 0.00043075945 -0.0022573473 -0.0029178606
000370 60 40 27 3b 41 85 c0 3b fd 51 05 bb 53 3a 70 ba
       0.0025520548 0.00587526 -0.0020343058 -0.00091639644
000380 32 81 bf 3b 50 77 88 39 ac f3 18 bb e4 db 72 bb
       0.0058442587 0.00026028836 -0.00233386 -0.0037057335
000390 9a 24 be 3a 80 08 ae 3b 95 50 3a 3b 81 7f 2c 3a
       0.0014506758 0.005311072 0.0028429378 0.0006580279
0003a0 10 db 02 3a fe 2b 65 3a 25 a8 4c bb 48 be 2a 39
       0.00049917493 0.0008742212 -0.0031228152 0.00016283349
0003b0 24 83 97 3b bb 86 f5 bb 1f 20 44 bb 11 75 66 3b
       0.0046237875 -0.0074928678 -0.0029926372 0.0035164992
0003c0 dd 27 75 bc 91 bd 05 bb cb 6a da 3a fd 49 94 3a
       -0.014963117 -0.002040718 0.0016663907 0.0011313554
0003d0 a1 3c 60 3b a5 b5 5e ba 9c d1 2f ba 42 ae aa b8
       0.0034215825 -0.0008495695 -0.00067069544 -8.13869e-05
0003e0 aa 67 e0 ba 5f 2b 5f 3c 9b 1d 41 3a 1a 2c 72 ba
       -0.0017120738 0.01362118 0.0007366777 -0.0009238139
0003f0 1f d1 6e ba 58 a8 cf ba ca a2 99 3a b2 fd 08 39
       -0.0009110141 -0.0015843017 0.0011721489 0.0001306448

model.gru.bias_ih_l1 f4 [150]
000000 6e ea 39 3b f0 05 42 b9 4e 2f aa 3b 20 e1 78 3d
       0.002836849 -0.00018503494 0.0051936274 0.06076157
000010 27 81 6f bc 37 b7 89 3b be 91 3f 3c 44 0a cf 3d
       -0.014618195 0.004202749 0.0116924625 0.1010938
000020 62 1a 28 3e 81 9f 46 ba 24 92 7e bc 3f c4 7d 3a
       0.16416314 -0.00075768685 -0.015537772 0.0009680427
000030 f0 1b 66 bc c2 3c 0d 3c 9c 2a 8f 3b af 62 22 3c
       -0.014044747 0.008620443 0.004369093 0.009911223
000040 76 0a a7 bb 3b c6 ba 39 82 a8 57 3c f8 53 a9 bb
       -0.0050976826 0.00035624378 0.013162734 -0.0051674806
000050 57 dc 06 3c 08 39 1a bb e5 40 87 3a 5e ed 87 bb
       0.008231244 -0.0023532528 0.0010319023 -0.0041481694
000060 56 a8 7d 3b 89 a9 0c 3b d9 7d c2 bb 7e 77 8a bb
       0.0038705072 0.0021463356 -0.0059354124 -0.0042256704
000070 ae fe 8a bc ee f0 d0 3c 66 1a 53 bc af c3 07 3b
       -0.016967144 0.02550551 -0.012884712 0.0020716002
000080 8d 31 ca 3b e0 00 80 3c da 60 62 3b 0f 0a 0f ba
       0.0061704577 0.015625417 0.0034542591 -0.0005456516
000090 6c b0 83 3c 9a 45 fc 3d dd a9 84 3c 21 2f be 3c
       0.016075335 0.12317963 0.016194278 0.023215832
0000a0 5d ce 92 bd 1f a8 ba 38 e7 d7 bc bb 36 65 32 3b
       -0.07168267 8.900486e-05 -0.0057630423 0.002722097
0000b0 cc c7 a3 3b e4 89 aa 3b 5b f6 04 3b d5 90 b8 38
       0.004998183 0.005204426 0.002028844 8.800781e-05
0000c0 be d1 26 bb be e9 e5 3c ae 4e 06 3c d9 66 fb bc
       -0.0025454606 0.028065559 0.00819747 -0.03068869
0000d0 b7 95 c7 3d be db 2b 3e 28 9e cc bc d9 a0 47 3b
       0.09745353 0.16783044 -0.024977759 0.0030460863
0000e0 b8 8d eb bb c9 86 34 3e 70 db 6d 3e 41 24 7d b9
       -0.007188525 0.17629541 0.2322824 -0.00024141466
0000f0 dd ae 7f bc 18 1e 8a bb 85 3f a1 bc 2f 7a af 3d
       -0.0156056555 -0.0042150132 -0.019683609 0.085682265
000100 4d 9e cf 3b 13 30 36 bd 98 49 96 bc c3 13 09 bb
       0.0063360096 -0.04447944 -0.01834564 -0.002091632
000110 a4 c8 d8 bc 0f e7 0a 3a 3a 08 20 bc c9 ce 88 ba
       -0.02646286 0.00052987126 -0.009767586 -0.0010437603
000120 21 2b 97 bb 4b ab 8d bc 75 29 ac bc 46 73 b1 bc
       -0.0046132957 -0.017293593 -0.021015862 -0.021661412
000130 dc e0 70 3a 87 b1 bd 3b fc 8a 8c 3b 5c 18 e1 3d
       0.000918878 0.005788985 0.004289029 0.10990974
000140 e4 07 a3 3d f3 44 b1 bc c8 e7 43 3c a1 2d 2b 3c
       0.079604894 -0.021639323 0.011957116 0.0104478905
000150 e1 2c 0d bc b8 8f 51 3b 25 ab a5 3d 89 3a 74 3e
       -0.008616657 0.0031976532 0.08089284 0.23850454
000160 1e 25 c7 3b b9 f1 ab bc ec 76 9e 3f 52 10 00 3c
       0.0060774228 -0.020989286 1.2380042 0.007816391
000170 62 c1 00 3a 38 db d7 3b d6 90 be 3b 52 10 fa 3a
       0.0004911629 0.006587412 0.0058156056 0.001907835
000180 46 21 f4 3b 0b c8 fa 3b 3b 55 81 3b c7 94 a4 3f
       0.0074502556 0.0076532415 0.003946928 1.2857903
000190 4d 4a 9a 3c 2e 73 70 bc f3 df b0 3c 86 ee dd 3c
       0.018834257 -0.0146758985 0.021591162 0.027091276
0001a0 6c 5a c7 3c 09 51 1b 3c f9 73 3d bc 14 6c 11 bd
       0.024335109 0.0094797695 -0.011563295 -0.035503462
0001b0 89 a0 52 3d c7 3e 01 3d be 2f 49 ba 2a 7d 02 3d
       0.05142263 0.03155401 -0.00076746556 0.031857647
0001c0 3e 45 69 bc c5 19 ae 3b 7b ac cf 3b ab 12 b0 3b
       -0.0142377 0.0053131306 0.0063377 0.005373319
0001d0 43 81 c1 bc 5a 60 97 3c a9 fb 05 bd a0 a7 78 3c
       -0.023621207 0.018478561 -0.032710705 0.015176684
0001e0 36 1d 38 3d 56 9a f7 3c 1b 9a e2 3c e8 47 70 bc
       0.044949733 0.03022496 0.027661374 -0.014665581
0001f0 55 f2 57 bd cc 2d fe 3c 23 e2 44 3c 6f 18 07 3c
       -0.05272134 0.031027697 0.012016806 0.0082455715
000200 16 9a 18 bc 6e e2 c7 3c b5 c5 31 3c 09 51 db bb
       -0.009314081 0.024399962 0.01085036 -0.0066930098
000210 34 5e 34 3d de 54 2b 3c 22 65 53 3d 00 da e3 bc
       0.04403515 0.010457246 0.05161012 -0.027813911
000220 ce e0 af 3a 38 b2 58 3c 21 bf b1 bb 88 73 00 bc
       0.0013418437 0.013226084 -0.0054243957 -0.007840045
000230 75 5e c2 bd ca 08 19 3c cb b2 a3 bb a9 2d 2a bd
       -0.094906725 0.009340474 -0.004995679 -0.04154745
000240 4f a9 26 3d 16 df b4 3c 96 81 0d bd 90 c3 25 bc
       0.04068881 0.022079032 -0.03454741 -0.0101174265
000250 94 d6 0e 3c b6 80 2f 3d
       0.008718152 0.042847358

model.gru.bias_hh_l1 f4 [150]
000000 6e ea 39 3b 78 08 42 b9 2e 2f aa 3b 9b e1 78 3d
       0.002836849 -0.00018504437 0.0051936125 0.06076203
000010 27 81 6f bc 37 b7 89 3b be 91 3f 3c ad d2 ce 3d
       -0.014618195 0.004202749 0.0116924625 0.10098777
000020 88 bf 26 3e 09 5f 43 ba 24 92 7e bc dd c7 7c 3a
       0.16284001 -0.0007452821 -0.015537772 0.0009642819
000030 f0 1b 66 bc c2 3c 0d 3c 9c 2a 8f 3b af 62 22 3c
       -0.014044747 0.008620443 0.004369093 0.009911223
000040 54 0a a7 bb 14 c4 ba 39 1f 6f 57 3c f8 53 a9 bb
       -0.0050976668 0.00035622774 0.013149052 -0.0051674806
000050 cb 08 05 3c b6 d4 19 bb 22 35 87 3a 5e ed 87 bb
       0.008119772 -0.0023472733 0.0010315517 -0.0041481694
000060 07 bf 83 3b 43 69 0c 3b d9 7d c2 bb 7e 77 8a bb
       0.004020575 0.0021425046 -0.0059354124 -0.0042256704
000070 ae fe 8a bc f0 f0 d0 3c 66 1a 53 bc af c3 07 3b
       -0.016967144 0.025505513 -0.012884712 0.0020716002
000080 c1 fc c7 3b dd 00 80 3c ac 99 67 3b 5e 03 0f ba
       0.0061031287 0.015625412 0.0035339398 -0.0005455519
000090 6c b0 83 3c d5 3b fc 3d dd a9 84 3c 21 2f be 3c
       0.016075335 0.123160996 0.016194278 0.023215832
0000a0 a5 78 11 bd 1f a8 ba 38 e7 d7 bc bb fb e2 2f 3b
       -0.035515446 8.900486e-05 -0.0057630423 0.0026838172
0000b0 af aa a6 3b e4 89 aa 3b 9b c0 04 3b d5 90 b8 38
       0.005086265 0.005204426 0.0020256403 8.800781e-05
0000c0 be d1 26 bb 8c d5 6b 3d ae 4e 06 3c d9 66 fb bc
       -0.0025454606 0.0575767 0.00819747 -0.03068869
0000d0 e1 94 c7 3d 94 d8 2b 3e 28 9e cc bc d9 a0 47 3b
       0.09745193 0.16781837 -0.024977759 0.0030460863
0000e0 b8 8d eb bb a8 8d 34 3e d0 64 6d 3e 41 24 7d b9
       -0.007188525 0.17632163 0.23182988 -0.00024141466
0000f0 dd ae 7f bc 18 1e 8a bb 85 3f a1 bc 2f 7a af 3d
       -0.0156056555 -0.0042150132 -0.019683609 0.085682265
000100 4d 9e cf 3b 13 30 36 bd 98 49 96 bc c3 13 09 bb
       0.0063360096 -0.04447944 -0.01834564 -0.002091632
000110 a4 c8 d8 bc 0f e7 0a 3a 3a 08 20 bc c9 ce 88 ba
       -0.02646286 0.00052987126 -0.009767586 -0.0010437603
000120 21 2b 97 bb 4b ab 8d bc 75 29 ac bc 46 73 b1 bc
       -0.0046132957 -0.017293593 -0.021015862 -0.021661412
000130 dc e0 70 3a 87 b1 bd 3b fc 8a 8c 3b 5a 18 e1 3d
       0.000918878 0.005788985 0.004289029 0.10990973
000140 e4 07 a3 3d f3 44 b1 bc c8 e7 43 3c a1 2d 2b 3c
       0.079604894 -0.021639323 0.011957116 0.0104478905
000150 e1 2c 0d bc b8 8f 51 3b 4e ab a5 3d 25 48 74 3e
       -0.008616657 0.0031976532 0.080893144 0.23855646
000160 1e 25 c7 3b b9 f1 ab bc 98 e6 94 3f 52 10 00 3c
       0.0060774228 -0.020989286 1.1632872 0.007816391
000170 62 c1 00 3a 38 db d7 3b d6 90 be 3b 52 10 fa 3a
       0.0004911629 0.006587412 0.0058156056 0.001907835
000180 46 21 f4 3b 0b c8 fa 3b 3b 55 81 3b 6e e2 a5 3f
       0.0074502556 0.0076532415 0.003946928 1.2959726
000190 2e b8 99 bc 3f 27 19 3d 68 ab 15 bd ed 7a 35 bd
       -0.018764582 0.037390944 -0.03654042 -0.044306684
0001a0 ef ab 77 bc 4c 46 16 bc 07 e3 18 3c 07 27 59 3d
       -0.015116676 -0.0091720335 0.009331471 0.053015735
0001b0 55 22 86 bd 0b 08 8a bd e2 4e b9 3b 2d 99 80 bd
       -0.06549517 -0.06739815 0.0056551555 -0.06279216
0001c0 d6 ac 9f 3b fb d5 4b bc f0 ce 92 3a d3 0e 29 bc
       0.0048728986 -0.012441154 0.0011200588 -0.010318476
0001d0 63 c1 05 3d 3d 42 14 bd 16 e0 b8 3d 01 ca 23 bc
       0.03265513 -0.036195982 0.09027116 -0.009996892
0001e0 44 6e ce bd 4d af 89 bd 79 95 48 bd 3f e0 ef 3c
       -0.10079625 -0.06722889 -0.048970673 0.029281734
0001f0 e4 38 cb 3d a2 ab 8d bd 8e 1c 1d bc 0f d4 02 b8
       0.099229604 -0.06917502 -0.0095893275 -3.119191e-05
000200 69 1a b8 3a 6f 02 32 bd bb 23 d3 bc 8a 0f 79 3c
       0.0014045957 -0.043459352 -0.025773874 0.015201459
000210 2b a5 a9 bd 91 82 24 bd 37 7f 9d bd dc 76 5a 3d
       -0.082834564 -0.04016358 -0.0769028 0.05333601
000220 b1 be 9e 3b 7b 57 0a bd 7a f7 bd 3c d8 ee 70 bc
       0.0048445095 -0.033774834 0.023189295 -0.014705382
000230 06 f0 1f 3d d4 ca 6f bc 7f 34 f9 39 0b 01 9b 3d
       0.039047264 -0.01463576 0.00047532094 0.07568558
000240 f9 c8 c3 bd dd fb b4 bc 6a da 6c 3d be 7c 64 3c
       -0.09559817 -0.022092754 0.057825483 0.0139457565
000250 e2 4a c5 bb b8 a0 dc 3c
       -0.0060208896 0.026932105

model.fc.weight f4 [1, 50]
000000 eb 27 3e 38 6b 8f d8 bb 30 c8 4a 3c 6b 3a 8f 3c
       4.5336707e-05 -0.0066088936 0.01237683 0.01748391
000010 6f 16 06 3b 0a 69 5d bb 7a df 94 3b 5d c1 af bc
       0.0020460149 -0.0033784532 0.004543242 -0.021454507
000020 55 13 c5 3c 6a ef 6b bb 67 61 6c bb f5 6d aa bb
       0.02405707 -0.0036000856 -0.0036068799 -0.005201096
000030 0c c9 0e b8 a5 e3 f3 bb 5b 78 8c bb 20 39 bd 3b
       -3.4042678e-05 -0.007442909 -0.0042868084 0.005774632
000040 42 a7 56 3b c1 c0 1c 3a 02 2f 8c bb 37 fe b3 ba
       0.0032753502 0.00059796503 -0.0042780647 -0.0013732378
000050 54 73 91 3b dc fc d1 3b 0b 3e 8e b9 8c 56 04 bb
       0.004438797 0.006408317 -0.00027130576 -0.0020193188
000060 5a b0 4b 3b f1 89 43 3b 19 f6 68 bb f9 90 83 bb
       0.0031080456 0.0029836858 -0.0035547076 -0.004015085
000070 53 4c 9d 39 22 26 4d 3c 91 a6 d5 3b ce 69 c7 ba
       0.0003000224 0.012521299 0.0065201004 -0.0015214027
000080 d8 e3 77 3b aa de 7c 37 0a 62 05 bc 1f 8d f6 3a
       0.0037825014 1.50722135e-05 -0.00814105 0.0018810368
000090 1d dd 60 3c ba a5 b7 bc c2 d5 84 bb 6d f1 37 3b
       0.0137245925 -0.022417892 -0.004053802 0.0028067485
0000a0 2e 10 b8 bd 9a 47 bb ba a4 a9 7c bb f2 30 01 3b
       -0.08987461 -0.0014288307 -0.0038553262 0.0019713012
0000b0 29 50 85 3b 6a a8 b6 3a 10 2f 30 3a 89 05 9b ba
       0.0040683937 0.0013935689 0.000672088 -0.0011827211
0000c0 83 2a b3 bb fb d2 d1 3d
       -0.0054677143 0.102453195
