lightning_logs/version_33479210/checkpoints/epoch=49-step=11950-v3.ckpt (torch, 329840 bytes, 27 tensors)

model.gru.weight_ih_l0 f4 [150, 22]
0	0xb8db0aed	-0.00010444769
1	0xbc8c9002	-0.017158512
2	0x3bf80b4a	0.007569705
3	0x3bba5ea9	0.005687554
4	0x3bcd1372	0.0062584216
5	0x3d4c8646	0.04993274
6	0xbbf84283	-0.007576288
7	0x3c5d22e3	0.013497087
8	0xbcc29e9f	-0.023757277
9	0xbca24644	-0.019808896
10	0x3c12c74e	0.008958651
11	0x3d68f35b	0.056872707
12	0x3c3d1339	0.011540228
13	0x3d003db7	0.031308856
14	0xbc84ea1f	-0.016224919
15	0xbca7bc87	-0.020475639
16	0x800564e6	-4.95373e-40
17	0xbc8fd1c8	-0.017556086
18	0xbc967e6a	-0.018370826
19	0x3c9bcfe4	0.019020028
20	0x0005b57c	5.24282e-40
21	0x3c9c74a0	0.01909858
22	0xbd3c574d	-0.045981694
23	0x3c9790a2	0.018501583
24	0xbbd51f14	-0.006503949
25	0xbb87a540	-0.0041395724
26	0xbd51f50a	-0.051259078
27	0x3d7e27be	0.06204962
28	0x3a86000d	0.0010223404
29	0xbc7032d9	-0.0146605605
30	0xbb9916d5	-0.0046719112
31	0x3d277d32	0.04089088
32	0x3c0644c2	0.008195104
33	0x3d8e9c4c	0.06963405
34	0xbd2fd561	-0.042928103
35	0xbcc50e5f	-0.024054704
36	0xbd4659b2	-0.048425384
37	0xbc96aa45	-0.018391738
38	0x000651db	5.80377e-40
39	0x3d2cd5e2	0.042196162
40	0x3cabe8c6	0.020985018
41	0x3ca6e9ce	0.020375159
42	0x80059a0a	-5.14436e-40
43	0xbd625105	-0.055253047
44	0xbd57f38a	-0.05272249
45	0xbbfddf1d	-0.0077475444
46	0xbd3e78d8	-0.046501964
47	0xbaa3c35d	-0.0012494136
48	0x3c5b7878	0.013395421
49	0x3d22eeea	0.039778627
50	0xbd1bf662	-0.038076766
51	0xbd1cb76a	-0.038260855
52	0x3cd6326c	0.02614709
53	0xbd0abac1	-0.03386951
54	0x3d358d07	0.044323947
55	0x3e15d234	0.14630967
56	0xbcb46acd	-0.022023583
57	0x3c8009b9	0.015629636
58	0x3a39814c	0.00070764567
59	0xbd4d3175	-0.050095994
60	0x0005624d	4.94441e-40
61	0x3cfbcb0f	0.030736474
62	0x3c8b48b6	0.017002445
63	0x3c1c0e54	0.0095249005
64	0x0005e55b	5.41455e-40
65	0xbd18e2d8	-0.03732571
66	0x3c23af84	0.009990577
67	0xbd2f3c56	-0.04278215
68	0xbc4884d2	-0.012238698
69	0xbbd4b489	-0.006491248
70	0x3cf54a55	0.02994267
71	0x3b918c47	0.004441771
72	0xbb9f5eef	-0.004863612
73	0xbcf80fa3	-0.030280894
74	0xbcb4382c	-0.021999441
75	0xbba6119b	-0.0050680167
76	0x3bc5ce8c	0.006036585
77	0x3c2e4639	0.01063686
78	0xbac42dcf	-0.0014967265
79	0xbcc3bd1a	-0.023893882
80	0xba7ff774	-0.00097643514
81	0xbccd451f	-0.025057374
82	0x800563ad	-4.94934e-40
83	0xbbab1549	-0.0052210432
84	0xbc768db6	-0.015048435
85	0x3cc695d6	0.02424137
86	0x80057f6a	-5.04885e-40
87	0xbc558f7c	-0.013034698
88	0x3d120599	0.03564987
89	0xbd997ace	-0.07494126
90	0xbe283a25	-0.1642843
91	0xbcb6ddaa	-0.022322495
92	0xbd46e723	-0.048560273
93	0x3d1f97de	0.03896319
94	0xbdd13555	-0.102152504
95	0xbd10c3fe	-0.035343163
96	0xbc8912c3	-0.01673258
97	0xbd1b3b8c	-0.037898585
98	0x3d25a7f1	0.040443365
99	0x3d13478c	0.035956904
100	0x3d533e92	0.051573344
101	0x3c4a7688	0.012357362
102	0xbc1fa202	-0.0097432155
103	0xbc94ea27	-0.018178059
104	0x800569e6	-4.97167e-40
105	0x3dac1770	0.08402908
106	0x3dc0eaa4	0.09419754
107	0xbd9400af	-0.07226693
108	0x0005919d	5.11414e-40
109	0x3d13ffaf	0.03613251
110	0xbbfec299	-0.0077746627
111	0xbd140a98	-0.036142915
112	0xbdcbfa65	-0.09959868
113	0xbda3facf	-0.08006822
114	0x3d0fbc4b	0.03509168
115	0x3dc30272	0.09521951
116	0x3bac4683	0.005257429
117	0xbbfc0af1	-0.007691734
118	0xbc89e9d1	-0.016835125
119	0xbd856f66	-0.06515388
120	0x3d0b5273	0.034014177
121	0x3e1078f0	0.14108634
122	0xbce5a744	-0.02803386
123	0xbcf0a10c	-0.029373668
124	0xbbd6f376	-0.0065597845
125	0xbd0cb27f	-0.034349915
126	0x8005732c	-5.00493e-40
127	0xbcc25153	-0.023720419
128	0x3c34f851	0.011045531
129	0x3cdb8c6e	0.02680036
130	0x00056979	4.97014e-40
131	0xbc8c6d14	-0.017141856
132	0xbd2a7baf	-0.04162186
133	0xbd58b6ba	-0.052908637
134	0xbd762600	-0.060094833
135	0xbd649430	-0.055805385
136	0xbd277079	-0.040878747
137	0x3d48787c	0.048943028
138	0xba45a776	-0.0007539907
139	0xbd1195b1	-0.035543147
140	0x3c24e022	0.010063203
141	0x3c80474e	0.015659
142	0x3a678bbd	0.00088327733
143	0x3d78ad94	0.060712412
144	0xbd97d0ed	-0.07412896
145	0xbd9bc4c1	-0.07605887
146	0x3c47c218	0.012192272
147	0xbcb04d3b	-0.021521201
148	0x80067857	-5.94183e-40
149	0x3d677d4a	0.05651597
150	0x3b292e33	0.002581489
151	0x3d2d3ee9	0.042296324
152	0x00057662	5.01645e-40
153	0xbd5524aa	-0.05203692
154	0xbd1b0131	-0.037842933
155	0xbdaf9d4b	-0.08574923
156	0xbd1139c3	-0.035455476
157	0xbd119544	-0.03554274
158	0xbc97c6d6	-0.01852743
159	0x3d9e990b	0.077440344
160	0xbd9aa465	-0.07550887
161	0xbc387e94	-0.011260647
162	0xbc846f44	-0.016166337
163	0x3ce4d229	0.027932243
164	0x3d484017	0.048889246
165	0x3c22777a	0.009916181
166	0xbd9b287e	-0.07576083
167	0xbd445a81	-0.047937874
168	0xbc83dd9c	-0.016096883
169	0xbd80c59c	-0.06287691
170	0x00055b27	4.91877e-40
171	0x3d68f062	0.056869872
172	0x3d0012e8	0.03126803
173	0xbcbf11e5	-0.023323962
174	0x800578e9	-5.02552e-40
175	0xbcac1fcf	-0.021011261
176	0xba1bb489	-0.00059396826
177	0xbc8197de	-0.015819486
178	0xbd0078d6	-0.031365238
179	0xbcb315e4	-0.021861024
180	0x3b7b728b	0.0038367833
181	0xbd024537	-0.03180429
182	0x3c89b528	0.016810015
183	0xbcf00530	-0.029299349
184	0xbcd0bd54	-0.025480904
185	0x3c06dfd8	0.008232079
186	0x3b35bbec	0.0027730418
187	0xbce8f28e	-0.028435972
188	0xbd246aaf	-0.040140804
189	0xbcde4d57	-0.027136488
190	0xbcad790d	-0.021175886
191	0xbcccd666	-0.025004577
192	0x00057a87	5.03132e-40
193	0x3a11182e	0.0005534914
194	0x3cccfe01	0.025023462
195	0xbca5b4ed	-0.020227874
196	0x000574bb	5.01052e-40
197	0xbbbe13b0	-0.005800687
198	0xbd2014fc	-0.039082512
199	0xbbd7c755	-0.0065850415
200	0x3ca866c6	0.020556819
201	0xbc802d7b	-0.015646687
202	0xbcdc8ad2	-0.026921663
203	0x3c768584	0.015046481
204	0xbca4984c	-0.020092152
205	0xbd7e5905	-0.062096614
206	0xbca4ae6e	-0.020102706
207	0xbc44d860	-0.012014478
208	0xbb27d8ed	-0.0025611476
209	0x3db1d7db	0.08683749
210	0x3c124669	0.00892792
211	0xbc57df23	-0.0131757585
212	0xbc632521	-0.013863833
213	0xbcabdac1	-0.020978333
214	0x0005ad4d	5.21346e-40
215	0xbbd43f28	-0.0064772554
216	0xbc61a171	-0.013771401
217	0x3d231cfb	0.03982256
218	0x00056fd9	4.99301e-40
219	0x3c1bacc0	0.009501636
220	0xbcb5921c	-0.022164397
221	0xbd73f452	-0.059559174
222	0xbb8cf0d7	-0.0043011713
223	0xbcad3b4b	-0.021146437
224	0xbcea22b9	-0.02858101
225	0x3dcb1bef	0.09917437
226	0xbd1193c4	-0.03554131
227	0xbd318b2a	-0.043345608
228	0xbbccdb9f	-0.006251767
229	0x3cbbbb45	0.022916446
230	0x3cb6e255	0.02232472
231	0x3db55741	0.08854533
232	0x3d1c5127	0.03816333
233	0xbccd3ca8	-0.025053337
234	0xbd5c9a0c	-0.053857848
235	0xbd59183f	-0.05300164
236	0x00056e2a	4.98697e-40
237	0x3cb1faba	0.021726001
238	0xbd1da9de	-0.038492076
239	0x3d9ac950	0.075579286
240	0x00056354	4.9481e-40
241	0xbd295359	-0.041339252
242	0xba4cf2d9	-0.00078181695
243	0xbb10399f	-0.0022007
244	0xbb20e769	-0.0024551994
245	0xbc7b6932	-0.015344905
246	0x3c3b69f5	0.011438836
247	0x3cb07e15	0.021544496
248	0x3c898b05	0.016789922
249	0x3d856b50	0.06514609
250	0xbd6a6f4e	-0.057235055
251	0x3beab09a	0.007162166
252	0xbcc5b733	-0.024135208
253	0x3d153e27	0.036436226
254	0xbc92c6f7	-0.01791714
255	0x39added6	0.00033163157

model.gru.weight_hh_l0 f4 [150, 50]
0	0x3c035191	0.008015052
1	0x3c0d49ba	0.008623535
2	0x3c4e8bf4	0.01260661
3	0xbaff3a03	-0.0019472245
4	0x3cccee57	0.025015993
5	0xba414457	-0.0007372549
6	0xbc275a90	-0.010214463
7	0x3cddc444	0.027071126
8	0x3b79a511	0.0038092772
9	0xbc2c7b91	-0.010527507
10	0xbbb01920	-0.005374089
11	0xbcae7df3	-0.021300292
12	0x3c342943	0.010996166
13	0xbccb1e86	-0.024794828
14	0xbb4d8e70	-0.0031365417
15	0x3c82c122	0.015961234
16	0x3a8bf3d9	0.0010677531
17	0x3ccc6c24	0.02495391
18	0xbcdcdb63	-0.02696008
19	0x3ac03f9a	0.0014667392
20	0x3bccb542	0.0062471936
21	0x3b804104	0.0039140005
22	0xbc80fa6b	-0.015744409
23	0x3b737e90	0.0037154295
24	0xbb8b90e2	-0.0042592147
25	0x3ac7d1ce	0.0015245022
26	0xbb672ce8	-0.003527457
27	0x3cc34e1d	0.023840958
28	0xbbee0f7b	-0.007265029
29	0x3c3954dc	0.011311736
30	0x3c5a88ce	0.013338281
31	0xbcbdb959	-0.02315967
32	0x3bd6c7b7	0.0065545696
33	0x3c39493d	0.011308965
34	0xbbeee432	-0.0072903866
35	0x3bd3e14b	0.006466066
36	0x3ca24dcb	0.019812485
37	0x3c5b2b44	0.013377015
38	0xbc82950a	-0.015940208
39	0xbc2af276	-0.010433784
40	0xbc97698c	-0.018482946
41	0x3b1b4800	0.0023694038
42	0x3bb10c5e	0.0054030856
43	0x3c39fc50	0.01135166
44	0x3c754058	0.014968954
45	0xbc15b62c	-0.009137671
46	0xbc87bcbe	-0.016569491
47	0xbcf125f5	-0.029437045
48	0x3bf5dfdb	0.0075034923
49	0xb90311a1	-0.00012499701
50	0x3bba37e9	0.0056829345
51	0x39e41c3e	0.0004350859
52	0xbbcbd6e5	-0.006220686
53	0xbcb9207e	-0.022598501
54	0x3b743739	0.003726436
55	0x3ccf3d94	0.025297917
56	0x3a36a52a	0.00069673604
57	0xbada1b40	-0.0016640201
58	0xbb9be570	-0.0047575757
59	0xbc2aa44a	-0.010415146
60	0xbc4dd68d	-0.01256336
61	0xbc654fbd	-0.013996062
62	0x3c78b7a3	0.015180501
63	0xbb25a6a3	-0.0025276325
64	0xbc00ea6b	-0.00786839
65	0x3b151963	0.0022750727
66	0x3cd70a81	0.026250126
67	0x3b7e7350	0.0038826056
68	0xbbaaf25c	-0.00521688
69	0x3b8b6e4b	0.0042550913
70	0xbc12a558	-0.008950554
71	0xbbc7c129	-0.0060960245
72	0xbc063208	-0.008190639
73	0x3c80d310	0.015725642
74	0xbc7760af	-0.015098735
75	0xbc278602	-0.010224821
76	0xbc6a1935	-0.014288236
77	0x3c97ec85	0.018545398
78	0xbc08c16a	-0.008346895
79	0xbc03c1f1	-0.008041845
80	0x3c82d45d	0.015970403
81	0x3c5350d2	0.012897687
82	0x3c8ffeb4	0.017577507
83	0xbb882cdf	-0.0041557397
84	0xbc93c894	-0.018039979
85	0x3bd3086e	0.006440214
86	0x3b1f5079	0.002430944
87	0xb8016907	-3.085381e-05
88	0xbc98e845	-0.018665442
89	0xb9be7d02	-0.00036332762
90	0xbce69c7d	-0.028150791
91	0x3c6502f8	0.013977759
92	0x3be594e0	0.0070062727
93	0x3c8b5a64	0.017010875
94	0xbb4d92d2	-0.003136803
95	0xbc2a3880	-0.010389447
96	0xbc34aa8f	-0.011026992
97	0xbc29e0ee	-0.010368569
98	0x3ca0d1bd	0.019631261
99	0x3d00111b	0.031266313
100	0x3c9ebb05	0.019376287
101	0xbbf31ed2	-0.0074194456
102	0x3c237bbb	0.00997823
103	0xb9492a16	-0.00019184532
104	0x3c777304	0.015103105
105	0xbbb726a8	-0.005589325
106	0xb97f9fac	-0.00024378177
107	0x3c4a2a53	0.012339192
108	0x3c141aee	0.009039624
109	0xbbcb7022	-0.0062084356
110	0x3c0ee741	0.008722127
111	0xbd02715f	-0.0318464
112	0x3c9a4356	0.018830936
113	0xbd0570fb	-0.03257845
114	0x3b47472e	0.0030407417
115	0x3c85940b	0.016305944
116	0xbc589205	-0.0132184075
117	0x3c6e56d0	0.014547065
118	0xbc83107a	-0.015999068
119	0x3ccffce2	0.025389139
120	0x3c150ce5	0.009097313
121	0xbbf289ab	-0.007401665
122	0xbb09e3d9	-0.0021040349
123	0x3c10d9b5	0.008840968
124	0xba7b9fcc	-0.0009598702
125	0x3bb81e50	0.005618848
126	0x3bb81c44	0.005618604
127	0x3c943998	0.01809387
128	0x3c284558	0.010270439
129	0xbcf361fd	-0.02970981
130	0x3c8e8025	0.017395088
131	0xbcbeae4c	-0.02327647
132	0x3c24b982	0.010053994
133	0x3afb61bc	0.0019178907
134	0xbbc03098	-0.005865168
135	0x3d030e82	0.031996258
136	0x3cca3ba4	0.024686642
137	0x3ba78095	0.0051117637
138	0x3c6b356e	0.014356
139	0x3d1f5325	0.038897652
140	0xbcb802ec	-0.02246233
141	0x3bb4050a	0.0054937648
142	0x3cefb5b0	0.02926144
143	0xbb5e0551	-0.003387768
144	0xbbc80725	-0.0061043673
145	0xbbecd2ed	-0.0072272928
146	0xbc805c03	-0.015668875
147	0xbd08aa2a	-0.033365406
148	0x3c5dc819	0.0135364765
149	0xbba1200a	-0.0049171494
150	0xba9845e3	-0.0011617508
151	0x3c5de789	0.013543972
152	0xb937706a	-0.00017494117
153	0xbc09f01b	-0.008419062
154	0x3c22e11f	0.009941368
155	0xbbc3d239	-0.005975988
156	0xbb6f7e12	-0.003654365
157	0x3c31d4b1	0.010853932
158	0x370a6051	8.247866e-06
159	0xbb89a6b7	-0.004200782
160	0xbc300dce	-0.010745479
161	0xbc46f5b9	-0.012143546
162	0xbb52280f	-0.0032067334
163	0xbb297ce6	-0.0025861799
164	0xbb5d5cd3	-0.0033777251
165	0x3bd78db8	0.0065781735
166	0x3b230c40	0.0024879128
167	0x3afbb9b9	0.001920513
168	0xbbe22b22	-0.0069021145
169	0x3bbe26bc	0.0058029573
170	0x3ae3b272	0.0017371906
171	0xba4311aa	-0.0007441292
172	0xba31b9f2	-0.0006779722
173	0x3a8f164a	0.0010916677
174	0x3bb25156	0.005441825
175	0x3a8ba43e	0.0010653806
176	0xbc5bf94c	-0.013426136
177	0xbb396a92	-0.002829228
178	0xbbbe16da	-0.005801064
179	0x3bdbe777	0.0067109424
180	0x3bde5ec3	0.006786199
181	0xbc097b67	-0.008391238
182	0xbc4bda20	-0.012442142
183	0x3c2a9aa1	0.010412843
184	0xbc10f3ca	-0.008847186
185	0xbaff0d1b	-0.0019458862
186	0xb9e23d30	-0.00043151667
187	0x3c1049dc	0.008806672
188	0xbc1231c2	-0.008922996
189	0xbc772fa6	-0.015087044
190	0xbc2581e9	-0.010101774
191	0xbb39adb4	-0.0028332295
192	0xbc9676c0	-0.018367171
193	0x3c117861	0.008878798
194	0x3d019b6e	0.03164237
195	0xbc0e0d97	-0.008670232
196	0xbbb1300a	-0.005407338
197	0x3b2ceefe	0.0026387568
198	0xbba39504	-0.0049921293
199	0x3be5f328	0.007017512
200	0x3d171541	0.036885504
201	0xbcdf6aef	-0.02727267
202	0x3b8247f5	0.003975863
203	0x3b5dfc89	0.0033872447
204	0x3d268c19	0.04066095
205	0xbc035668	-0.008016206
206	0x3bb302d1	0.005462982
207	0x3c9c3c4f	0.019071726
208	0x3d0bdf50	0.034148514
209	0xbc08c11b	-0.008346821
210	0x3bfea35d	0.0077709393
211	0xbd00c4b0	-0.031437576
212	0x3ce44a37	0.02786742
213	0xbcd792df	-0.02631515
214	0xbc86757e	-0.016413447
215	0x3a46ec42	0.0007588306
216	0xbbe82ed0	-0.0070856586
217	0xbb434a71	-0.002979901
218	0x3c666408	0.014061935
219	0x3cdd0ff7	0.026985152
220	0x3bb13a99	0.0054085967
221	0xbcf089d1	-0.029362591
222	0xbc174d4a	-0.009234736
223	0x3c06798f	0.008207693
224	0xba8a868e	-0.0010568665
225	0x3b8e0003	0.0043334975
226	0x3a686188	0.0008864631
227	0x3d43379a	0.047660448
228	0x3b4cbdcc	0.0031241057
229	0xbd1b9118	-0.03798017
230	0x3cedc22c	0.029023252
231	0xbd0182c2	-0.03161884
232	0x3b060082	0.002044708
233	0xb9efd944	-0.00045747508
234	0x3b5ab829	0.0033373928
235	0x3d661f77	0.05618235
236	0x3d11fccc	0.035641477
237	0x3a46ef10	0.00075887237
238	0x3cabdf6e	0.020980563
239	0x3c8d4c0a	0.017248172
240	0xbcf747b2	-0.030185554
241	0xbcdf6792	-0.027271066
242	0x3d4c6a1d	0.049905885
243	0x39290354	0.00016118336
244	0xbc8522dd	-0.016251976
245	0x398f56a6	0.00027339644
246	0xbccf93f9	-0.025339114
247	0xbcdd19d6	-0.026989859
248	0x3d377ed9	0.044798706
249	0xbc492442	-0.012276711
250	0xbc3ed0c6	-0.011646455
251	0x3c0f5dd9	0.008750402
252	0x3cfab00f	0.03060153
253	0xbb45827c	-0.003013759
254	0x3cb0cdf5	0.021582583
255	0xbcb288f6	-0.021793824

model.gru.bias_ih_l0 f4 [150]
0	0xbc99f368	-0.018792823
1	0xbc06a3c1	-0.008217753
2	0x3ca7b36d	0.020471299
3	0xbd13dcae	-0.03609913
4	0xbd3063f9	-0.04306409
5	0x3b3d9fb0	0.0028934292
6	0xbc8a567d	-0.016886944
7	0x3b946d95	0.0045296648
8	0xbd15c374	-0.03656335
9	0xbc667d4a	-0.014067957
10	0xbce588d0	-0.028019339
11	0x3c88f92d	0.016720379
12	0x3c91a619	0.017779397
13	0xbd16c52a	-0.036809124
14	0xbd41f17b	-0.047349434
15	0x3d462178	0.048371762
16	0xbc9d68b6	-0.01921497
17	0x3c27066b	0.010194401
18	0xbdf908a3	-0.121598504
19	0xbc682686	-0.014169341
20	0x3d0ed15a	0.034867622
21	0xbb2bf2c3	-0.0026237227
22	0x3d54e457	0.051975574
23	0xbc90cb54	-0.01767508
24	0xbd516c0f	-0.051128443
25	0xbcc38321	-0.023866238
26	0xbd61b76f	-0.055106577
27	0xbd47863b	-0.048711997
28	0xbd22ea64	-0.039774314
29	0x3d221c0d	0.039577533
30	0x3cf5a8e6	0.029987764
31	0xbd6baec7	-0.057539728
32	0xbc4697d3	-0.012121159
33	0xbb241f68	-0.0025043134
34	0xbce0dc11	-0.027448686
35	0x3ce75554	0.02823893
36	0xbd8939cf	-0.06700479
37	0x3dc81713	0.09770026
38	0xbc0c5cb9	-0.008567029
39	0xbb4c2b6b	-0.0031153809
40	0xbd2fbad7	-0.042902794
41	0xbbc20ce2	-0.005921946
42	0xbbbef3ef	-0.005827419
43	0xbd01384d	-0.031547833
44	0xbc99958b	-0.018748065
45	0xbc83a390	-0.016069204
46	0xbd384102	-0.04498387
47	0x3cdc9ffc	0.026931755
48	0xbbef099b	-0.0072948462
49	0xbbec7d60	-0.0072170943
50	0x3cfa834a	0.030580182
51	0x3c6149e3	0.013750526
52	0x3e04803d	0.12939544
53	0x3c9427fc	0.018085472
54	0x3d683f83	0.056701194
55	0x3d1f61c3	0.038911592
56	0xbd42f3eb	-0.0475959
57	0x3ce25d4b	0.027632376
58	0xbcaaafcf	-0.020835785
59	0x3bc7ef6d	0.00610154
60	0xbba92c24	-0.0051627327
61	0x3d21a46a	0.039463438
62	0x3d241974	0.040063336
63	0x3ea0a592	0.3137632
64	0x3db1dade	0.08684324
65	0x3dc4e123	0.09613254
66	0x3d14c05c	0.03631626
67	0x3df6b5f8	0.120464265
68	0x3dfa13cf	0.122108094
69	0x3b5f6dab	0.0034092467
70	0x3cc2df04	0.023787983
71	0x3d2b9b58	0.041896194
72	0xbd562793	-0.052283835
73	0x3cd667ec	0.0261726
74	0x3ca1f07f	0.019767998
75	0x3d5c5b6e	0.05379813
76	0xbc01883a	-0.007906014
77	0x3df6fe9d	0.120602824
78	0x3d144d24	0.03620638
79	0x3c8228b7	0.015888555
80	0x3d360b27	0.04444423
81	0x3e364e74	0.17803365
82	0xbccc1774	-0.024913527
83	0x3d6912b1	0.05690259
84	0x3d17e160	0.03708017
85	0x3d618b10	0.05506426
86	0x3de9381d	0.11387656
87	0x3d1e2e3c	0.03861831
88	0x3d200721	0.0390693
89	0x3c576774	0.013147224
90	0x3cc40549	0.023928301
91	0xbb2e31aa	-0.0026579895
92	0x3d5d31b6	0.054002486
93	0x3cb76444	0.022386678
94	0x3d4251a9	0.04744116
95	0xbba4e13a	-0.005031732
96	0x3d01a255	0.031648953
97	0x3e6ca7bc	0.2311086
98	0x3bcee578	0.006313976
99	0x3b189787	0.0023283677
100	0xbc6abd86	-0.0143274125
101	0x3cfa5a1a	0.030560542
102	0xbd3c628a	-0.04599241
103	0x3cbaee8f	0.022818832
104	0xbd23ed84	-0.040021434
105	0xbd6a4f18	-0.057204336
106	0xbd8287d3	-0.06373563
107	0xbcf03eca	-0.029326815
108	0xba13d21e	-0.0005638915
109	0x3cd78ec7	0.026313199
110	0xbc8bbd86	-0.017058145
111	0x3cf0ccae	0.029394474
112	0x399fe8fc	0.0003050043
113	0xbc516eb8	-0.012782745
114	0x3d4d0d2a	0.050061382
115	0xbc6a0d4a	-0.014285395
116	0x3c9e07a8	0.01929076
117	0xbd1a60c9	-0.037689958
118	0x3d294ddf	0.04133403
119	0x3d7aced5	0.061232407
120	0xbc6ab500	-0.01432538
121	0x3c721a9f	0.014776855
122	0xbde14de1	-0.11001182
123	0xbd5ef1aa	-0.054429688
124	0xbd98d889	-0.07463176
125	0x3d13e273	0.03610463
126	0xbbc6e3c8	-0.006069634
127	0xbd4839a1	-0.048883084
128	0xbd0a0834	-0.03369923
129	0xbceeeb3a	-0.0291649
130	0xbd101661	-0.035177592
131	0x3d3cc26a	0.046083845
132	0x3d03ddaa	0.032193817
133	0xbd3d082a	-0.046150364
134	0x3c8c3bd2	0.017118368
135	0x3cfb71d9	0.030693935
136	0xbcf5ddf8	-0.03001307
137	0xbda8ca5c	-0.08241722
138	0x3d254931	0.040353004
139	0xbb97d950	-0.00463406
140	0xbcc4e43c	-0.024034612
141	0xbcc77fae	-0.024352875
142	0xbc1dddef	-0.009635433
143	0x3d0019ba	0.031274535
144	0xbc5ddead	-0.01354186
145	0xbc079f2e	-0.0082776975
146	0xbd8aa67b	-0.06770035
147	0xbd82774c	-0.0637041
148	0x3a0020d1	0.00048877025
149	0x3c37fb1b	0.011229302

model.gru.bias_hh_l0 f4 [150]
0	0xbc9d7c36	-0.019224267
1	0xbc3ecca4	-0.01164547
2	0xbcb519a7	-0.022106959
3	0xbd10f94b	-0.035393994
4	0x3ba99690	0.005175419
5	0xbcbc2aae	-0.02296957
6	0xbcc26fa2	-0.023734871
7	0xbc154a3c	-0.009111937
8	0xbd1b9a78	-0.03798911
9	0x3cd3e0b6	0.025863986
10	0xbd0502c6	-0.032473348
11	0x3cebd0ca	0.028786082
12	0xbd1a8911	-0.037728373
13	0xbe02b778	-0.127653
14	0xbd1ac181	-0.037782196
15	0xbcffb166	-0.03121252
16	0xbc0aaa60	-0.008463472
17	0x3b70ff6d	0.003677334
18	0xbd9f08bf	-0.0776534
19	0x3c9c0553	0.019045508
20	0x3cba0390	0.022706777
21	0xbc3a43dc	-0.011368718
22	0xbb9ff7a9	-0.0048818183
23	0x3ceac8ce	0.028660204
24	0x3b68025a	0.0035401792
25	0x3b7bf396	0.003844475
26	0xbd61d579	-0.055135224
27	0xbde409c6	-0.11134677
28	0xbd1fc648	-0.039007455
29	0x3c34d97b	0.0110381795
30	0x3daf9bf1	0.08574665
31	0xbdcd5ecd	-0.100278474
32	0xbc7c105c	-0.01538476
33	0xbd23a135	-0.03994866
34	0xbc62bae9	-0.013838508
35	0x3d1996ae	0.037497215
36	0xbd66da6a	-0.05636064
37	0x3c69ba3b	0.014265592
38	0xbcfebfa2	-0.031097237
39	0x3c8e40e6	0.01736493
40	0xbd1e44ca	-0.03863982
41	0x3bd2a66c	0.0064285304
42	0x3c215d7a	0.009848947
43	0xbcec24c4	-0.028826125
44	0xbc916756	-0.01774947
45	0xbc3cb986	-0.011518842
46	0xbd171af5	-0.036890943
47	0xbd7a93f0	-0.06117624
48	0xbbcfa8da	-0.0063372673
49	0xbbdaf675	-0.006682212
50	0x3ceb0063	0.028686708
51	0x3c738aa2	0.014864596
52	0x3e200561	0.15627052
53	0x3c904d83	0.017615085
54	0x3d87924d	0.066197015
55	0x3d1d9de6	0.03848066
56	0xbd4bde84	-0.049772754
57	0x3cda2ee4	0.026633687
58	0xbca493af	-0.020089952
59	0xbb16745c	-0.002295754
60	0xbb9276ff	-0.004469752
61	0x3d24df64	0.040252104
62	0x3d2c137b	0.042010766
63	0x3eac317d	0.33631507
64	0x3db499ca	0.088183954
65	0x3de28dcc	0.11062202
66	0x3d0bb26b	0.0341057
67	0x3e0936d6	0.13399825
68	0x3e01b4df	0.12666653
69	0x3bb274e2	0.0054460624
70	0x3caeafff	0.021324156
71	0x3d2a5075	0.041580636
72	0xbd615e8d	-0.05502181
73	0x3ccdd39c	0.025125317
74	0x3cdb2079	0.026748883
75	0x3d4a5174	0.049394086
76	0xbbfca540	-0.007710129
77	0x3e048b5a	0.12943783
78	0x3d14ad93	0.036298346
79	0x3c82759a	0.015925217
80	0x3d2eae2b	0.04264657
81	0x3e44a28d	0.19202633
82	0xbc849494	-0.016184129
83	0x3d4d8355	0.050174076
84	0x3d0b8e25	0.034071106
85	0x3c70c91e	0.014696388
86	0x3e0a2721	0.13491489
87	0xbc10d336	-0.008839419
88	0x3d140f16	0.0361472
89	0x3b8f61cb	0.0043756715
90	0x3c938063	0.018005555
91	0xbb36ca1f	-0.002789147
92	0x3d61211a	0.05496321
93	0x3cb47802	0.02202988
94	0x3d35c8d8	0.044380993
95	0xbb4f08be	-0.0031590904
96	0x3cfb13c0	0.030649066
97	0x3e6cf4f3	0.23140316
98	0x3bccd77e	0.0062512746
99	0x3c75d7b9	0.015005046
100	0xbcf76962	-0.030201618
101	0xbd63cb72	-0.055613942
102	0x3d1fbe9a	0.03900013
103	0xbb282594	-0.0025657164
104	0xbd8ec463	-0.069710515
105	0x3d997551	0.074930795
106	0x3dc44912	0.095842496
107	0xbc445a9b	-0.011984493
108	0xbd18782d	-0.037223984
109	0xbd8f1bec	-0.069877476
110	0xbbad19f8	-0.0052826367
111	0xbdf5823b	-0.1198773
112	0xbd7c1365	-0.061541934
113	0x3d7f98f5	0.06240173
114	0xbd3e8ddf	-0.046522018
115	0x3add14de	0.0016867181
116	0xbd1bbf4a	-0.038024224
117	0xbc5b4d4b	-0.013385127
118	0xbd7d2c90	-0.061810076
119	0xbde6f4a4	-0.1127713
120	0xbd0e6ac4	-0.03476979
121	0x3d46f5b1	0.048574153
122	0x3e05f7f0	0.13082862
123	0x3e165aed	0.14683123
124	0x3de160ed	0.11004815
125	0xbd6ac766	-0.057319067
126	0x3c847a0c	0.016171478
127	0x3d0f8b3c	0.035044894
128	0xbb58b6f6	-0.0033068038
129	0x3d6c3d6a	0.057675757
130	0x3daddb56	0.08489101
131	0x3d049b5c	0.032374725
132	0x3ce35205	0.02774907
133	0x3dbb7920	0.09153962
134	0xbce8d7ff	-0.028423307
135	0xbd513f44	-0.051085725
136	0xbc85528a	-0.01627471
137	0x3db3599d	0.08757327
138	0xbd20e4bc	-0.039280638
139	0xbca0aa1a	-0.01961236
140	0x3b927d80	0.004470527
141	0xbbfc4147	-0.0076982114
142	0x3d9b57a9	0.07585079
143	0xbd469fc4	-0.048492208
144	0xbbd62763	-0.006535457
145	0x3d27a5a4	0.04092945
146	0x3d3024ab	0.04300372
147	0x3e045f4c	0.12926978
148	0xbcd60784	-0.02612663
149	0x3d280f48	0.0410302

model.gru.weight_ih_l1 f4 [150, 50]
0	0x3b0b4f3a	0.002125694
1	0x3c01fe62	0.007934185
2	0x3b97a334	0.0046276096
3	0xbb779f5f	-0.0037784202
4	0x3c663403	0.0140504865
5	0x3b4c161e	0.0031141113
6	0xbbffbfaa	-0.0078048306
7	0x3bc8bcc1	0.006126017
8	0x3c13c32c	0.009018701
9	0x3b146f95	0.0022649516
10	0xbc0592a5	-0.008152639
11	0x3be36417	0.006939422
12	0x3c15064f	0.009095742
13	0xbc57e8b3	-0.013178038
14	0x3b6aa289	0.0035802445
15	0x3c4c13de	0.012455909
16	0x3b188514	0.002327268
17	0x3c0d9d00	0.008643389
18	0xbc34e847	-0.011041707
19	0xbc0fe85e	-0.008783428
20	0x3b9342b5	0.004494036
21	0x3bdcc7ba	0.0067376764
22	0x3a88f34f	0.0010448488
23	0x3b5ffe3c	0.0034178635
24	0xbb643188	-0.0034819562
25	0xbb9f60fb	-0.004863856
26	0xbb642b3e	-0.0034815813
27	0x3c542c36	0.012949994
28	0xb8776b21	-5.898916e-05
29	0x3b49245b	0.0030691836
30	0x3b14a82a	0.0022683241
31	0xbc668033	-0.014068651
32	0x3afd7ad6	0.0019338976
33	0x3bce3a05	0.0062935376
34	0xbc3a28a1	-0.011362226
35	0xbc4af7a5	-0.012388145
36	0x3c208bc6	0.00979895
37	0x3a804e4f	0.0009788963
38	0xbc25a849	-0.010110923
39	0xbba09555	-0.0049006143
40	0xbb15aedd	-0.0022839822
41	0xbbb1f8e3	-0.005431281
42	0x3b6ef62b	0.0036462646
43	0x3b38aa90	0.0028177835
44	0xb9901bc0	-0.00027486496
45	0xbb247a97	-0.0025097483
46	0xbb91a783	-0.004445018
47	0xbc78e878	-0.015192144
48	0x3ab2e4e5	0.0013648538
49	0x3c050c73	0.008120644
50	0x3bbe5b0f	0.005809195
51	0x39d1ca9b	0.0004001454
52	0x3c5d431a	0.013504768
53	0xbbe4f59c	-0.0069872867
54	0x3cb9a4d8	0.022661611
55	0xb9dcbf3b	-0.00042104148
56	0xbc3dcb2f	-0.011584087
57	0xbc80da4e	-0.015729096
58	0xbc888312	-0.016664062
59	0xbb24f7f2	-0.00251722
60	0x3b46124a	0.0030223303
61	0xbb58281c	-0.0032982891
62	0x3c1873f1	0.009304986
63	0xbca3591e	-0.019939955
64	0x3c805471	0.015665265
65	0x3cd0509b	0.02542906
66	0x3c0c76ec	0.008573275
67	0x3c8241c7	0.015900506
68	0xbd103aa0	-0.03521216
69	0x3c9c4b3a	0.01907884
70	0xbc4a4c99	-0.012347364
71	0x3c305984	0.01076353
72	0xbb4544ba	-0.0030100779
73	0xbc22a854	-0.009927828
74	0xbc12efec	-0.008968335
75	0xbcbe0dc3	-0.023199921
76	0x39366b62	0.00017396876
77	0x3d12b6ed	0.035818983
78	0x3a466dab	0.00075694424
79	0xbb6e4245	-0.0036355418
80	0xbbdbebc7	-0.0067114565
81	0xbc7c23c2	-0.015389385
82	0x3c6d99b6	0.01450198
83	0xbc155000	-0.009113312
84	0xbc01304a	-0.007885048
85	0xbc3cd88a	-0.011526236
86	0x3c5eda85	0.013601904
87	0x3c7f9e37	0.015601686
88	0x3bedc719	0.0072564003
89	0x3c2e8417	0.01065161
90	0xbb0a4814	-0.002110009
91	0x3c3c1bf3	0.011481273
92	0xbba74339	-0.005104449
93	0xbcb572f3	-0.022149539
94	0x3bb0bfbe	0.005393951
95	0xbbebf69a	-0.007201028
96	0x384ec5d8	4.9298484e-05
97	0xbd1b4bcf	-0.037914094
98	0xbc89be91	-0.016814502
99	0x3c313519	0.010815882
100	0xbba2be76	-0.0049665524
101	0x3c24cb61	0.010058255
102	0xb98677ae	-0.0002564764
103	0xbcb324a2	-0.021868054
104	0x3b973175	0.00461405
105	0x3c728704	0.014802698
106	0xbbacdf8d	-0.005275673
107	0x3c934f34	0.017982103
108	0xbc8a7f71	-0.016906472
109	0xbab0bca6	-0.0013483956
110	0xbc92a056	-0.01789872
111	0x3c9e2fee	0.019309964
112	0x3be209eb	0.006898155
113	0xbc0af441	-0.008481086
114	0xbb7d0864	-0.0038609738
115	0x3c8105b1	0.015749784
116	0x3cb47ae2	0.022031251
117	0x3b9127d6	0.0044297976
118	0xbcab039c	-0.020875745
119	0xbc19ff7e	-0.009399293
120	0xbc29a3d8	-0.010354005
121	0xbb9b03ef	-0.0047306935
122	0xbccba375	-0.024858216
123	0x3c7c8e69	0.015414813
124	0xbc59005d	-0.0132447155
125	0xbb9bf429	-0.004759331
126	0xbc31e407	-0.010857589
127	0x3ad8d048	0.0016541565
128	0xb927d2fa	-0.00016004956
129	0x3be6e66e	0.0070465123
130	0x3c64db91	0.013968364
131	0xbc0be4e7	-0.008538461
132	0x3af6378e	0.0018784867
133	0x3c12ae95	0.008952756
134	0xbc7d7888	-0.015470631
135	0xbca51705	-0.020152578
136	0x3b0b66c2	0.0021270965
137	0x3d23b5e0	0.03996837
138	0xbca18463	-0.019716447
139	0xbcfb152d	-0.030649746
140	0xbccfc3cd	-0.02536192
141	0x3c490c4e	0.012271
142	0x3ab43661	0.0013749116
143	0x3cf6742f	0.030084698
144	0x3c6eb3d5	0.0145692425
145	0xbcfac9ef	-0.030613868
146	0xb9b117f1	-0.00033777909
147	0x3c818d63	0.015814489
148	0x3ca34f02	0.019935135
149	0x3cb226d7	0.021747036
150	0x3b92425a	0.004463476
151	0x3c3edff3	0.011650073
152	0xbbd2cc8c	-0.0064330753
153	0x3c7e1956	0.01550897
154	0x3c90db42	0.017682675
155	0x3c53c797	0.012926004
156	0x3bf8a745	0.0075882995
157	0xbc0b8aba	-0.008516962
158	0x3c2a1a2a	0.010382215
159	0x3c8f4484	0.017488725
160	0x3c9d750e	0.019220855
161	0x3d0d97b4	0.034568503
162	0x3c0e4cd8	0.008685313
163	0xbba3da09	-0.005000357
164	0xbc05dc6a	-0.008170227
165	0x3c7cfc9c	0.015441086
166	0x3ba6ceec	0.005090585
167	0x3c1614f7	0.009160272
168	0xbc02b52b	-0.007977764
169	0xbcd89104	-0.026436336
170	0x3ba6fb29	0.0050958586
171	0x3bc3bb86	0.0059732823
172	0x3b05f149	0.0020438007
173	0x3b8ad8b6	0.0042372597
174	0x3d114af4	0.03547187
175	0x3c24b22f	0.010052248
176	0x3c004eae	0.007831259
177	0x3c813f27	0.015777184
178	0x3cc342fa	0.023835648
179	0x3c968263	0.01837272
180	0xba01646f	-0.0004935925
181	0xbbc47dd7	-0.0059964466
182	0xbce999ac	-0.02851566
183	0x3c0cfccb	0.008605192
184	0x3b2ee167	0.0026684643
185	0x3c453cf6	0.01203846
186	0x3c871e2a	0.016493876
187	0x3b9289d6	0.0044719977
188	0xba5d7459	-0.0008447818
189	0xbbed77fa	-0.0072469683
190	0x3cd4d1f0	0.025979012
191	0xbb900bc5	-0.0043959343
192	0xbcc199c1	-0.023632886
193	0x3be0ce14	0.006860504
194	0x3c27dcf9	0.010245555
195	0x3c5a4437	0.013321928
196	0x3c8e71db	0.017388275
197	0xbb3d335e	-0.0028869729
198	0x3b01479c	0.001972652
199	0xbc9d4a63	-0.01920051
200	0xbc4076ac	-0.011747044
201	0x3c8c972b	0.017161926
202	0x3c7e392c	0.0155165605
203	0x3bf9586c	0.0076094177
204	0x3c78f394	0.015194792
205	0x3ca9e608	0.02073957
206	0x3bf8e435	0.007595564
207	0x3c1536b8	0.009107284
208	0xbc659c9f	-0.014014392
209	0xb72b8a44	-1.0224587e-05
210	0x3acd3361	0.0015655571
211	0x3ca094b5	0.019602159
212	0x3c8dc50c	0.017305873
213	0xbca67bcb	-0.020322701
214	0x3cbdb622	0.023158137
215	0x3c964f78	0.01834844
216	0x3b1bfade	0.0023800652
217	0x3cbb239c	0.022844128
218	0xbca3b50b	-0.019983789
219	0xbb9f8679	-0.0048683253
220	0xbc9449f8	-0.018101677
221	0x3b71a182	0.0036869948
222	0xbc761e67	-0.015021897
223	0xbbbfe72a	-0.0058564143
224	0x3a141501	0.0005648882
225	0x3a77b70f	0.000944958
226	0xbc1bc404	-0.009507183
227	0x3d01b014	0.03166206
228	0x3c8bcb03	0.017064577
229	0x3c2ddc33	0.010611582
230	0x3cae588c	0.021282457
231	0xbc2c9572	-0.010533677
232	0xbb317cbd	-0.0027082406
233	0x3c8c3d46	0.017119061
234	0xbc97f69e	-0.018550213
235	0xbc8cf0b3	-0.017204618
236	0x3cf2d738	0.02964364
237	0x3c95cd1e	0.018286284
238	0x3c820c07	0.015874876
239	0xb93442e6	-0.0001719106
240	0x3c7d6f27	0.015468395
241	0x3c7cd295	0.015431066
242	0xbc2b7aee	-0.01046632
243	0xbb929405	-0.0044732117
244	0x3c722adb	0.014780725
245	0xb9a60fc2	-0.00031673728
246	0x3c16aa9e	0.009195952
247	0xbc5e22b4	-0.013558079
248	0xbbf05069	-0.0073338044
249	0x3bebe171	0.0071985056
250	0xbb123b96	-0.0022313348
251	0x3a632eb6	0.0008666323
252	0xbba0ba1e	-0.0049049994
253	0xba818c8e	-0.0009883808
254	0x3bb86e87	0.0056284103
255	0xbb79a30c	-0.0038091568

model.gru.weight_hh_l1 f4 [150, 50]
0	0xbb9d86f1	-0.004807346
1	0xba91073c	-0.0011064778
2	0x3b18fed4	0.0023345249
3	0xba4c73fb	-0.0007799265
4	0x3b966367	0.0045894864
5	0x3b085784	0.0020804117
6	0x3bcda41c	0.006275667
7	0xbc7f4181	-0.015579582
8	0xbb053700	-0.0020326972
9	0xbbb3e261	-0.005489633
10	0xbba07e96	-0.0048979027
11	0x3aabed23	0.0013116937
12	0x393d9c3b	0.00018082645
13	0x3bdd04d3	0.00674496
14	0x3b49faa7	0.0030819566
15	0xbb29e9a4	-0.0025926614
16	0xbbe56b13	-0.0070012896
17	0x3b8c3505	0.0042787814
18	0x3c827a2a	0.015927393
19	0xbb9c159a	-0.0047633173
20	0xbc1bc72f	-0.009507938
21	0xbc51f4da	-0.012814725
22	0x3bbdf9da	0.005797607
23	0x3a95f32e	0.0011440271
24	0x3b69734d	0.0035621703
25	0xba228737	-0.0006199958
26	0xba34c72e	-0.0006896135
27	0x3b613390	0.003436301
28	0xbc0f3b19	-0.008742117
29	0x3b28199c	0.002565003
30	0xbabd3a29	-0.0014436889
31	0x3bab6f6b	0.005231788
32	0x3ba427ba	0.0050096186
33	0x3b95b8e2	0.004569159
34	0xbb6c75aa	-0.0036080875
35	0xbc10ebb5	-0.008845259
36	0xbc5362fb	-0.012902017
37	0x3b5af7cb	0.0033411856
38	0xbb8ee0f3	-0.004360312
39	0xb9efa9a2	-0.0004571202
40	0x3b8c15ca	0.0042750584
41	0xbb44143b	-0.0029919285
42	0x3bbd11ee	0.0057699597
43	0x3c0558a1	0.008138807
44	0xbb1d0bba	-0.0023963288
45	0xba27ff85	-0.000640862
46	0x3aa479a0	0.0012548454
47	0xba6e9e70	-0.00091025885
48	0x3b63493a	0.0034681098
49	0xbb3a5550	-0.0028432198
50	0xbae43b30	-0.0017412659
51	0xbcbc9bdb	-0.023023536
52	0x3bc4257d	0.0059859143
53	0x3c89cc31	0.016820999
54	0xbbb666b8	-0.0055664442
55	0xbc86b1f5	-0.016442278
56	0xbb69ff85	-0.003570528
57	0x3b30d532	0.0026982543
58	0xbb4c51e6	-0.0031176745
59	0x3b9c2ddf	0.0047662104
60	0x3b71fd35	0.0036924605
61	0xbaacc98d	-0.0013182625
62	0xbc00cb85	-0.007861023
63	0xbb368f20	-0.0027856305
64	0x3c486ded	0.01223324
65	0x3bf4221e	0.007450356
66	0x3ab34445	0.0013676962
67	0xbbaf21be	-0.0053445986
68	0x3c68e543	0.0142148165
69	0x3b0af91a	0.0021205605
70	0x3ca02989	0.019551056
71	0xba51ec0b	-0.00080078904
72	0xbc03232e	-0.008003993
73	0xbc16c606	-0.009202486
74	0x3bd66f8a	0.006544058
75	0x3c4b9d24	0.012427602
76	0x3b5d0d2a	0.003372977
77	0x3c8019dd	0.015637333
78	0x3c0e4d88	0.008685477
79	0xbc9a6491	-0.018846782
80	0x3acdb8fe	0.0015695391
81	0xbc626d96	-0.013820073
82	0x3c4397a5	0.01193801
83	0xbc2f79b9	-0.010710173
84	0x3a57f324	0.000823783
85	0xbc06c74c	-0.008226227
86	0xbc58d379	-0.013234013
87	0xbcaf1f91	-0.021377357
88	0xbc3bba10	-0.011457935
89	0x3ca72086	0.02040125
90	0xbb04fe26	-0.0020293086
91	0x3b1e12c8	0.0024120081
92	0xbc5f487c	-0.013628121
93	0xbbff6824	-0.007794397
94	0xbca6aed3	-0.020347035
95	0x3c847008	0.016166702
96	0x3b82c014	0.0039901827
97	0xbc0ba6a1	-0.008523614
98	0x3b1b520c	0.0023700027
99	0x3c32817c	0.010895129
100	0xbbb5adb6	-0.0055443896
101	0xbbc7d61c	-0.006098522
102	0xbb66c956	-0.003521522
103	0xbbcbec5a	-0.0062232437
104	0xbc0d26ed	-0.008615238
105	0x3aedcb61	0.0018142277
106	0x3aeea3ad	0.0018206738
107	0xbc49e98c	-0.012323748
108	0x3b841d84	0.004031839
109	0xbc4948c1	-0.012285412
110	0xbbcb416e	-0.006202868
111	0xbb69cbd5	-0.0035674472
112	0x3c2307d0	0.009950593
113	0x3b6fee3b	0.0036610502
114	0xbad4c80c	-0.0016233935
115	0x3bac7c63	0.0052638515
116	0x3b3011a0	0.0026865974
117	0xbb34e0e5	-0.0027599868
118	0x3be78c1f	0.0070662643
119	0xbbe61040	-0.00702098
120	0xbbc68421	-0.0060582315
121	0xbc034fc3	-0.008014622
122	0x3c8d8c0f	0.0172787
123	0xbbc5b86e	-0.0060339486
124	0x3a8a1277	0.0010534067
125	0xb9ef6209	-0.00045658674
126	0x3b403cd4	0.0029333131
127	0x3c3f5eec	0.011680346
128	0xbc0b7e2b	-0.0085139675
129	0x38d382f4	0.00010085656
130	0x3b2ccbcc	0.002636659
131	0x3bd61318	0.006533038
132	0xb9a130cb	-0.00030744667
133	0x3be43bd8	0.0069651417
134	0xbbb4f4af	-0.0055223326
135	0xbaef4b91	-0.0018256773
136	0xbb39e8bd	-0.0028367483
137	0x3c086df5	0.008326997
138	0x3b88cc7a	0.004174766
139	0xba2f7eba	-0.0006694604
140	0x3bc359eb	0.005961647
141	0xbc2ac712	-0.010423439
142	0x39f915b0	0.0004750914
143	0x3a9cffc3	0.0011978078
144	0xbab8d32e	-0.0014101022
145	0x3b84f5cb	0.004057621
146	0x3a26e638	0.0006366703
147	0x3b43a54c	0.0029853163
148	0x3b324786	0.0027203276
149	0x3b2f08cc	0.0026708124
150	0x3c54949c	0.012974884
151	0x3c4aeb17	0.012385151
152	0xbcad688b	-0.021168014
153	0xbd273e4f	-0.040830906
154	0xbcc6d158	-0.024269745
155	0x3c85ffdc	0.016357355
156	0xbc37e2d1	-0.011223511
157	0x3b83c904	0.0040217657
158	0x3bd3599e	0.006449892
159	0x3c1110d3	0.008854109
160	0x3c4a8ca6	0.012362635
161	0xbca1a824	-0.019733496
162	0x3c863344	0.016381867
163	0xbcf6af93	-0.030113017
164	0xbcdd2a12	-0.0269976
165	0x3b3af854	0.0028529363
166	0x3b885b57	0.004161279
167	0x3ba1da7f	0.004939377
168	0x3bec24e9	0.0072065485
169	0x3c0ccd45	0.008593862
170	0x3bb8c9f7	0.0056393105
171	0x3cb0e451	0.021593245
172	0xbc0f5889	-0.008749136
173	0x3d090786	0.03345444
174	0xbc4e2c39	-0.012583786
175	0xba8e82ec	-0.0010872758
176	0xbb6966e2	-0.0035614301
177	0xbbd46d6f	-0.006482772
178	0x3b6a3b72	0.0035740999
179	0x3cd7a2e8	0.026322797
180	0x3c000caf	0.007815524
181	0xbbba8318	-0.005691897
182	0xbc3e3373	-0.011608946
183	0xba191f27	-0.0005841129
184	0x3c602c08	0.013682373
185	0xbba22fa7	-0.0049495283
186	0xba87599e	-0.0010326391
187	0x3d0d54b1	0.034504596
188	0x3cdc058f	0.02685812
189	0xbb45fc09	-0.003021004
190	0xbbd9b8bf	-0.006644338
191	0x3c4dd0ca	0.012561986
192	0x3c13d1ec	0.009022217
193	0xbc789111	-0.015171305
194	0x3cd7f7af	0.026363222
195	0xbae9527a	-0.0017801069
196	0x3bf3424a	0.0074236738
197	0x3c7428fd	0.0149023505
198	0xbbfe33e9	-0.007757653
199	0xba3f0a91	-0.00072876463
200	0x3c838530	0.01605472
201	0xbb461e32	-0.00302304
202	0xbc137c8e	-0.009001864
203	0xbc743112	-0.014904277
204	0xbcca81b7	-0.024720056
205	0xbb335410	-0.0027363338
206	0xbc859654	-0.016307034
207	0xbabbc1cf	-0.0014324727
208	0xbc432041	-0.011909545
209	0x3c356568	0.01107154
210	0x3ca76ca7	0.020437552
211	0xbc8328c7	-0.016010655
212	0xbb88b0dc	-0.004171474
213	0xbcda47ae	-0.026645508
214	0xbc3143fb	-0.01081943
215	0x3c6111b9	0.013737136
216	0x3c99f5ff	0.018794058
217	0xbb4a2c0e	-0.0030849013
218	0x3c203bdb	0.009779896
219	0x3c0d10a1	0.008609922
220	0x3cf46160	0.029831588
221	0x3d1c2521	0.038121346
222	0xbc0006a6	-0.007814085
223	0x3c7315b3	0.014836716
224	0xbcc4f455	-0.024042288
225	0x3c9ab02d	0.018882835
226	0x3c81bf30	0.015838236
227	0x3aa5ca90	0.0012648869
228	0x3c9d8dac	0.019232593
229	0x37519a61	1.2493315e-05
230	0x3bacb5d5	0.0052706995
231	0xbceb00c5	-0.02868689
232	0xbc4fbfae	-0.012679977
233	0x3ac71ea9	0.0015191633
234	0x3b3de02b	0.0028972726
235	0xbc11899f	-0.008882909
236	0xbba7c889	-0.005120341
237	0x3b3b4418	0.0028574523
238	0x3a926623	0.0011169355
239	0x3c9781d8	0.018494532
240	0xbcbb824a	-0.022889275
241	0x3acc1fa1	0.0015573391
242	0xbbbd8cd9	-0.0057846126
243	0xbcb3892b	-0.021915993
244	0x3c5fa75f	0.013650744
245	0x3c393c36	0.011305859
246	0x3bb2f8d7	0.005461793
247	0x3ada995e	0.0016677787
248	0x3b499ddf	0.0030764265
249	0x3c18b99d	0.009321597
250	0xbb9ea3a9	-0.004841287
251	0xba7a9d61	-0.00095601944
252	0xba36351e	-0.0006950664
253	0x3953d28b	0.00020200961
254	0xb9410d05	-0.00018410764
255	0x3b8003ad	0.003906688

model.gru.bias_ih_l1 f4 [150]
0	0xbd058390	-0.03259617
1	0xbcebd15a	-0.02878635
2	0xbd60fdf5	-0.054929692
3	0x3d13421c	0.03595172
4	0xbbcd886b	-0.006272366
5	0xbc902e39	-0.017600166
6	0xbc031000	-0.00799942
7	0x3e1cc58a	0.1530973
8	0xbc4a0528	-0.012330331
9	0xbbbf3976	-0.0058357073
10	0xbcf700f6	-0.030151825
11	0xbc9eace1	-0.019369544
12	0xbcab4adf	-0.020909725
13	0xbbd5506f	-0.0065098326
14	0x3c727fb2	0.014800953
15	0x3aa071cb	0.0012240944
16	0x3c9d0f39	0.019172298
17	0xbd598379	-0.053103898
18	0xbdd2eac0	-0.10298681
19	0xbd1715f4	-0.03688617
20	0xbcde4b53	-0.027135527
21	0x3b64b4c1	0.0034897777
22	0x3d1caa83	0.03824855
23	0xbd00d09d	-0.03144895
24	0xbd402d92	-0.04691846
25	0xbcc48a97	-0.023991866
26	0x3d0def23	0.034651887
27	0xbc631cc9	-0.013861843
28	0xbb85453b	-0.004067091
29	0x3c3b8272	0.011444675
30	0xbafea66c	-0.001942826
31	0x3c81bb4f	0.015836386
32	0xbbc7a8b3	-0.0060931086
33	0x3de46715	0.11152474
34	0xbdf3b92e	-0.119005546
35	0xbdd1524f	-0.10220777
36	0xbe7efbae	-0.24900696
37	0xbcc3e48d	-0.023912692
38	0x3c75a58c	0.014993083
39	0xbaa03c57	-0.0012225014
40	0x3c782ad1	0.015146927
41	0x3d6ee9f6	0.05832859
42	0x3c8a9731	0.016917797
43	0x3d2a4887	0.041573074
44	0xbc23c84d	-0.009996486
45	0x3d47347f	0.04863405
46	0xbb41b3cd	-0.0029556633
47	0xbc977a57	-0.018490953
48	0x3c605de3	0.013694259
49	0xbc00e39f	-0.007866769
50	0xbb2836b7	-0.0025667378
51	0x3d843049	0.06454522
52	0x3e301d95	0.17198785
53	0xbc85aaa9	-0.016316729
54	0x3b20b2dc	0.002452067
55	0x3d05c39b	0.032657247
56	0x3c153608	0.00910712
57	0x3e7b6e86	0.2455388
58	0x3da4e686	0.08051781
59	0x3bf24170	0.0073930547
60	0x3d3bedaa	0.04588095
61	0x3dfa6668	0.12226564
62	0x3b9fefa1	0.004880861
63	0x3cfa89df	0.03058332
64	0x3c4b4e53	0.012408811
65	0x3d70486a	0.05866281
66	0x3c5fdd6c	0.013663631
67	0x3defad77	0.11703008
68	0x3f338c2c	0.7013576
69	0x3da87665	0.08225707
70	0x3cc61d77	0.024183972
71	0x3d23916c	0.039933607
72	0x3de2c9ac	0.11073622
73	0x3d9bb47a	0.076027825
74	0x3c343c81	0.011000753
75	0xbc6623e2	-0.014046641
76	0x3d2ae61b	0.041723352
77	0xbb8d1b0d	-0.004306203
78	0x3b63b10c	0.003474298
79	0x3dce5c8b	0.10076245
80	0x3d801885	0.06254677
81	0xbd253c3c	-0.040340647
82	0x3d223f25	0.039611
83	0x3e0ca2c8	0.13733971
84	0x3ea2cdbf	0.31797597
85	0x3ec6ec02	0.38851935
86	0x3f251036	0.6447786
87	0xbbe4ff9f	-0.00698848
88	0x387cecc7	6.0301998e-05
89	0xbaa87f79	-0.0012855373
90	0xbc8a34e1	-0.016870918
91	0x3e24f70f	0.1610987
92	0x3bb2b3be	0.005453556
93	0x3d031956	0.032006584
94	0x3d6f7c66	0.058468245
95	0x3c1a9861	0.009435744
96	0x3c4c05b8	0.012452535
97	0x3e13a3f7	0.14418016
98	0x3d2fb31f	0.042895433
99	0x3d699b1d	0.057032693
100	0xbc903d86	-0.017607462
101	0xbd1b2a46	-0.037882112
102	0xbcf10717	-0.029422326
103	0xbd47e1b0	-0.048799217
104	0xbd132fcf	-0.035934266
105	0x3cd43d0d	0.025908018
106	0x3d5e189e	0.054222696
107	0x3e06d2ec	0.13166398
108	0xbca53a79	-0.020169483
109	0x3c56e814	0.013116855
110	0x3d256e18	0.040388197
111	0xbc9daad9	-0.019246506
112	0x3d16f4d7	0.03685459
113	0x3c1ff7dd	0.009763685
114	0xbd21326b	-0.039354723
115	0x3bd9bd7c	0.0066449028
116	0xbd39908f	-0.045303877
117	0x3d6956c7	0.056967523
118	0xbe077ac6	-0.13230428
119	0x3d02a045	0.031891126
120	0xbc2f3b83	-0.010695341
121	0xbc42d38c	-0.011891257
122	0xbd393cc9	-0.045223985
123	0xb9a11ba0	-0.00030728895
124	0x3b7ce2c6	0.0038587316
125	0x3ca263e0	0.019823015
126	0xbd79df23	-0.061003815
127	0x3ca94a28	0.020665243
128	0xbce4776f	-0.027888982
129	0x3d482043	0.048858892
130	0x3cea5773	0.028606152
131	0xbceb8f8f	-0.028754978
132	0xbda1ffc9	-0.07910115
133	0xbdf44ba9	-0.119284935
134	0x3d671737	0.056418624
135	0x3d2ace4c	0.041700646
136	0x3e345e50	0.17614102
137	0xbd93a7c2	-0.07209732
138	0xbcd9418f	-0.026520519
139	0x3d029513	0.03188045
140	0xbd64eee2	-0.05589188
141	0x3d5d78ea	0.05407039
142	0x3d3e8680	0.046514988
143	0xbd849294	-0.0647327
144	0x3c5adef5	0.013358821
145	0x3d7529ea	0.059854425
146	0xbd828868	-0.06373674
147	0xbc525687	-0.012838013
148	0xbb41ad6c	-0.002955283
149	0xbbceaa9d	-0.00630696

model.gru.bias_hh_l1 f4 [150]
0	0xbcdbc08d	-0.026825214
1	0xbd6e5259	-0.058184
2	0xbd0bcff3	-0.034133863
3	0xbc07266a	-0.008248905
4	0xbccd7240	-0.025078893
5	0xbca4a062	-0.020096008
6	0x3b7480ff	0.0037308333
7	0x3e15af3a	0.14617625
8	0xbbffef51	-0.007810511
9	0xbc519949	-0.012792894
10	0xbc979ebb	-0.018508306
11	0xbd713f1a	-0.05889807
12	0xbcd765d8	-0.02629368
13	0xbbce8f12	-0.0063036764
14	0x3c8fe24b	0.01756396
15	0x3af251d9	0.0018487527
16	0xbc032461	-0.008004279
17	0xbd0ee3dc	-0.034885272
18	0xbe7002b1	-0.23438527
19	0xbd3ce2cc	-0.046114728
20	0xbcde1cdc	-0.02711337
21	0x3b4fa20f	0.0031682288
22	0x3d5ec94f	0.0543912
23	0xbda712ff	-0.0815792
24	0xbd40c4f7	-0.04706284
25	0xbcd9f5e1	-0.026606502
26	0x3d26bd24	0.040707722
27	0xbcd0386a	-0.025417525
28	0xbbdb686c	-0.0066957977
29	0x3c0357a2	0.008016499
30	0xbc2bf354	-0.010495026
31	0x3c3cabd1	0.011515574
32	0x3cc4fa54	0.024045147
33	0x3de9820f	0.1140176
34	0xbe154761	-0.1457801
35	0xbd0ea5ab	-0.034825962
36	0xbe0b1515	-0.13582261
37	0xbd140e11	-0.036146227
38	0x3c4472ee	0.011990292
39	0x3ce528a0	0.027973473
40	0x3c5b0186	0.013367062
41	0x3d17732a	0.036975063
42	0x3b322d08	0.0027187485
43	0x3d638c5c	0.05555378
44	0xbbe707d7	-0.007050495
45	0xbc6c5456	-0.014424404
46	0x3c93afd7	0.018028183
47	0xbcbf02a4	-0.023316689
48	0x3c5cf73f	0.013486682
49	0xbbd7a9ec	-0.0065815356
50	0xbb0830b7	-0.002078099
51	0x3d5ea1e9	0.05435363
52	0x3e429df2	0.19005564
53	0xbc8c514b	-0.017128607
54	0x3b724e71	0.0036973024
55	0x3d05f81d	0.032707322
56	0x3c3381ad	0.01095621
57	0x3df81cb4	0.1211485
58	0x3db019b9	0.08598656
59	0x3c6313ac	0.013859671
60	0x3d77cb87	0.060496833
61	0x3e07908f	0.13238738
62	0x3b984f13	0.0046480983
63	0x3cf7f869	0.030269818
64	0x3c35c4b9	0.011094266
65	0x3d7a1c9a	0.061062433
66	0x3c5e72c4	0.013577167
67	0x3df6ea64	0.12056425
68	0x3f18b36f	0.59648794
69	0x3d9ed017	0.07754534
70	0x3cc6640b	0.024217626
71	0x3d214384	0.03937103
72	0x3e08bd80	0.13353539
73	0x3e2092d8	0.15681016
74	0x3c60d391	0.013722316
75	0xbc81c5b7	-0.015841348
76	0x3d2c8e2d	0.042127777
77	0xbbe59eb8	-0.007007446
78	0x3bc5cfeb	0.0060367486
79	0x3dc6216c	0.096743435
80	0x3d8ecbb9	0.06972451
81	0xbd25461d	-0.04035007
82	0x3d235509	0.039876018
83	0x3db01414	0.085975796
84	0x3e9ca52a	0.3059476
85	0x3ea3b90a	0.3197711
86	0x3f418ff6	0.7561029
87	0xbbe4b3b5	-0.0069794306
88	0xbafba2e9	-0.0019198331
89	0xbb81146f	-0.0039392035
90	0xbc81b2ab	-0.015832266
91	0x3e3c6ddb	0.18401282
92	0x3ba4e849	0.0050325734
93	0x3d068dcc	0.03285007
94	0x3d726059	0.059173916
95	0x3c5b1116	0.013370773
96	0x3c471b84	0.012152556
97	0x3e0f55e1	0.13997604
98	0x3d31b540	0.043385744
99	0x3d69842b	0.05701081
100	0xbbf011ff	-0.007326364
101	0x3e0dc794	0.13845664
102	0x3c0ceae2	0.008600922
103	0x3dd7533f	0.10513925
104	0x3ddf594a	0.109057024
105	0xbbc565fa	-0.0060241194
106	0xbd963581	-0.07334424
107	0x3e18ab40	0.14909077
108	0x3d6cee76	0.0578446
109	0xbc3cee79	-0.011531466
110	0xbe0233e8	-0.12715113
111	0x3d40f610	0.047109663
112	0xbd4d11c2	-0.050065763
113	0x3c8a1b4d	0.016858721
114	0x3d961412	0.07328047
115	0x3d5ef2a7	0.05443063
116	0x3d3534f2	0.044239946
117	0xbcb4173a	-0.021983732
118	0xbdb4b504	-0.088235885
119	0xbca8e4d0	-0.020616919
120	0x3c279323	0.010227951
121	0xbd23201b	-0.03982554
122	0xbd4e106a	-0.050308622
123	0x3d94398e	0.0723754
124	0xbbbfcc1f	-0.0058531906
125	0x3b89f0df	0.0042096223
126	0x3d97d01e	0.07412742
127	0xbd4ef73a	-0.050528742
128	0x3bc789f1	0.006089442
129	0x3c893786	0.016750108
130	0x3ce4831b	0.027894547
131	0x3da3c5ec	0.07996735
132	0x3dde2fa2	0.10848929
133	0x3db2c9ae	0.087298736
134	0xbca03185	-0.019554863
135	0x3da6eab1	0.081502326
136	0xbd245b05	-0.040125865
137	0x3e0b455a	0.13600674
138	0xbd18b233	-0.03727932
139	0xbdeb6a23	-0.11494853
140	0x3e17ef40	0.1483736
141	0x3d816f9f	0.06320118
142	0xbbbab2ae	-0.00569757
143	0x3e0e08ea	0.13870588
144	0xbc18c601	-0.009324552
145	0xbdd882d2	-0.10571827
146	0x3dd0a6d8	0.10188073
147	0x3d32facf	0.04369622
148	0xbc021ab5	-0.007940938
149	0x3b97d371	0.00463336

model.fc.weight f4 [1, 50]
0	0x3a9b8ccb	0.0011867521
1	0xbc2b2b35	-0.010447313
2	0x3c74061e	0.014894037
3	0xbaf05704	-0.001833648
4	0xbaba886e	-0.0014231333
5	0xbc0778e1	-0.008268566
6	0x3ace8fbc	0.0015759389
7	0xbd8e4f87	-0.069487624
8	0xbb988082	-0.004653991
9	0x3b4a214f	0.0030842607
10	0x3c076367	0.008263445
11	0x3c58e235	0.013237526
12	0xbbdc6f3b	-0.006727127
13	0xbbae6bcf	-0.0053229104
14	0x3c01f398	0.007931612
15	0xbc2e6df3	-0.010646331
16	0xbadb5cf7	-0.001673608
17	0xbc84e2c1	-0.016221406
18	0x3dc9b9d4	0.09849897
19	0xbc97640d	-0.018480325
20	0x3bca5e3b	0.006175784
21	0x3af0819d	0.0018349175
22	0x3be83acb	0.007087087
23	0xbc9d9397	-0.019235415
24	0xba009790	-0.0004905397
25	0x3bf7197b	0.0075408793
26	0xbb33c080	-0.0027427971
27	0xbb8871e8	-0.0041639693
28	0x3bccca7c	0.006249724
29	0xbc01d705	-0.0079248
30	0xbc09a01a	-0.008399988
31	0xbb929f85	-0.0044745826
32	0x3b8a780d	0.004225737
33	0x3c9b8df2	0.018988583
34	0xbc85b3e8	-0.016321138
35	0xbd27e112	-0.04098613
36	0xbdb0569a	-0.08610268
37	0xbb06a1e3	-0.002054327
38	0xbb8875d2	-0.004164436
39	0x3c1da2c1	0.009621323
40	0xbb8efd3d	-0.0043636844
41	0xbb99a3de	-0.004688724
42	0x3b1c9df5	0.002389786
43	0xbbc2dd1d	-0.005946769
44	0xbb5df997	-0.003387069
45	0x3b0c5fed	0.002141948
46	0xbae771b2	-0.0017657785
47	0xbc2fe45e	-0.010735599
48	0x3b5891b0	0.003304582
49	0x3acd3db4	0.0015658648
