lightning_logs/version_33479210/checkpoints/epoch=49-step=6000-v1.ckpt (torch, 142804 bytes, 15 tensors)

model.gru.weight_ih_l0 f4 [150, 22]
0.079040825 -0.046079732 -0.11989543 0.07274387 -0.022657087 0.019812366 0.016740292 -0.13887571
0.050259303 0.02062761 0.08928968 -0.028045207 0.1012732 0.07184704 -0.07580506 -0.16278495
-0.07023026 0.09181258 0.093668446 -0.13140687 -0.12835024 -0.14196649 -0.10221927 -0.051136114
0.0411654 -0.08556673 -0.13627322 -0.08077088 -0.003967528 0.08176576 0.03976383 -0.0144753065
0.0658975 -0.13243546 -0.027813379 -0.060617447 -0.07291996 -0.0014019376 -0.017182766 0.14048143
0.09215262 -0.03059883 0.1039513 0.013561353 -0.13823181 -0.05970442 -0.050753757 0.039488528
0.21738547 -0.043475743 0.014173997 0.059000786 -0.06786128 -0.09313633 -0.001712062 0.15044813
-0.08277981 -0.054113258 -0.086665615 0.11320458 0.05756272 0.07570482 0.18942936 -0.08356126
-0.013704773 0.08441327 -0.08134171 -0.015331402 -0.06771476 0.06197354 -0.08273466 -0.09734981
0.12924401 -0.04713217 -0.2353278 -0.103595436 0.03221105 -0.072102256 0.06508598 -0.05410094
0.07335382 0.20565549 -0.09013288 -0.012648437 -0.1714275 -0.004555741 0.1162253 -0.10236226
0.08979098 -0.15693802 0.0285087 -0.02204513 -0.11907247 -0.052103467 -0.028500156 0.18635185
0.048922423 -0.09877996 -0.11526818 0.09093323 -0.004042264 -0.090640165 0.12187754 0.03848355
0.0908497 0.14977767 -0.018464107 -0.11304393 0.049291786 -0.041904476 0.07890308 -0.19587053
0.12798622 -0.032177784 -0.19350784 -0.1370895 -0.16495602 -0.09727273 0.20368539 0.098548844
0.022813123 0.010579154 0.024364974 -0.017256947 -0.119306795 -0.11448061 0.090503484 -0.145944
0.06377823 -0.11119976 -0.057910398 0.14997198 0.16355018 0.12693292 -0.077700965 0.06863337
0.05282625 -0.072994694 -0.009374667 0.09433567 -0.06322934 -0.06947799 0.1638817 0.017021863
0.04453241 -0.0806228 -0.012498336 -0.003470894 0.098299675 0.06926182 -0.024077004 0.03193261
0.11162293 -0.08222557 -0.15162256 0.07845998 -0.10238094 -0.057733715 -0.0012646546 -0.07636953
-0.09116892 -0.07808446 0.020084595 -0.15242727 -0.18785685 0.017511643 0.044405896 -0.17097682
-0.0091607 0.100269504 -0.09193 -0.121032104 -0.05881349 0.06662423 0.13234042 -0.06652127
-0.081154205 -0.07158638 0.031390455 0.035583872 0.059544574 -0.06346015 0.11973373 0.01967307
0.06774843 -0.0035198838 0.060316995 0.021019533 -0.023764648 0.035830457 -0.09631951 0.027193923
-0.11316744 0.016475894 0.062960826 -0.20131035 0.100380965 -0.045116313 -0.02696361 -0.00058140844
-0.020850914 0.13616791 0.12494477 -0.051551715 0.19886827 -0.03166041 -0.06790489 0.15294617
-0.026945323 0.14440994 0.014081149 0.1629285 -0.09761245 -0.06377999 0.13564643 -0.0507651
-0.009192918 -0.0587644 -0.076125205 -0.1335398 -0.124848664 -0.1287046 -0.0014732119 0.056866836
-0.10196366 -0.024459407 0.1429816 0.050900295 -0.08045555 -0.07139855 -0.110204354 0.045042004
-0.02281588 -0.017024811 0.051868808 0.06360648 -0.13421726 -0.13466048 -0.00952608 -0.1148744
0.045555755 0.11094896 -0.035538226 0.18124212 -0.01138736 -0.11715368 0.037611946 0.099639304
-0.048927166 0.07932227 0.05563308 0.028623903 0.07805543 -0.25396663 0.14812303 0.05665097
00000000: 28e0 a13d 1abe 3cbd bc8b f5bd bdfa 943d
00000010: 5b9b b9bc 8b4d a23c f022 893c 6f35 0ebe
00000020: b3dc 4d3d 3cfb a83c 82dd b63d 10bf e5bc
00000030: 5368 cf3d 8a24 933d af3f 9bbd 19b1 26be
00000040: e2d4 8fbd 3c08 bc3d 3ed5 bf3d 868f 06be
00000050: 3f6e 03be aa5f 11be 5658 d1bd 1a74 51bd
00000060: 0d9d 283d 9c3d afbd 358b 0bbe 346b a5bd
00000070: 0a02 82bb cf74 a73d 66df 223d d629 6dbc
00000080: 45f5 863d 299d 07be e2d8 e3bc 004a 78bd
00000090: 0f57 95bd 38c1 b7ba dfc2 8cbc 5dda 0f3e
000000a0: 83ba bc3d 66aa fabc 6be4 d43d 7030 5e3c
000000b0: a48c 0dbe 9f8c 74bd 2ce3 4fbd b9be 213d
000000c0: 4c9a 5e3e 9f13 32bd 0d3a 683c cfaa 713d
000000d0: dbfa 8abd 43be bebd 4567 e0ba 130f 1a3e
000000e0: 7688 a9bd dda5 5dbd be7d b1bd ced7 e73d
000000f0: e3c6 6b3d 210b 9b3d c5f9 413e 2a22 abbd
00000100: fc89 60bc dde0 ac3d 7c96 a6bd 9030 7bbc
00000110: 09ae 8abd f7d7 7d3d ca70 a9bd 565f c7bd
00000120: 8b58 043e aa0d 41bd c5f9 70be d829 d4bd
00000130: bcef 033d 59aa 93bd cc4b 853d f298 5dbd
00000140: 873a 963d 5a97 523e 9697 b8bd 643b 4fbc
00000150: b18a 2fbe 5348 95bb 8807 ee3d 4ea3 d1bd
00000160: 55e4 b73d 5cb4 20be 148b e93c fd97 b4bc
00000170: 44dc f3bd 726a 55bd 2979 e9bc 05d3 3e3e
00000180: e162 483d 264d cabd b911 ecbd 343b ba3d
00000190: f874 84bb 8da1 b9bd ef9a f93d eda0 1d3d
000001a0: 680f ba3d 515f 193e 0a42 97bc 9383 e7bd
000001b0: 2fe6 493d 07a4 2bbd f097 a13d 4992 48be
000001c0: d20e 033e dacc 03bd eb26 46be 3161 0cbe
000001d0: 3bea 28be ed36 c7bd e792 503e fad3 c93d
000001e0: 96e2 ba3c 3054 2d3c 0e99 c73c 715e 8dbc
000001f0: 1f57 f4bd cf74 eabd e459 b93d 5872 15be
00000200: 299e 823d b3bc e3bd 7433 6dbd 4192 193e
00000210: b379 273e b4fa 013e af21 9fbd a78f 8c3d
00000220: 5760 583d 3e7e 95bd 3498 19bc 0f33 c13d
00000230: 627e 81bd 7a4a 8ebd 9bd0 273e 6f71 8b3c
00000240: 9e67 363d 911d a5bd d2c5 4cbc f077 63bb
00000250: 5751 c93d 24d9 8d3d 233d c5bc c5cb 023d
00000260: 909a e43d e165 a8bd f242 1bbe a0af a03d
00000270: 19ad d1bd 307a 6cbd c4c2 a5ba a167 9cbd
00000280: c5b6 babd bfea 9fbd 7388 a43c e515 1cbe
00000290: 8c5d 40be 9474 8f3c f5e2 353d 8c14 2fbe
000002a0: c316 16bc 195a cd3d cc45 bcbd aedf f7bd
000002b0: 6ae6 70bd 4972 883d 3f84 073e 4e3c 88bd
000002c0: 2d34 a6bd e19b 92bd 4793 003d 65c0 113d
000002d0: 03e5 733d 65f7 81bd f536 f53d 6b29 a13c
000002e0: b0bf 8a3d daad 66bb f40e 773d 2831 ac3c
000002f0: 14ae c2bc f5c2 123d 2a43 c5bd cac5 de3c
00000300: 55c4 e7bd 74f8 863c 9bf1 803d 4d24 4ebe
00000310: 8994 cd3d e2cb 38bd cae2 dcbc a969 18ba
00000320: 89cf aabc 9a6f 0b3e 0be3 ff3d e427 53bd
00000330: 20a4 4b3e 59ae 01bd b811 8bbd ec9d 1c3e
00000340: 70bc dcbc 33e0 133e 9fb4 663c bbd6 263e
00000350: 09e9 c7bd 159f 82bd e6e6 0a3e 11ef 4fbd
00000360: e59d 16bc f1b2 70bd 88e7 9bbd a8be 08be
00000370: a8b0 ffbd 23cb 03be ca18 c1ba 33ed 683d
00000380: 53d2 d0bd 185f c8bc c569 123e d47c 503d
00000390: e1c5 a4bd 6739 92bd d2b2 e1bd f77d 383d
000003a0: 5ee8 babc 9e77 8bbc 6374 543d 1d44 823d
000003b0: 4070 09be 70e4 09be 4713 1cbc 4543 ebbd
000003c0: ac98 3a3d 3539 e33d 8890 11bd 8997 393e
000003d0: 0d92 3abc 45ee efbd fc0e 1a3d b10f cc3d
000003e0: da67 48bd b773 a23d 83df 633d ad7c ea3c
000003f0: 86db 9f3d ea07 82be 90ad 173e d90a 683d

model.gru.weight_hh_l0 f4 [150, 50]
-0.091964 0.000600945 0.0616405 0.06926757 -0.05755792 -0.13977857 0.0059928684 0.116461545
-0.036514707 0.014432984 -0.12271983 0.12420321 0.10888505 0.09609392 0.20646104 -0.025094047
0.058915034 -0.08562333 -0.054366883 -0.09519057 -0.04696735 -0.17869365 0.09864205 0.08876319
0.11393584 -0.08395022 0.100820795 -0.12031234 -0.026330572 -0.15437889 -0.0913525 0.0914897
-0.11202405 -0.06779607 0.005017664 -0.13961002 -0.18092047 0.14162901 0.032655306 0.09052485
-0.08424395 -0.042244483 0.09704378 0.114473 0.09577653 -0.114847414 0.14615072 0.080051206
-0.0246812 0.0029834353 0.045959238 0.0070553706 0.12731403 -0.106268495 -0.04618859 -0.085472144
0.04273851 -0.015195078 0.02845395 0.046577852 -0.1604262 0.046950538 0.12441582 0.057103116
0.10167795 -0.011193802 -0.13137099 0.091064684 0.11932393 0.017525725 0.042092953 0.07423664
-0.10812081 0.10945076 -0.03502874 0.093926445 0.034329437 -0.027461572 0.07427531 -0.03783528
-0.02220431 0.13069032 0.13015516 0.09154898 -0.11495764 -0.09146408 -0.027674515 0.06748382
-0.051788416 -0.04624783 0.12011319 0.0090165185 0.0066158064 -0.021445967 0.07097808 -0.07238227
-0.10955449 0.0535839 0.070347905 -0.09078345 -0.056146886 0.06735347 -0.1789423 -0.14253129
0.06397402 -0.046884984 -0.0268107 -0.03240594 0.18428978 0.023210356 -0.0013409902 -0.12673871
-0.122901306 -0.11533472 -0.017674215 0.087720186 0.12573475 -0.10078996 0.084584 -0.05145727
-0.03948773 0.05186909 0.04047192 0.18981445 0.014434707 0.071827345 -0.09684308 0.17158636
-0.20988168 -0.04696843 -0.0587671 0.12154398 -0.10648138 0.07779136 0.0678311 -0.06902611
-0.070766374 0.053281553 0.074316815 0.03503467 -0.034842003 0.005074432 0.12087376 0.035072103
-0.12229741 -0.07280333 -0.084905624 -0.1837924 0.09824364 0.15780778 0.18444286 -0.0071764654
0.13018747 -0.27612656 -0.11693203 -0.02653554 -0.031539403 -0.04779849 0.035461742 -0.11953972
-0.11214624 -0.1485363 -0.1305987 0.20710017 -0.092110775 -0.022594446 0.1066144 -0.01344316
0.011316439 -0.10647056 -0.11744579 0.018943267 0.013811006 -0.04322575 0.054073635 -0.12283066
0.13596147 0.0923174 -0.009033164 -0.10780161 0.09583693 0.044456307 -0.10580573 -0.045338146
-0.018458953 -0.14887752 0.035108496 0.14317316 -0.1272673 -0.09096026 0.15881278 -0.18124786
0.069306806 0.024925083 0.0101748975 -0.055772584 0.1377416 -0.15062617 0.08276581 0.0691541
0.019499343 -0.077126145 -0.013476182 0.054733995 0.097569935 -0.019376123 -0.04302548 -0.035557233
0.024055414 0.09858566 -0.16640165 -0.11671615 -0.058603562 -0.059036747 -0.08604166 0.08467286
0.089603566 0.03301555 0.04092934 0.029403709 0.08026771 -0.09414988 -0.035794035 0.06799512
0.11430844 -0.05929593 0.011082151 -0.12808748 -0.027712975 -0.060299505 0.085640915 0.06345543
-0.09113944 0.03398537 0.0018311313 0.06819602 -0.12766923 -0.11728965 -0.050884146 -0.059902456
-0.0027558021 0.106783874 0.07397541 -0.09885835 0.057293512 0.17920235 0.14322783 -0.06995889
-0.08454942 0.12155342 -0.13504505 0.03458498 0.037457887 0.1898977 0.09094101 -0.030902179
00000000: 9f57 bcbd bc88 1d3a c07a 7c3d 28dc 8d3d
00000010: dbc1 6bbd 1d22 0fbe d35f c43b 6483 ee3d
00000020: 7290 15bd 5378 6c3c 8954 fbbd 415e fe3d
00000030: 20ff de3d e4cc c43d 866a 533e 0892 cdbc
00000040: e450 713d 495b afbd cfaf 5ebd 46f3 c2bd
00000050: d660 40bd 78fb 36be d804 ca3d 7ac9 b53d
00000060: 3257 e93d 18ee abbd 227b ce3d 5166 f6bd
00000070: 36b3 d7bc 8015 1ebe 0517 bbbd f45e bb3d
00000080: dd6c e5bd aad8 8abd 376b a43b eef5 0ebe
00000090: 3743 39be 3207 113e 92c1 053d 1865 b93d
000000a0: 1888 acbd 8d08 2dbd e4be c63d d270 ea3d
000000b0: 7c26 c43d 1f35 ebbd 89a8 153e e3f1 a33d
000000c0: 3a30 cabc bd85 433b c13f 3c3d bd30 e73b
000000d0: 9c5e 023e 4ca3 d9bd 3f30 3dbd 050c afbd
000000e0: 930e 2f3d c7f4 78bc 4218 e93c 6bc8 3e3d
000000f0: c446 24be 354f 403d b9cd fe3d f5e4 693d
00000100: 873c d03d 3566 37bc 1e86 06be 1f80 ba3d
00000110: 1b60 f43d 1c92 8f3c a969 2c3d 6109 983d
00000120: 716e ddbd b827 e03d 4c7a 0fbd 825c c03d
00000130: 069d 0c3d 17f7 e0bc a71d 983d 2bf9 1abd
00000140: d0e5 b5bc afd3 053e 6547 053e 087e bb3d
00000150: e96e ebbd 8551 bbbd aab5 e2bc f534 8a3d
00000160: 1720 54bd 5d6e 3dbd e7fd f53d 05ba 133c
00000170: 68c9 d83b 74af afbc f55c 913d 283d 94bd
00000180: 1b5e e0bd cb7a 5b3d 9012 903d acec b9bd
00000190: 47fa 65bd 9ef0 893d a63c 37be b9f3 11be
000001a0: d004 833d 780a 40bd 1da2 dbbc 17bc 04bd
000001b0: 76b6 3c3e a523 be3c 2ac4 afba cbc7 01be
000001c0: aeb3 fbbd 9c34 ecbd 84c9 90bc a4a6 b33d
000001d0: 9cc0 003e f76a cebd 603a ad3d dcc4 52bd
000001e0: e3bd 21bd af74 543d e2c5 253d b85e 423e
000001f0: 8d7f 6c3c 371a 933d aa55 c6bd 56b4 2f3e
00000200: 39eb 56be f861 40bd c5b5 70bd 0dec f83d
00000210: e912 dabd 1451 9f3d 08eb 8a3d 905d 8dbd
00000220: f6ed 90bd c23d 5a3d 6a33 983d 8480 0f3d
00000230: 7db6 0ebd 6c47 a63b a98c f73d c4a7 0f3d
00000240: 1177 fabd ea19 95bd 00e3 adbd 1334 3cbe
00000250: f633 c93d 5d98 213e 97de 3c3e 8e28 ebbb
00000260: dd4f 053e 7660 8dbe 0f7a efbd 1061 d9bc
00000270: 762f 01bd 59c8 43bd 5540 113d 3ed1 f4bd
00000280: eeac e5bd e619 18be aabb 05be 1112 543e
00000290: 93a4 bcbd fd17 b9bc a758 da3d b340 5cbc
000002a0: 9668 393c 3d0d dabd 6b87 f0bd e92e 9b3c
000002b0: 8f47 623c 7c0d 31bd 517c 5d3d a48e fbbd
000002c0: 7c39 0b3e e810 bd3d d6ff 13bc 17c7 dcbd
000002d0: 2746 c43d d117 363d adb0 d8bd 7eb4 39bd
000002e0: 3b37 97bc 5973 18be edcd 0f3d fc9b 123e
000002f0: 5c52 02be 5f49 babd d19f 223e 0a99 39be
00000300: baf0 8d3d b02f cc3c 9db4 263c cb71 64bd
00000310: 220c 0d3e bf3d 1abe 1f81 a93d aaa0 8d3d
00000320: 16bd 9f3c 50f4 9dbd 34cb 5cbc c130 603d
00000330: bfd2 c73d adba 9ebc 7c3b 30bd 76a4 11bd
00000340: dc0f c53c 47e7 c93d 3265 2abe e008 efbd
00000350: 4a0a 70bd 84d0 71bd 9c36 b0bd f768 ad3d
00000360: 1382 b73d 503b 073d 86a5 273d 0ce0 f03c
00000370: 6663 a43d a7d1 c0bd c49c 12bd 0741 8b3d
00000380: 8b1a ea3d 4ae0 72bd e991 353c 5d29 03be
00000390: 5206 e3bc 9dfc 76bd 8164 af3d ecf4 813d
000003a0: 51a7 babd 3e34 0b3d 9202 f03a 5baa 8b3d
000003b0: b9bb 02be 8e35 f0bd e56b 50bd 475c 75bd
000003c0: b09a 34bb 81b1 da3d 6b80 973d 3f76 cabd
000003d0: 9aac 6a3d d280 373e 51aa 123e 9b46 8fbd
000003e0: 3f28 adbd 00f1 f83d 4049 0abe fba8 0d3d
000003f0: 716d 193d 8b74 423e 483f ba3d 9126 fdbc

model.gru.bias_ih_l0 f4 [150]
-0.07285754 0.03760605 -0.07908706 -0.20883515 -0.20809464 0.08542845 -0.15248124 -0.12227049
-0.013453265 0.08779235 -0.028067177 -0.03216887 -0.024470625 0.050638936 -0.099264346 0.0051453803
-0.07559278 0.041023027 0.11363247 0.08477382 0.07040545 0.04296719 -0.01073175 -0.00053071376
-0.06771331 -0.22391257 -0.013438594 0.07333491 0.12559511 -0.028999478 -0.10027339 -0.10867725
-0.09451382 0.07688155 -0.09938585 -0.11685054 -0.020042706 0.14623028 0.022151085 0.025884818
0.09615705 -0.18938656 -0.17925738 0.14569132 0.0041282703 -0.06351612 0.038313095 0.077891335
-0.05939923 0.066647924 0.06001703 0.09076541 0.0747596 0.038090903 0.117927276 -0.017143587
-0.045373157 -0.023600716 0.082328334 0.19824001 0.09088217 0.06175153 0.25566757 0.22047977
-0.021834886 0.11771524 0.2042432 0.05934254 -0.045994554 0.010315108 0.068114355 -0.06718678
0.11455939 -0.06622201 0.26090604 -0.021070972 0.06452228 -0.0011788025 -0.07220984 0.07501641
0.1724205 0.17405893 0.14953956 0.07638773 0.19055235 0.111645445 -0.013855172 -0.040143326
0.17551348 0.10606225 0.065413125 -0.030474432 0.07405124 0.08678731 0.17438689 -0.043323986
0.11289593 0.071765006 0.24776965 0.10703554 -0.049731925 0.0307521 -0.02832608 -0.012164125
-0.037382293 0.005162193 -0.0010795607 -0.012655129 -0.12081003 -0.027474463 0.022628684 0.053088147
-0.09661686 0.08000961 -0.008776249 0.013779702 0.06953282 -0.025245197 -0.10076008 -0.01862895
0.00032227754 0.01468362 0.012676669 0.00843691 -0.039479658 0.033299267 -0.03484041 -0.06056724
-0.0020632816 -0.01582456 -0.06326715 0.057367537 -0.09641005 0.09774347 -0.044725634 0.025733074
0.06759065 0.033495065 -0.006202691 -0.0673112 -0.14205223 -0.034653507 -0.023673521 -0.00496733
-0.012835824 0.007334863 -0.1311923 -0.012047015 -0.023380188 -0.10264777
00000000: 5536 95bd cd08 1a3d 66f8 a1bd e2d8 55be
00000010: c316 55be 1cf5 ae3d 0b24 1cbe f368 fabd
00000020: 156b 5cbc 7acc b33d 23ed e5bc 81c3 03bd
00000030: 9f76 c8bc c66a 4f3d 1b4b cbbd 949a a83b
00000040: 63d0 9abd c307 283d 24b8 e83d e69d ad3d
00000050: bc30 903d 5dfe 2f3d 39d4 2fbc 991f 0bba
00000060: 47ad 8abd 5649 65be 8c2d 5cbc 9d30 963d
00000070: 019c 003e 5090 edbc 235c cdbd 2e92 debd
00000080: 7690 c1bd 1374 9d3d cf8a cbbd 564f efbd
00000090: 9a30 a4bc 64bd 153e 3176 b53c 660c d43c
000000a0: fded c43d 8dee 41be 3f8f 37be 1b30 153e
000000b0: 7146 873b bd14 82bd 31ee 1c3d 7e85 9f3d
000000c0: 9b4c 73bd b57e 883d 6bd4 753d 37e3 b93d
000000d0: 901b 993d 3505 1c3d db83 f13d b570 8cbc
000000e0: 34d9 39bd 4a56 c1bc c29b a83d 6eff 4a3e
000000f0: 6e20 ba3d 2cef 7c3d dce6 823e 73c5 613e
00000100: 13df b2bc b014 f13d 2125 513e 2a11 733d
00000110: c964 3cbd b300 293c 8a7f 8b3d 3999 89bd
00000120: 1d9e ea3d 689f 87bd 7a95 853e 089d acbc
00000130: 4224 843d 0c82 9aba c1e2 93bd 34a2 993d
00000140: 008f 303e 813c 323e e620 193e 2c71 9c3d
00000150: 2820 433e 5ea6 e43d ce00 63bc 546d 24bd
00000160: ceb9 333e 2a37 d93d 51f7 853d 84a5 f9bc
00000170: 2da8 973d 8cbd b13d 7a92 323e 7e74 31bd
00000180: fb35 e73d 88f9 923d 54b7 7d3e 7335 db3d
00000190: b4b3 4bbd d4eb fb3c 180c e8bc 0a4c 47bc
000001a0: 2d1e 19bd 9d27 a93b 0c80 8dba 7557 4fbc
000001b0: 406b f7bd 2012 e1bc ca5f b93c f572 593d
000001c0: 0fdf c5bd 14dc a33d 42ca 0fbc 42c4 613c
000001d0: 3967 8e3d 04cf cebc 4d5b cebd bd9b 98bc
000001e0: 5cf7 a839 9193 703c ceb1 4f3c f73a 0a3c
000001f0: 6cb5 21bd d064 083d d1b4 0ebd 5b15 78bd
00000200: 1f38 07bb 82a2 81bc 3592 81bd 39fa 6a3d
00000210: a272 c5bd ba2d c83d 3a32 37bd 2bce d23c
00000220: f76c 8a3d 1f32 093d f13f cbbb 74da 89bd
00000230: 2476 11be d6f0 0dbd f9ee c1bc fcc4 a2bb
00000240: 594d 52bc 4a59 f03b 4657 06be d860 45bc
00000250: cf87 bfbc fe38 d2bd

model.gru.bias_hh_l0 f4 [150]
0.11418126 -0.019056203 -0.026950575 0.022179745 -0.04530022 0.06508946 0.0829544 -0.0125157405
0.018444384 0.05651505 0.016605554 0.0756673 0.07248685 0.0900355 -0.05852409 0.08966027
0.11221566 0.16800502 0.067379005 -0.04600832 0.07416326 0.10982074 0.021405185 0.05910035
-0.12685268 0.006337731 0.0011803029 -0.043181777 -0.12952663 0.08345532 -0.118812844 -0.044054236
0.100970805 -0.091382936 -0.072818436 -0.14230426 0.06866046 0.11001176 0.20324223 -0.0003986652
0.06968035 -0.14361396 -0.1525991 0.14696062 -0.018620327 -0.15641345 0.028221404 0.06599374
-0.0068336236 0.16672005 0.018192252 0.049389396 0.074780166 -0.0010829954 0.082436025 0.17558564
0.13083282 0.085556135 -0.016404659 0.018220553 0.14247109 0.20451623 0.0016552991 0.06568362
0.08053652 -0.004441281 0.051046386 0.07522546 0.16037573 0.12833665 0.025300395 -0.05459326
-0.056536354 0.031650938 0.06427991 0.15421101 -0.105947584 0.12643482 -0.030834828 0.079815954
0.079816185 0.13954775 0.059082314 0.15379785 -0.022377722 0.10593233 0.09827761 -0.03706648
-0.060797676 -0.0034683666 0.14008898 0.0056620776 0.21119358 0.11252517 0.15023175 0.22513287
-0.039579768 -0.05671507 0.1817444 0.08560505 0.13609536 -0.000544258 -0.06098557 0.04777219
-0.006435831 -0.006245348 -0.004510261 0.0068185325 0.028209139 0.053207207 0.051850144 -0.04410934
0.08871585 -0.1199 -0.020667851 -0.124176614 -0.13267395 0.060027156 0.17527936 0.07663677
-0.0026214602 0.067790106 0.007125953 -0.12353851 0.024514286 -0.07201972 0.09939369 0.04958044
0.014826761 0.09207966 -0.03775435 -0.08981796 0.08980955 -0.10059263 0.10316202 -0.1255938
0.13989632 -0.12321159 -0.056000344 0.1053551 0.13439043 -0.037463453 0.011176618 0.023357239
0.004577306 -0.015893472 0.11823311 0.11501965 0.041597307 0.071421385
00000000: ddd7 e93d c11b 9cbc 74c7 dcbc 4cb2 b53c
00000010: b98c 39bd 9f4d 853d ffe3 a93d d20e 4dbc
00000020: ad18 973c 537c 673d 5f08 883c 75f7 9a3d
00000030: fc73 943d 8864 b83d f5b6 6fbd ce9f b73d
00000040: 53d1 e53d 8209 2c3e 01fe 893d 3873 3cbd
00000050: e8e2 973d b2e9 e03d ed59 af3c 3513 723d
00000060: abe5 01be beac cf3b 65b4 9a3a 60df 30bd
00000070: a1a2 04be 9fea aa3d 2654 f3bd 3772 34bd
00000080: c8c9 ce3d fa26 bbbd d521 95bd 35b8 11be
00000090: db9d 8c3d d84d e13d bb1e 503e f003 d1b9
000000a0: 92b4 8e3d 8a0f 13be f042 1cbe d87c 163e
000000b0: a889 98bc d92a 20be 9330 e73c ba27 873d
000000c0: 97ec dfbb a9b8 2a3e eb07 953c 894c 4a3d
000000d0: 5826 993d 4cf3 8dba 38d4 a83d b9cc 333e
000000e0: 0af9 053e 0e38 af3d 1063 86bc 4543 953c
000000f0: f1e3 113e b46c 513e 9ff6 d83a 2285 863d
00000100: 55f0 a43d 2a88 91bb 0416 513d ce0f 9a3d
00000110: 8939 243e af6a 033e c642 cf3c 2f9d 5fbd
00000120: aa92 67bd 6aa4 013d 2fa5 833d 7ee9 1d3e
00000130: 0cfb d8bd 2178 013e 5299 fcbc 8c76 a33d
00000140: ab76 a33d 9be5 0e3e 4c00 723d 2f7d 1d3e
00000150: 7c51 b7bc 0df3 d83d c645 c93d 05d3 17bd
00000160: fc06 79bd 894d 63bb 7c73 0f3e f388 b93b
00000170: 2143 583e 9973 e63d 5ad6 193e 3b89 663e
00000180: 651e 22bd 104e 68bd 341b 3a3e b351 af3d
00000190: 955c 0b3e 89ac 0eba 01cc 79bd c6ac 433d
000001a0: aae3 d2bb c7a5 ccbb d0ca 93bb ff6d df3b
000001b0: da16 e73c cdef 593d d160 543d ffab 34bd
000001c0: a8b0 b53d 228e f5bd a04f a9bc 4f50 febd
000001d0: aedb 07be 09df 753d 6f7c 333e bdf3 9c3d
000001e0: cecc 2bbb 8ad5 8a3d d480 e93b c201 fdbd
000001f0: 2fd2 c83c 137f 93bd eb8e cb3d dc14 4b3d
00000200: f1eb 723c 4394 bc3d 4ea4 1abd 7bf2 b7bd
00000210: 12ee b73d 8203 cebd 9c46 d33d a99b 00be
00000220: fb40 0f3e 5c56 fcbd 9e60 65bd 6ac4 d73d
00000230: a59d 093e 4773 19bd 221e 373c ae57 bf3c
00000240: 3afd 953b 0733 82bc 3324 f23d 6c8f eb3d
00000250: f061 2a3d 6045 923d

model.fc.weight f4 [1, 50]
-0.0083621945 -0.0064851497 0.007825706 -0.0034171578 0.0234914 0.0067028375 0.0008466631 -0.00240349
0.032041874 -0.017767612 -0.0066475803 0.0076997457 0.005206613 -0.0022538523 0.011183304 0.02354029
0.0063450835 -0.014492805 -0.009590507 -0.011702925 -0.00589928 -0.011287161 0.0059658703 0.0069218758
0.029537344 -0.008777287 0.0008006947 -0.006415303 -0.014608013 -0.011460626 0.0060033505 -0.0003469217
0.006613871 -0.006877271 -0.0014981771 0.007404021 -0.059069034 0.01232409 0.0041527795 0.0066264775
0.020451738 0.0053065475 -0.007987771 -3.6841862e-05 0.0012588409 -0.008875635 0.014292971 -0.020821527
-0.001610248 0.012435977
00000000: 9601 09bc 6181 d4bb 6437 003c 65f2 5fbb
00000010: 0971 c03c 7aa3 db3b 99f2 5d3a df83 1dbb
00000020: 573e 033d 628d 91bc f2d3 d9bb 264e fc3b
00000030: 3c9c aa3b 5eb5 13bb 2d3a 373c 91d7 c03c
00000040: 6bea cf3b 3b73 6dbc 8021 1dbc a0bd 3fbc
00000050: bf4e c1bb c9ed 38bc 597d c33b e7d0 e23b
00000060: 4df8 f13c 9cce 0fbc b6e5 513a 7637 d2bb
00000070: 7356 6fbc 59c5 3bbc c1b7 c43b 0be3 b5b9
00000080: 2cb9 d83b bb5a e1bb 7b5e c4ba 6e9d f23b
00000090: 5ff2 71bd fbea 493c 0a14 883b ec22 d93b
000000a0: 678a a73c 8ce2 ad3b 24df 02bc a686 1ab8
000000b0: b1ff a43a 1d6b 11bc 112d 6a3c e891 aabc
000000c0: f50e d3ba 45c0 4b3c

exp_avg f4 [150, 22]
1.0431357e-06 -7.8164277e-07 -6.279094e-07 -5.476057e-07 6.7043885e-07 -4.8885636e-07 1.0954435e-06 1.4341201e-06
9.84117e-08 8.4097434e-07 3.4793766e-07 -5.516814e-07 9.667237e-07 5.7732785e-07 -2.2360791e-06 3.8937706e-08
0.0 1.2757445e-06 -9.89686e-07 3.9285672e-07 0.0 1.6381409e-06 1.8342949e-07 -2.761097e-07
-7.304393e-07 5.9961224e-07 -2.4430764e-07 9.87389e-08 4.425823e-07 -8.198655e-07 3.1523726e-07 1.0214658e-06
-2.0110785e-07 -2.5612812e-06 -7.0118375e-08 -6.180009e-07 -7.107879e-07 2.793929e-07 0.0 2.2581374e-07
-1.1638793e-06 -1.20525e-07 0.0 8.6918e-07 -2.9349342e-06 8.280561e-07 -1.1014089e-06 -1.4342869e-06
8.3848596e-07 2.3992575e-06 -2.1125659e-06 -2.0270227e-06 -8.7244175e-08 -2.287969e-06 -2.0859814e-06 1.9142398e-07
-2.0174027e-06 -2.2013678e-06 2.0637333e-06 -1.0666041e-06 0.0 1.7861846e-06 4.0331875e-07 6.7641196e-07
0.0 -1.2393351e-06 -2.8337118e-07 4.2163026e-07 7.580601e-07 -6.296681e-07 3.3693664e-07 -1.4722832e-07
7.407291e-07 1.17566536e-07 1.2016658e-07 -1.3623489e-06 5.515751e-07 -7.958866e-08 -8.671591e-07 -8.076912e-07
4.346551e-07 8.362706e-07 0.0 3.3877626e-07 3.9299198e-07 -4.317944e-08 0.0 3.4020462e-07
1.6252651e-06 3.3469853e-06 -4.264901e-07 -2.3682908e-07 2.734145e-06 -3.3592664e-06 -4.948131e-08 4.5229453e-06
-3.3794965e-06 -6.794304e-07 4.3789785e-07 -5.3250625e-07 1.7776903e-06 2.234042e-06 -7.0388464e-06 -2.7072392e-06
0.0 -6.9071e-07 -3.200249e-06 6.503046e-08 0.0 8.793707e-06 -1.0092452e-06 1.7291713e-06
-7.732963e-07 -6.3545815e-07 5.2845536e-07 7.947161e-08 -2.5193586e-07 8.0413486e-07 -4.4027672e-07 -1.121769e-06
2.0578598e-07 -3.200035e-07 5.921918e-08 6.662477e-08 3.1395442e-07 8.546304e-09 0.0 4.3185388e-08
5.748521e-07 3.4984785e-07 0.0 1.4259491e-06 2.2973919e-07 -4.4796334e-07 1.5369693e-07 -2.4917875e-07
2.8975379e-07 -6.979697e-07 -2.169145e-07 5.582151e-07 -4.0559198e-07 -1.1546621e-06 5.721039e-08 2.4848407e-07
-1.0051529e-06 -7.4989424e-07 1.6732088e-06 5.101069e-07 0.0 7.562094e-07 4.1679738e-07 -2.3952273e-07
0.0 -3.311011e-07 3.3954953e-07 2.3405453e-07 -1.117023e-06 -1.7390219e-06 -8.0922723e-07 -1.743045e-07
-6.861086e-07 1.6272115e-07 8.8732884e-07 4.965295e-10 3.5317962e-06 -1.0571133e-06 -7.849425e-07 -1.3524378e-06
7.6621683e-07 -1.715157e-08 0.0 -1.7481766e-07 5.045668e-07 3.862054e-07 0.0 4.2709576e-07
-6.521681e-06 -2.9416497e-06 5.4384236e-07 7.3503907e-06 5.8245946e-06 8.355666e-07 -1.2346055e-05 -8.522394e-07
-1.4835701e-05 -1.5034869e-05 -7.36106e-06 9.313864e-06 -1.4996684e-05 -2.7682304e-06 -2.6415162e-06 -1.2478615e-05
0.0 3.720086e-06 -5.2942623e-06 -7.3956244e-07 0.0 -2.5383704e-06 1.7197144e-06 3.8933157e-07
4.1772314e-06 -3.8791e-06 -2.2645074e-06 -1.1908314e-06 -2.8795932e-06 -1.057992e-06 -1.269723e-06 2.5303058e-07
6.5725603e-06 -8.864956e-07 -3.883932e-06 -9.63575e-07 1.0410568e-07 -2.7668775e-06 0.0 1.44026835e-08
-3.1151423e-08 2.389115e-06 0.0 -1.5517835e-06 -5.8407586e-06 -3.6484757e-06 -2.9384496e-06 3.9759766e-06
5.1690467e-06 6.985572e-07 -3.2912503e-06 -4.0885725e-06 -4.38689e-06 -3.970532e-06 -4.9130545e-06 1.2120038e-06
-3.4789919e-06 -6.122484e-06 2.832311e-07 -2.7758426e-06 0.0 3.759408e-06 -6.269176e-08 -3.9468844e-07
0.0 -2.8776813e-06 5.9501093e-07 -1.9937227e-07 2.047815e-06 -3.9046756e-07 1.7240973e-08 -7.098762e-07
2.187565e-06 -1.3224874e-06 1.1123848e-06 -6.9758266e-07 1.3608466e-06 -5.860676e-07 -4.604953e-07 -1.6104182e-06
00000000: df01 8c35 15d2 51b5 9b8d 28b5 2dff 12b5
00000010: 35f8 3335 f439 03b5 2707 9335 fe7b c035
00000020: 6756 d333 51bf 6135 30cc ba34 4217 14b5
00000030: 60c0 8135 abf9 1a35 8c0f 16b6 763c 2733
00000040: 0000 0000 3f3a ab35 5ad5 84b5 d1e9 d234
00000050: 0000 0000 18de db35 b7f4 4434 3a3c 94b4
00000060: 6813 44b5 0af5 2035 6329 83b4 490a d433
00000070: 0c9c ed34 ba14 5cb5 e13d a934 4c19 8935
00000080: 1bf0 57b4 7ae2 2bb6 fc93 96b3 b3e4 25b5
00000090: f9cc 3eb5 78ff 9534 0000 0000 3577 7234
000000a0: 9736 9cb5 a969 01b4 0000 0000 9851 6935
000000b0: c9f5 44b6 9547 5e35 1fd4 93b5 b981 c0b5
000000c0: 5114 6135 ee02 2136 9bc5 0db6 fc07 08b6
000000d0: fe5a bbb3 028b 19b6 e3fc 0bb6 398a 4d34
000000e0: b762 07b6 36bb 13b6 ab7e 0a36 3d28 8fb5
000000f0: 0000 0000 d6bc ef35 b587 d834 ad92 3535
00000100: 0000 0000 3b57 a6b5 3d22 98b4 6c5c e234
00000110: 7e7d 4b35 7606 29b5 38e4 b434 d015 1eb4
00000120: 84d6 4635 e378 fc33 2307 0134 f4d9 b6b5
00000130: f40f 1435 54ea aab3 b8c6 68b5 1ed0 58b5
00000140: 8b5a e934 147c 6035 0000 0000 0ee1 b534
00000150: 68fc d234 4c74 39b3 0000 0000 5ea5 b634
00000160: af23 da35 c59c 6036 5af8 e4b4 154b 7eb4
00000170: 417c 3736 c26f 61b6 4785 54b3 cec3 9736
00000180: 4fcb 62b6 1a62 36b5 3918 eb34 8df1 0eb5
00000190: f998 ee35 8dec 1536 3b2f ecb6 04ae 35b6
000001a0: 0000 0000 3b69 39b5 dcc3 56b6 e0a6 8b33
000001b0: 0000 0000 af88 1337 6775 87b5 e015 e835
000001c0: 8494 4fb5 5a94 2ab5 2ddb 0d35 fba9 aa33
000001d0: cd41 87b4 badb 5735 2c5f ecb4 b08f 96b5
000001e0: 05f6 5c34 f2cc abb4 2d58 7e33 5b13 8f33
000001f0: 918d a834 0bd3 1232 0000 0000 d67a 3933
00000200: 894f 1a35 b9d2 bb34 0000 0000 3d63 bf35
00000210: 3aae 7634 9d7f f0b4 e407 2534 dec6 85b4
00000220: 758f 9b34 1d5c 3bb5 01e9 68b4 40d8 1535
00000230: 23c0 d9b4 e3f9 9ab5 7db7 7533 6467 8534
00000240: cae8 86b5 574c 49b5 0493 e035 47ee 0835
00000250: 0000 0000 50fe 4a35 32c4 df34 c197 80b4
00000260: 0000 0000 30c2 b1b4 554b b634 6b50 7b34
00000270: 9eec 95b5 5668 e9b5 ac39 59b5 7528 3bb4
00000280: 062d 38b5 73b8 2e34 c630 6e35 287c 0830
00000290: cc03 6d36 23e2 8db5 d6b4 52b5 6985 b5b5
000002a0: 05ae 4d35 b454 93b2 0000 0000 83b5 3bb4
000002b0: 9171 0735 aa57 cf34 0000 0000 984b e534
000002c0: d0d4 dab6 2869 45b6 90fc 1135 60a3 f636
000002d0: e370 c336 b34b 6035 e721 4fb7 72c5 64b5
000002e0: dae6 78b7 453e 7cb7 06ff f6b6 be42 1c37
000002f0: 449a 7bb7 d6c5 39b6 e744 31b6 3e5b 51b7
00000300: 0000 0000 97a6 7936 5ea5 b1b6 5886 46b5
00000310: 0000 0000 df58 2ab6 f0d0 e635 5305 d134
00000320: 252a 8c36 3729 82b6 f1f7 17b6 a8d4 9fb5
00000330: 093f 41b6 5400 8eb5 5a6b aab5 42d8 8734
00000340: dd89 dc36 84f7 6db5 b952 82b6 2f54 81b5
00000350: b490 df33 98ae 39b6 0000 0000 ac6f 7732
00000360: 5acb 05b3 af54 2036 0000 0000 e046 d0b5
00000370: bcfb c3b6 56d8 74b6 2e32 45b6 6169 8536
00000380: c671 ad36 7c84 3b35 40df 5cb6 9230 89b6
00000390: 1933 93b6 9c3a 85b6 d1da a4b6 22ac a235
000003a0: a078 69b6 bd6f cdb6 fc0e 9834 9d48 3ab6
000003b0: 0000 0000 234a 7c36 29a1 86b3 91e5 d3b4
000003c0: 0000 0000 301e 41b6 d7b8 1f35 0813 56b4
000003d0: 326d 0936 74a1 d1b4 4d19 9432 528e 3eb5
000003e0: 15ce 1236 5280 b1b5 404d 9535 8441 3bb5
000003f0: 55a6 b635 4252 1db5 fe39 f7b4 8c25 d8b5

exp_avg_sq f4 [150, 22]
1.0721615e-09 6.0063454e-10 6.482524e-10 4.1420936e-10 5.521788e-10 4.4791676e-10 1.0153771e-09 1.0270563e-09
9.2048763e-10 6.672814e-10 3.1797473e-10 1.8900294e-10 6.6051997e-10 4.307792e-10 1.6657912e-09 1.1943948e-09
0.0 6.324674e-10 5.8068805e-10 5.188145e-10 0.0 5.39767e-10 8.4834745e-10 2.7582078e-10
3.500238e-10 6.3806815e-10 5.529924e-10 6.528202e-10 6.946678e-10 7.5295514e-10 4.4235715e-10 4.2950155e-10
5.512327e-10 8.8749236e-10 5.112562e-10 7.446201e-10 3.5874034e-10 6.042932e-10 0.0 2.7696803e-10
2.3118372e-10 2.2450666e-10 0.0 3.6031647e-10 2.401098e-09 2.2554087e-09 5.012637e-09 2.1852014e-09
2.9888403e-09 1.4310262e-09 7.865679e-09 1.4655346e-09 1.1282911e-09 5.5089524e-09 1.3790032e-09 2.5896604e-10
5.0230944e-09 3.4428265e-09 4.4639505e-09 4.0158676e-09 0.0 1.2287432e-09 5.877618e-10 8.490871e-10
0.0 4.44101e-09 1.0114538e-10 9.102913e-11 1.08280086e-10 8.6313214e-11 7.0908945e-11 5.296601e-11
7.020199e-11 1.7742093e-10 4.5987585e-11 7.554652e-11 1.8377727e-10 3.182447e-10 6.304028e-11 5.2786938e-11
7.503534e-11 6.7239186e-11 0.0 4.473829e-11 2.4697985e-11 3.3158743e-11 0.0 8.504225e-11
4.7277676e-10 9.806064e-10 3.662532e-10 9.723166e-10 7.254385e-10 2.905059e-10 4.6179424e-10 3.2935746e-10
3.0398634e-10 3.619468e-10 1.2054241e-09 1.384377e-10 5.0604726e-10 4.1560436e-10 4.344255e-10 4.5108517e-10
0.0 2.9762937e-10 4.1322845e-10 5.3655363e-10 0.0 1.2027084e-09 1.05002104e-10 6.0966544e-11
1.2554109e-10 6.777741e-11 2.4389815e-10 4.534506e-11 1.951493e-10 1.1400035e-10 1.2119127e-10 8.7236246e-11
1.8824174e-10 6.752855e-11 5.932991e-11 5.50464e-11 6.6704336e-11 1.46526e-10 0.0 4.8559122e-11
3.1756153e-11 3.2196874e-11 0.0 7.0793066e-11 7.619164e-11 2.167763e-10 3.109702e-10 7.561418e-11
1.8784271e-10 2.370454e-10 3.865299e-10 2.1863926e-10 9.340578e-11 9.046222e-11 7.986412e-11 1.5416964e-10
6.348256e-11 5.98471e-11 1.3534432e-10 4.1194548e-10 0.0 4.459934e-11 3.6990487e-11 5.1324923e-11
0.0 7.234126e-11 9.438202e-11 9.6793074e-11 8.901609e-11 8.04819e-11 7.402066e-11 1.1145795e-10
2.0797816e-10 6.873545e-11 1.16066406e-10 9.36562e-11 3.8751782e-10 4.087218e-11 1.0487897e-10 7.7912295e-11
9.7952896e-11 2.1737001e-10 0.0 6.051637e-11 5.805319e-11 6.97529e-11 0.0 1.1649007e-10
6.6846892e-09 5.0945173e-09 2.4076437e-08 4.8212705e-09 4.066616e-09 3.8458787e-09 4.3900755e-08 1.7864926e-08
3.6807044e-09 4.132625e-09 3.5328158e-09 1.4152547e-09 5.384848e-09 1.0077864e-08 1.061799e-08 4.8742045e-08
0.0 2.6777893e-09 1.9444963e-09 2.3722033e-09 0.0 2.7783578e-09 9.531825e-10 3.6758427e-10
2.1182358e-09 8.4470475e-10 3.824715e-10 7.3850065e-10 3.2472063e-09 1.5954617e-09 3.539757e-10 3.7332593e-10
8.378998e-10 9.2950925e-11 3.9167905e-10 6.860823e-10 4.2577525e-10 2.9474394e-09 0.0 4.468851e-10
7.1669376e-10 7.4203366e-10 0.0 6.4541933e-10 1.0245132e-10 1.7392171e-10 5.424563e-10 1.2523178e-10
1.499778e-10 5.66063e-11 4.1797282e-10 7.625816e-11 1.1681944e-10 7.90111e-11 3.2277814e-10 5.7206368e-11
8.320959e-11 3.4578246e-10 1.0331182e-10 3.210819e-10 0.0 6.2931986e-11 3.2952772e-11 4.484044e-11
0.0 8.15845e-11 1.3018274e-10 1.2478552e-10 3.0719333e-10 3.9497375e-10 1.4372431e-10 2.888579e-10
2.6955627e-10 1.6034682e-10 1.8352452e-10 2.0704442e-10 2.8068517e-10 1.8664893e-11 1.5320004e-10 1.8959545e-10
00000000: 545b 9330 e619 2530 b530 3230 c9b6 e32f
00000010: 21c8 1730 ae3e f62f 688d 8b30 5528 8d30
00000020: 8f05 7d30 c16b 3730 f7ce ae2f 99cf 4f2f
00000030: f68f 3530 c8d2 ec2f d1f1 e430 0828 a430
00000040: 0000 0000 f0d9 2d30 4a9e 1f30 539c 0e30
00000050: 0000 0000 ba5e 1430 2531 6930 53a2 972f
00000060: 786d c02f 0e64 2f30 6101 1830 2372 3330
00000070: e7f2 3e30 82f8 4e30 3c30 f32f f81e ec2f
00000080: 8e85 1730 b9f3 7330 7588 0c30 fbad 4c30
00000090: 3738 c52f 5b1b 2630 0000 0000 c943 982f
000000a0: 6f30 7e2f 02d9 762f 0000 0000 0916 c62f
000000b0: 9000 2531 92fd 1a31 9f3b ac31 782a 1631
000000c0: 3c64 4d31 c2ad c430 9f21 0732 ea6b c930
000000d0: 3712 9b30 4249 bd31 5d87 bd30 3b5e 8e2f
000000e0: 9b97 ac31 d896 6c31 5361 9931 f2fb 8931
000000f0: 0000 0000 8fe0 a830 0f90 2130 3165 6930
00000100: 0000 0000 8997 9831 c96b de2e d82c c82e
00000110: 451c ee2e 05ce bd2e 30ee 9b2e 6df2 682e
00000120: 3560 9a2e 8d13 432f 6b41 4a2e e920 a62e
00000130: b410 4a2f f6f4 ae2f 86a0 8a2e cf28 682e
00000140: 2401 a52e 4cdc 932e 0000 0000 d6c2 442e
00000150: eb3e d92d 6dd5 112e 0000 0000 8802 bb2e
00000160: b5f4 0130 05c6 8630 8e59 c92f 59a2 8530
00000170: 3268 4730 12b5 9f2f c3df fd2f f110 b52f
00000180: 461e a72f 7cfb c62f 17ac a530 c036 182f
00000190: e919 0b30 1d7b e42f f4d3 ee2f 98fc f72f
000001a0: 0000 0000 9c9f a32f bc2c e32f 9b7c 1330
000001b0: 0000 0000 8a4c a530 eee6 e62e 1d11 862e
000001c0: ad08 0a2f 4a0b 952e 9d15 862f 006e 472e
000001d0: a591 562f 7eb0 fa2e 4f40 052f a4d5 bf2e
000001e0: 57f9 4e2f 327f 942e c577 822e bd18 722e
000001f0: 34af 922e 671b 212f 0000 0000 b690 552e
00000200: 40aa 0b2e 759a 0d2e 0000 0000 f4ac 9b2e
00000210: 158c a72e 1b59 6e2f 2af5 aa2f 0047 a62e
00000220: 0689 4e2f 2d51 822f 3f7f d42f 7b65 702f
00000230: c866 cd2e b4ed c62e 819f af2e e582 292f
00000240: 8199 8b2e ec9a 832e 0ad0 142f 2c78 e22f
00000250: 0000 0000 6526 442e 96af 222e baba 612e
00000260: 0000 0000 8214 9f2e 5b8c cf2e a8d9 d42e
00000270: 9bbf c32e 48fb b02e edc5 a22e 3f19 f52e
00000280: a6ac 642f 9e26 972e 943b ff2e c1f3 cd2e
00000290: 490a d52f fcc1 332e 9ca1 e62e b954 ab2e
000002a0: 9466 d72e 3800 6f2f 0000 0000 b013 852e
000002b0: 1552 7f2e 6463 992e 0000 0000 0a15 002f
000002c0: 26af e531 d90b af31 a5d0 ce32 58a8 a531
000002d0: 55ba 8b31 b524 8431 648d 3c33 6375 9932
000002e0: a3ef 7c31 f4fe 8d31 f4c5 7231 d982 c230
000002f0: a005 b931 ea22 2d32 6a6a 3632 7258 5133
00000300: 0000 0000 2b04 3831 f19f 0531 3e04 2331
00000310: 0000 0000 63ed 3e31 2101 8330 e314 ca2f
00000320: 6690 1131 d030 6830 1444 d22f 5dff 4a30
00000330: 7525 5f31 5147 db30 a799 c22f f43c cd2f
00000340: f551 6630 b866 cc2e ed53 d72f c096 3c30
00000350: 8a12 ea2f e78b 4a31 0000 0000 7dad f52f
00000360: d700 4530 faf7 4b30 0000 0000 5969 3130
00000370: f74a e12e 9c3a 3f2f f81b 1530 9db1 092f
00000380: ffe6 242f 07f5 782e 72c8 e52f 87b1 a72e
00000390: c071 002f 4cbf ad2e fc72 b12f a598 7b2e
000003a0: d6fa b62e 8e18 be2f 622f e32e 4384 b02f
000003b0: 0000 0000 8f63 8a2e 86ed 102e d935 452e
000003c0: 0000 0000 fe67 b32e 2f23 0f2f 0034 092f
000003d0: 9ee1 a82f 9d23 d92f cc06 1e2f 23cd 9e2f
000003e0: ac30 942f 9e4d 302f 8fc9 492f d3a5 632f
000003f0: ed4e 9a2f 9a2d a42d fa71 282f 6076 502f

exp_avg f4 [150, 50]
5.3097462e-08 -3.017067e-08 -3.051967e-07 -3.4398205e-08 4.7817366e-07 -2.6066719e-08 1.2365432e-07 -5.1046996e-08
2.979558e-07 1.1756186e-08 -1.9659481e-08 -6.107592e-08 -2.930046e-08 5.7797582e-08 2.828879e-07 -7.459212e-08
6.4977314e-08 -1.2512561e-07 -9.436182e-08 -1.2331456e-08 -1.7537906e-07 -9.176255e-08 9.125594e-08 2.4165053e-07
1.9031627e-07 -1.2671585e-07 -2.3785435e-07 9.380724e-09 -2.0600224e-08 9.7388735e-08 4.1472043e-07 -2.469572e-07
6.782741e-08 6.162203e-08 2.988556e-07 -2.1975373e-08 -3.5737776e-07 -7.205162e-08 2.1695682e-08 4.7540258e-08
-6.351525e-08 -1.4959308e-08 2.1970963e-07 2.4522734e-07 -1.2180807e-07 -1.3787084e-07 -2.1362384e-07 -5.518377e-08
-2.3114447e-07 6.7098207e-09 -5.874047e-08 -3.807244e-07 -8.168337e-08 -1.8385649e-07 2.7673013e-07 3.9555638e-07
2.4116238e-07 1.2259638e-07 6.342835e-07 -1.8027806e-07 3.2571236e-08 9.457414e-08 1.0415249e-07 -3.3881676e-07
-5.2022827e-08 -8.9743445e-08 2.3718843e-07 6.1805e-07 -5.124944e-07 -1.4176257e-07 -2.9100363e-07 3.9073993e-07
-5.638576e-08 -3.073524e-07 -2.1182695e-08 -8.5753e-10 -2.50961e-07 2.0612242e-07 4.2491888e-07 1.619116e-07
2.65569e-07 -1.20625e-07 -2.3836579e-07 -6.372752e-08 -3.585701e-08 2.0719466e-07 -7.514624e-07 3.784452e-08
1.5996122e-07 1.8312599e-07 -1.9246868e-07 -3.850734e-08 -3.8078053e-08 2.4459817e-07 -3.3098272e-07 1.2515918e-07
1.3742626e-07 -2.8326681e-08 5.931689e-08 1.5864724e-07 -2.180495e-07 5.901973e-07 -4.1489034e-07 2.1513354e-07
-2.616947e-07 2.2528019e-08 -2.7565375e-07 -9.666799e-08 -4.0090686e-07 6.878871e-08 -2.2604672e-07 3.1239412e-07
-1.010357e-07 -2.6831881e-07 -9.64185e-08 2.637591e-07 1.2418041e-08 1.2565764e-07 2.9215455e-09 5.0414604e-07
1.1924472e-07 -1.4673347e-07 3.9970595e-07 2.9066337e-07 -4.5607786e-07 -1.9902679e-08 1.7909497e-07 9.385425e-08
-1.509568e-08 -5.4812773e-07 -6.622624e-07 3.8745377e-08 3.7556644e-10 2.654405e-08 1.722147e-07 -5.1315894e-08
4.7371273e-07 8.188444e-08 2.9889623e-08 9.102938e-08 -1.909172e-07 1.4524944e-07 3.5539184e-08 1.6480885e-07
5.0622106e-07 -2.1281062e-07 8.986087e-07 -3.990332e-08 7.913573e-08 1.3593534e-07 -1.3801323e-07 -3.739339e-08
-5.955913e-09 -1.1383326e-07 1.13382264e-07 -3.434039e-09 -4.0571493e-08 -3.1137354e-08 1.2141425e-08 6.089916e-08
-4.5449333e-08 8.362275e-08 1.9690974e-08 -7.230079e-11 1.1885294e-07 3.7434216e-08 -2.6665552e-09 7.564113e-08
3.26769e-08 -3.5951622e-08 -3.255423e-08 -2.1310615e-07 7.710973e-09 -8.0737664e-08 8.233152e-08 2.1950188e-09
-6.604168e-08 -5.7443405e-08 2.2016934e-07 9.026167e-08 8.588747e-08 -1.0412501e-07 -2.3817995e-10 -4.335253e-08
-6.206252e-09 -1.5535865e-07 -3.5480117e-08 -1.5326145e-07 1.6678221e-07 4.2621622e-08 1.5740034e-07 5.7264344e-09
1.6119401e-08 3.1047954e-08 -6.792187e-08 -5.967797e-08 1.6780207e-07 1.987699e-07 4.937721e-08 9.155652e-08
-6.117983e-08 -3.5995663e-07 4.2385415e-07 -2.8584404e-07 8.921055e-07 -7.472105e-07 5.0675084e-07 -2.8477135e-07
7.3965094e-07 -2.8019707e-07 -1.2328077e-07 -3.327803e-07 2.5940506e-07 2.2710677e-07 3.9340605e-07 -8.179973e-07
-2.609542e-07 7.144735e-07 -5.321032e-07 -8.270323e-07 -2.919802e-07 -1.7170984e-07 1.09225645e-07 3.9473474e-07
5.7602705e-07 -3.4654843e-07 -5.4471883e-07 1.6581379e-07 -1.1139085e-07 1.4243171e-06 1.0245166e-06 -8.138505e-07
2.5774136e-07 -2.2177613e-07 3.8899324e-07 -1.115078e-07 -1.5011439e-06 -2.5563912e-08 -2.0528817e-07 9.3987005e-08
-1.0851767e-07 -4.3209616e-07 7.3888526e-07 3.183023e-07 -7.249533e-07 -2.67144e-07 -6.538977e-07 -4.028561e-09
-5.0817636e-07 -7.013801e-07 -2.0436666e-07 6.955452e-08 -1.8761655e-07 -3.898107e-08 3.0785972e-07 7.383849e-08
00000000: 470d 6433 0195 01b3 ead9 a3b4 3abd 13b3
00000010: d85b 0035 52e9 dfb2 d7c5 0434 c43e 5bb3
00000020: bcf6 9f34 41f8 4932 a8df a8b2 d828 83b3
00000030: 65b0 fbb2 1d3d 7833 d1df 9734 742f a0b3
00000040: a889 8b33 445a 06b4 f6a3 cab3 51da 53b2
00000050: d44f 3cb4 ff0e c5b3 7cf8 c333 32bc 8134
00000060: bd59 4c34 630f 08b4 e864 7fb4 dc28 2132
00000070: 5ff4 b0b2 0624 d133 bea6 de34 8a95 84b4
00000080: 83a8 9133 1255 8433 6772 a034 5bc4 bcb2
00000090: a0dd bfb4 ccba 9ab3 4f5d ba32 112f 4c33
000000a0: e165 88b3 de7f 80b2 53e9 6b34 caa7 8334
000000b0: 59ca 02b4 a609 14b4 7960 65b4 3203 6db3
000000c0: 8230 78b4 358c e631 d449 7cb3 5d66 ccb4
000000d0: e869 afb3 166a 45b4 8091 9434 db5c d434
000000e0: 1b79 8134 09a3 0334 a143 2a35 7592 41b4
000000f0: 74e4 0b33 af18 cb33 70aa df33 9fe6 b5b4
00000100: b46f 5fb3 fbb8 c0b3 dcad 7e34 13e8 2535
00000110: 5992 09b5 6637 18b4 3c3b 9cb4 e3c6 d134
00000120: cc2c 72b3 3102 a5b4 3df5 b5b2 4fb7 6bb0
00000130: d1bb 86b4 8052 5d34 6820 e434 ecd9 2d34
00000140: 8793 8e34 2685 01b4 7df1 7fb4 93da 88b3
00000150: 3301 1ab3 3c79 5e34 1ab8 49b5 7d8a 2233
00000160: cec1 2b34 4aa1 4434 63a9 4eb4 4563 25b3
00000170: 438b 23b3 5151 8334 ebb1 b1b4 7e63 0634
00000180: 718f 1334 0853 f3b2 9cc3 7e33 9f58 2a34
00000190: fd20 6ab4 0d6e 1e35 18be deb4 75ff 6634
000001a0: 0c7f 8cb4 a383 c132 90fd 93b4 ca97 cfb3
000001b0: 383c d7b4 feb8 9333 40b7 72b4 1fb7 a734
000001c0: f7f8 d8b3 750d 90b4 a20e cfb3 c69a 8d34
000001d0: 1f57 5532 82ec 0634 5fc4 4831 a754 0735
000001e0: bd09 0034 ca8d 1db4 2b97 d634 780c 9c34
000001f0: ddda f4b4 74f6 aab2 404d 4034 eb8c c933
00000200: c0ab 81b2 0d23 13b5 53c6 31b5 fe68 2633
00000210: 4778 ce2f fc02 e432 04ea 3834 6c66 5cb3
00000220: 9552 fe34 72d8 af33 fd5f 0033 ee7b c333
00000230: ecfe 4cb4 ddf5 1b34 bfa3 1833 50f6 3034
00000240: 3fe3 0735 f080 64b4 eb37 7135 2a62 2bb3
00000250: 54f1 a933 9ff5 1134 ca30 14b4 789a 20b3
00000260: c4a4 ccb1 7f74 f4b3 8f7c f333 41fc 6bb1
00000270: d440 2eb3 e2bb 05b3 8d96 5032 abc7 8233
00000280: 1234 43b3 1894 b333 e924 a932 bafd 9eae
00000290: 183c ff33 5bc7 2033 893e 37b1 2770 a233
000002a0: a258 0c33 3a69 1ab3 c1d1 0bb3 2cd2 64b4
000002b0: 3879 0432 0062 adb3 3bce b033 2ed7 1631
000002c0: ccd2 8db3 b1b7 76b3 b067 6c34 e1d5 c133
000002d0: 2371 b833 549b dfb3 d9f0 82af 9c32 3ab3
000002e0: c53e d5b1 a9d0 26b4 cd62 18b3 3090 24b4
000002f0: bf14 3334 f80e 3733 e001 2934 40c2 c431
00000300: f076 8a32 9659 0533 71dc 91b3 5028 80b3
00000310: 152d 3434 746d 5534 d112 5433 bb9d c433
00000320: f861 83b3 1040 c1b4 128e e334 1b76 99b4
00000330: 0679 6f35 ea93 48b5 a707 0835 ade2 98b4
00000340: 6d8c 4635 fe6d 96b4 295f 04b4 faa8 b2b4
00000350: 5c44 8b34 a2da 7334 5135 d334 5994 5bb5
00000360: 4619 8cb4 3fca 3f35 dad5 0eb5 3a01 5eb5
00000370: 74c1 9cb4 3e5f 38b4 6f8f ea33 eeeb d334
00000380: 47a0 1a35 410d bab4 cb38 12b5 8c0a 3234
00000390: c435 efb3 2a2b bf35 1f82 8935 6177 5ab5
000003a0: b45f 8a34 5c21 6eb4 d3d6 d034 1076 efb3
000003b0: e97a c9b5 a397 dbb2 2f6d 5cb4 e7d5 c933
000003c0: 380a e9b3 d8fa e7b4 cf57 4635 23e3 aa34
000003d0: 699a 42b5 fe6b 8fb4 8287 2fb5 996b 8ab1
000003e0: 9d69 08b5 7946 3cb5 e16f 5bb4 005e 9533
000003f0: a573 49b4 246c 27b3 eb47 a534 2491 9e33

exp_avg_sq f4 [150, 50]
9.696264e-11 6.003775e-11 4.3284567e-11 3.215148e-11 4.164874e-11 2.4240136e-11 5.189205e-11 2.3661543e-11
1.265441e-10 4.9916286e-11 4.6259795e-11 2.4066039e-11 4.213322e-11 3.6797152e-11 4.558721e-11 3.996997e-11
1.7132521e-11 9.592157e-11 2.4211083e-11 3.456603e-11 1.810411e-11 2.6862745e-11 2.6018273e-11 1.6756689e-10
3.911691e-11 2.0951154e-11 7.1405604e-11 2.988488e-11 6.5557365e-11 9.4398024e-11 2.8248096e-10 8.182003e-11
5.3874526e-11 7.6061275e-11 1.0987229e-10 5.4865206e-11 1.1238596e-10 7.837136e-11 4.5041946e-11 6.3802505e-11
5.2590765e-11 1.1686203e-10 1.1498729e-10 6.8166785e-11 1.03070524e-10 3.8556786e-11 6.9079735e-11 4.3286694e-11
3.3704026e-11 5.4770154e-11 4.4772522e-11 5.930529e-11 3.4976962e-11 2.3811713e-11 1.3423782e-10 1.9969837e-11
5.181858e-11 4.6396376e-11 5.6322343e-11 1.1746766e-11 3.937093e-11 2.3264283e-11 2.5230238e-11 2.2736472e-11
4.30854e-11 7.7922876e-11 1.2267468e-11 2.6790719e-11 3.71401e-11 1.2966535e-11 2.3240904e-11 1.0702458e-10
2.5395143e-11 3.5289112e-11 4.3012448e-11 1.2713978e-11 2.6862627e-11 2.8495525e-11 5.645978e-11 2.584796e-11
8.341927e-11 2.4091097e-11 7.586607e-11 2.1451774e-11 8.012246e-11 2.4917195e-11 2.7959055e-11 6.895139e-11
4.514593e-11 1.3915745e-11 2.9890587e-11 3.2718793e-11 5.0972344e-11 1.6889405e-11 3.1671842e-11 1.5210028e-11
4.427382e-11 8.0695214e-11 2.3822722e-11 2.7620007e-11 1.0567569e-10 2.523183e-10 2.1780927e-10 4.2048982e-11
1.6528037e-10 6.805212e-11 1.1823938e-10 7.812085e-11 1.3048015e-10 3.7139476e-11 1.0835685e-10 9.4298756e-11
1.3899089e-10 7.331595e-11 6.7391454e-11 9.9744435e-11 3.951922e-11 2.6230873e-10 5.463998e-11 1.14685025e-10
4.285806e-11 8.758814e-11 1.4668014e-10 1.3367599e-10 4.1932066e-10 8.725144e-11 1.7364263e-10 1.6412037e-10
8.476048e-11 3.825929e-10 9.608686e-10 2.4395713e-10 5.6995308e-11 1.1630734e-10 4.2206408e-10 3.2823752e-10
9.719821e-11 7.304441e-11 5.175935e-11 5.7241302e-11 1.1856832e-10 3.4611164e-10 1.4613033e-10 4.4424634e-11
5.936881e-10 4.1557095e-11 1.2100894e-09 9.853427e-11 4.24448e-11 3.5452924e-10 3.1223696e-12 1.8786405e-11
4.4882717e-12 3.2080723e-12 3.99216e-12 4.1613987e-12 5.357366e-12 7.958474e-12 4.124956e-12 2.3098823e-12
3.0234346e-12 1.6221275e-12 1.7849847e-12 2.8069684e-12 4.4660707e-12 2.5631518e-11 5.316143e-12 1.4503818e-11
2.1462068e-12 8.082972e-12 2.6305644e-12 9.554036e-12 1.3589763e-11 1.0060844e-11 7.870378e-12 1.7081659e-12
2.6643087e-12 2.5488112e-12 7.980476e-12 9.466824e-12 1.2521257e-11 6.7342113e-12 2.4785972e-12 3.399388e-12
8.551271e-12 2.6299859e-12 4.9372854e-12 9.267535e-12 4.1508233e-12 2.2000678e-12 4.254495e-12 2.1989105e-12
2.6219055e-12 2.8190137e-12 5.470445e-12 2.1328564e-12 5.2052434e-12 1.9188163e-11 1.9019688e-12 5.6137317e-12
3.3429228e-11 2.2002507e-11 4.2232887e-11 2.1222277e-11 1.6047719e-10 1.0742234e-11 1.7004472e-11 1.27160235e-11
3.0502687e-11 1.9414935e-11 2.2769866e-11 1.324902e-11 1.7170272e-11 1.979197e-11 1.5015643e-11 3.150715e-11
1.6974274e-11 4.0894486e-11 2.2618572e-11 3.3267656e-11 1.7132974e-11 2.5734083e-11 1.5991616e-11 8.353756e-11
3.0845115e-11 1.1338871e-11 4.6339557e-11 3.6581512e-11 3.6802044e-11 1.7364268e-10 1.2711299e-10 2.422572e-11
4.184993e-11 2.0603456e-11 9.789837e-11 2.2317873e-11 1.922589e-11 2.4995025e-11 2.0947558e-11 1.3220969e-11
2.4472186e-11 2.1206896e-11 6.7284796e-11 1.5934707e-11 1.07810164e-10 1.4331998e-11 6.076392e-11 4.100078e-11
2.2984314e-11 2.7400552e-11 8.917521e-12 1.1026052e-11 5.3559522e-12 1.8869986e-12 5.4359963e-12 2.1075958e-12
00000000: 1d39 d52e 4006 842e 175e 3e2e 5967 0d2e
00000010: 502c 372e ef37 d52d 4139 642e 0f21 d02d
00000020: ff22 0b2f be88 5b2e e673 4b2e e7af d32d
00000030: ca4d 392e e9d5 212e a37e 482e 2fca 2f2e
00000040: 02b3 962d 0bef d22e 83f6 d42d e405 182e
00000050: d53e 9f2d 8649 ec2d f1db e42d e33d 382f
00000060: ba09 2c2e ce49 b82d c805 9d2e 626f 032e
00000070: 8429 902e 5d95 cf2e a94b 9b2f 95ec b32e
00000080: 53f1 6c2e b142 a72e 9a9c f12e bb4c 712e
00000090: ac23 f72e 2757 ac2e b918 462e 9e4d 8c2e
000000a0: f04b 672e bd7d 002f 17dc fc2e 7de6 952e
000000b0: 8ca7 e22e 1593 292e 6fe8 972e 7c60 3e2e
000000c0: 5c3b 142e b6e1 702e 61e9 442e e969 822e
000000d0: 8fd4 192e 3673 d12d 9698 132f 13a8 af2d
000000e0: 89e6 632e ad0d 4c2e 52b5 772e bba6 4e2d
000000f0: ba27 2d2e 82a2 cc2d 72ed dd2d fcfd c72d
00000100: d97d 3d2e ae5a ab2e c4cf 572d 56a7 eb2d
00000110: 0958 232e 151c 642d dd6d cc2d 7b59 eb2e
00000120: c760 df2d 0234 1b2e b62b 3d2e abaa 5f2d
00000130: 4249 ec2d 38a6 fa2d 1050 782e 6e5c e32d
00000140: e070 b72e 54e8 d32d cdd4 a62e 1ab1 bc2d
00000150: ef30 b02e 892c db2d 32ee f52d 2fa0 972e
00000160: cc8d 462e f2ce 742d cf75 032e 16e6 0f2e
00000170: c22d 602e 8f8f 942d 534b 0b2e f0c9 852d
00000180: e4b7 422e 5e73 b12e 008c d12d baf2 f22d
00000190: 2062 e82e a5b6 8a2f dc7b 6f2f f2ee 382e
000001a0: 4aba 352f f0a5 952e 6d01 022f 21ca ab2e
000001b0: e676 0f2f 5557 232e 7c47 ee2e 7b5d cf2e
000001c0: 75d2 182f 3639 a12e 0432 942e 2057 db2e
000001d0: b0ce 2d2e ac34 902f 264f 702e ee31 fc2e
000001e0: e37d 3c2e bd9b c02e ca46 212f 72fa 122f
000001f0: 2386 e62f 32de bf2e 0eec 3e2f c773 342f
00000200: e963 ba2e 2a55 d22f 8f0f 8430 ea1d 862f
00000210: 03ab 7a2e 36c3 ff2e 3d08 e82f 5373 b42f
00000220: babd d52e 59a0 a02e d9a3 632e fabf 7b2e
00000230: 045e 022f e246 be2f 08ac 202f b161 432e
00000240: 1631 2330 21c5 362e 3c50 a630 ddad d82e
00000250: 99ac 3a2e 8ee7 c22f 9cb7 5b2c 393f a52d
00000260: c2ea 9d2c 7ebf 612c 2e76 8c2c 8c6a 922c
00000270: dd7e bc2c c801 0c2d 4d22 912c 248b 222c
00000280: 5bc1 542c 4d4b e42b da36 fb2b d985 452c
00000290: ca22 9d2c 0c75 e12d 8f0b bb2c 6427 7f2d
000002a0: a006 172c 7832 0e2d 091c 392c 8e13 282d
000002b0: da12 6f2d 03fe 302d 0875 0a2d 2a67 f02b
000002c0: eb7b 3b2c 4d5b 332c de64 0c2d c98a 262d
000002d0: ba46 5c2d 62f0 ec2c 706a 2e2c ee35 6f2c
000002e0: 806f 162d 9d11 392c 1db7 ad2c 4409 232d
000002f0: 4b0b 922c e6d0 1a2c 16b1 952c 0dbc 1a2c
00000300: 0d80 382c d65e 462c 6379 c02c 2016 162c
00000310: aa24 b72c e7c7 a82d d3d6 052c 0084 c52c
00000320: f705 132e 3e89 c12d 01be 392e 52ac ba2d
00000330: 5072 302f b9fa 3c2d ab92 952d e1b3 5f2d
00000340: f926 062e 8cc6 aa2d 2e49 c82d 4814 692d
00000350: 0408 972d 8e17 ae2d 3914 842d e691 0a2e
00000360: ab4e 952d 19db 332e 7ff4 c62d 0d50 122e
00000370: 07b4 962d 015c e22d eba9 8c2d 77b3 b72e
00000380: 83a8 072e bc79 472d b4cd 4b2e 1fe3 202e
00000390: 6bdb 212e 12ec 3e2f 20c3 0b2f 7917 d52d
000003a0: d50e 382e dc3a b52d e247 d72e 624f c42d
000003b0: db1c a92d cbdb db2d b541 b82d f395 682d
000003c0: 7742 d72d af89 ba2d f9f5 932e c529 8c2d
000003d0: ba13 ed2e 9521 7c2d 0c9f 852e c652 342e
000003e0: 132c ca2d 8f04 f12d f2e0 1c2d ecf8 412d
000003f0: 2172 bc2c 25c9 042c 1a43 bf2c 124f 142c
