lightning_logs/version_33479210/checkpoints/epoch=199-step=47800.ckpt (torch, 329840 bytes, 27 tensors)

model.gru.weight_ih_l0 f4 [150, 22]
00000000: 3fbf 2dbc 6409 e83b a91e 00bc 3228 0cbc
00000010: 163e a6bc f3a8 f33b 0dbf 0e3c d5e8 24bd
00000020: b4b1 313c be4a 0d3c 2a53 763c 231b d73b
00000030: 77f5 1b3d d444 e23c 79c0 9cbc 9c8e f3bb
00000040: 424c 0600 76f4 c23b 8cf2 b0bc 734c 653c
00000050: 3a79 0580 3895 3a3b efbb 923c 30a0 4fbc
00000060: 008a 503d 33a2 163d e9d6 9fbb f907 5f3d
00000070: 2732 8fbc 71a0 babc 7b6e c6bc 47a8 c8bb
00000080: bef6 4d3c f840 6f3d 162d 8e3c c20d 69bc
00000090: 4463 4a3c 26da d43c 8dc2 0580 4498 543c
000000a0: 9919 8abb 4b93 953c 038c 0500 8012 b73b
000000b0: b399 2d3c a543 fdbb 59bf 6e3a 41f2 32bc
000000c0: 9d2a 9eba 48e7 703c 4237 80bb 8d71 cebc
000000d0: ed5a 58bc ba25 a3bc a644 6a3c f879 ac3c
000000e0: 3789 013c 80bb 0dbc f589 553c e9a0 243c
000000f0: 1563 0580 014a a73c 8832 83bc cefe 093c
00000100: 177d 0680 76e7 ce3c bf2d ca3b b2e0 393b
00000110: c4a3 a13c f43e 213b e259 63bb 7ecc 0d3d
00000120: 3e93 14bc a068 1cbc 080d 56bc 3eda ca3b
00000130: a0fd 55bb d0c2 0e3d acfe 4b3c c563 8e39
00000140: 492d 24bc ee69 acbc bdf8 0500 3eca 9d3c
00000150: aa4b 7d39 614c 10bc 8870 0580 6815 913c
00000160: d21f c0bc 581b 83bc 6d57 4cbc c212 333c
00000170: 1dc8 ddbc 3b9f 8c3d e881 98bc 346e 0b3d
00000180: 2668 d83c 0f3c 893a 39f9 9dbb 2d78 963d
00000190: 4530 113b e92e fb3b d53f 82bc 15ee d0bc
000001a0: 44ff 0500 6dd0 643c a047 1dbc aba1 383c
000001b0: a35e 0500 77e8 03bc ec58 0f3c 95d8 a93c
000001c0: f7d1 35b9 08ac 3aba c2b9 98ba bf94 c83c
000001d0: 8cbb 353b 56d7 a23b 0f0b 96bc 8489 07bb
000001e0: d35d 5cb9 3723 ee3c 195b 65ba c0c9 a7bc
000001f0: 5dab 173c 9dab 713c 8868 0580 f35f f138
00000200: b689 89ba 4b10 443b 27ec 0500 9145 d43c
00000210: ed88 0dbd d1f9 86bc 6030 0d3c 5f0a af3c
00000220: 14ab 5dbc 1501 c53d 1a04 0fbc 4096 11bc
00000230: 2a26 0d3d c692 95bb 0875 68bb 56f9 cb3d
00000240: 7781 183d 3d06 ae3c 3f90 b8bc 19b8 edbc
00000250: 1d68 0580 02c6 223c f207 d7bc 07ca 4338
00000260: 7b78 0580 cb7e c5bc a918 1c3d 1316 953c
00000270: ba4c 473d 67ae 74bc 1106 d03c f933 733c
00000280: 29e7 043d 9ab5 bdbd 8d6c 853d 1592 dc3b
00000290: 9db0 79bd 3947 05bd b82e ac3c 6ac4 433b
000002a0: f767 e93c e570 32bc c366 0500 5320 ebbc
000002b0: 5ee6 3e3d eb68 a23d 411b 0600 7637 8cbd
000002c0: 8953 873b f65e 513c c490 b4bb 8363 04bc
000002d0: 0c0d 293c 1cdc 6a3d 1ad4 9438 9136 a5bc
000002e0: 3643 ea3c 80f3 17bc c359 4dbb 5368 7f3d
000002f0: 876b 153d 55cc e23b 53d6 1abc b81e 98bc
00000300: 9f70 0580 dc8f 77bc 4ab3 cbbc e0dd 7bb8
00000310: 5a9c 0580 2a87 f5bc 21d8 653c e453 fcbc
00000320: 6b62 c0bc 1402 09bc ef4c ddba 60b8 633d
00000330: ded3 31bc 3f6a 59bc 498e c33c 0aab 32bd
00000340: aa5f 8b3c 6c3a 963d c5ab 103c 3b36 803c
00000350: 8ae7 75bb fc5d 1e3d 3874 0580 23f6 633a
00000360: f60c 813b f5d2 18ba 9a78 0500 bc0e b83c
00000370: 724e 98bb 33b9 1ebd 3665 2cbc c791 373c
00000380: 65c1 dabc 4b2a 063e cdec 183d 33f6 0ebd
00000390: 57c1 123d 7112 13bd 0e90 b8bb 0b00 143e
000003a0: faf5 01bd b2fc 573d 0605 eabc 7c31 23bc
000003b0: dc7f 0580 a3fb 7e3a 2481 abbc 18ce 99ba
000003c0: 4ee3 0580 82aa 653c 92ba 3c3d ded1 6a3d
000003d0: 1337 c5bb 26ed 2fbd b3ac 633d d25f 1b3e
000003e0: ad80 243c a53e 803d 54ae 2a3d 20b3 643c
000003f0: 63a4 e5bc 2f07 263e 1b38 843d 272b dc3b
-0.010604679 0.0070811976 -0.00781981 -0.008554505 -0.020293277 0.007435912 0.008712542 -0.04026111
0.01084559 0.008623777 0.015034476 0.0065645142 0.03807589 0.02762071 -0.019134747 -0.007432772
5.78369e-40 0.005949552 -0.02160003 0.013995278 -5.02665e-40 0.002847029 0.01791188 -0.012672469
0.050912857 0.03677578 -0.004877914 0.054450963 -0.01747997 -0.022781583 -0.024222603 -0.006123576
0.012571035 0.05841157 0.017355483 -0.0142244715 0.012352768 0.025982928 -5.28969e-40 0.012975756
-0.0042144773 0.018258711 5.09404e-40 0.005586922 0.010595727 -0.007729011 0.00091074925 -0.010922016
-0.0012067143 0.014703579 -0.0039128372 -0.02520063 -0.013205272 -0.01991545 0.014298594 0.021054253
0.00790625 -0.0086506605 0.01303338 0.01004813 -4.94721e-40 0.02042103 -0.016015306 0.008422567
-5.95887e-40 0.025256854 0.006170004 0.0028362689 0.01973141 0.0024604173 -0.0034691026 0.034618847
-0.009068308 -0.009546429 -0.01306463 0.0061905673 -0.0032652393 0.034853756 0.012450855 0.00027158685
-0.010020562 -0.021046605 5.48408e-40 0.019261476 0.00024156147 -0.008807273 -4.99546e-40 0.017710403
-0.023452673 -0.01600425 -0.012472016 0.010929765 -0.02707296 0.06866308 -0.018616632 0.034040645
0.02641685 0.0010470169 -0.0048209694 0.073471405 0.0022154015 0.0076655042 -0.015899578 -0.025504151
5.5075e-40 0.013965708 -0.009599596 0.011269013 4.93127e-40 -0.008051029 0.008749228 0.020733157
-0.00017339723 -0.00071209716 -0.001165204 0.02448499 0.0027730195 0.0049695177 -0.01831582 -0.002068133
-0.00021015787 0.029069526 -0.00087492313 -0.020481944 0.009257165 0.014750388 -4.96676e-40 0.000115096474
-0.0010493312 0.0029916938 5.43893e-40 0.025912078 -0.03455441 -0.016476544 0.0086174905 0.02136725
-0.013529558 0.09619347 -0.008729005 -0.00888592 0.034460224 -0.004564616 -0.0035470147 0.099596664
0.037232842 0.021243209 -0.02252972 -0.029018449 -4.96526e-40 0.009934904 -0.026248906 4.6679776e-05
-5.02398e-40 -0.024108311 0.038109455 0.018199002 0.048657157 -0.014934159 0.025393518 0.014843934
0.032447014 -0.092631534 0.06514845 0.0067312815 -0.060959447 -0.032538626 0.021018371 0.002987171
0.028491957 -0.010891174 4.96041e-40 -0.028701937 0.046606414 0.07930168 5.6079e-40 -0.06846516
0.004129831 0.012778988 -0.0055104215 -0.008080366 0.010318052 0.05733882 7.096697e-05 -0.02016762
0.028596502 -0.0092743635 -0.003133402 0.06235535 0.0364795 0.006921331 -0.009450513 -0.018569335
-4.99578e-40 -0.015109982 -0.024865765 -6.00497e-05 -5.15266e-40 -0.029971678 0.01402858 -0.03080172
-0.02348443 -0.008362312 -0.001688389 0.055595756 -0.010853736 -0.01326996 0.023871558 -0.043620147
0.01701339 0.07335362 0.008830016 0.01565086 -0.0037522041 0.03866385 -5.00869e-40 0.000869604
0.0039383126 -0.0005829775 5.02441e-40 0.022467963 -0.0046480233 -0.03875084 -0.010522177 0.01120419
-0.026703546 0.13102071 0.037335206 -0.034902763 0.035828914 -0.03590626 -0.005632407 0.14453141
-0.031728722 0.052731223 -0.028566848 -0.009960528 -5.05045e-40 0.0009726828 -0.020935602 -0.0011734394
-5.40719e-40 0.014017703 0.046076365 0.05732905 -0.0060185282 -0.04295077 0.05558462 0.15173271
0.010040444 0.062619485 0.04167016 0.013958722 -0.028032487 0.16213678 0.06456014 0.0067190113

model.gru.weight_hh_l0 f4 [150, 50]
00000000: 2cb5 e5bb 0f5f 063a bb53 3838 20da 473b
00000010: fd1c debb eed3 1eb9 e77d d639 b5e7 32bb
00000020: c17a b0ba 3ac6 0a3c 672c 23bc 161b 07ba
00000030: 7a90 df3b bcf0 053c 7781 c93b 0b1b fe3a
00000040: 2cdc f83b 2a7b cbbb 52d6 633a f2fd 6e3b
00000050: 5f6f 83b8 0d98 f1bb 4526 1b3c d313 3cbb
00000060: 7c7d 2e3b 804f 25bb bd4b 883b 899b 723b
00000070: 0fe5 22ba c0ec 46b9 bd72 cbbb b8a8 093c
00000080: 760a b53b 3eba b7bb c1f1 9d3b 8b2e 8d3b
00000090: 444d 243b 93ab 07ba f5bf b5ba c5fe 53ba
000000a0: 4a92 e23b baa3 f2bb 125c fabb 02db aa39
000000b0: 964d 793b 816e cd3b 3c7d e73b 354f 41bb
000000c0: 83f6 403b ab92 f33b 64f5 8dbc fdd9 5e3a
000000d0: 139f 2bba aa38 d33c eb70 943b a6e1 8fbc
000000e0: d7ae 0a3c 0f80 753b 8290 a0bc c152 503c
000000f0: 62f8 9cbc 4d9f 823c 0c9c 15bc a04a 92bb
00000100: 43ff c5bb ccda 563c f4d6 963c e526 83bc
00000110: 1293 8abc 4495 b83b 89bf 2ebc 62b5 203c
00000120: 7ce3 833c 6c6b 15bc 97b5 843c f720 9a3b
00000130: 0396 58bc 5c68 1abc cb63 d33c d5e3 003c
00000140: 3092 773c f04b d8bb 6e16 2f3c 4aca 7a3c
00000150: 888f 5bbc de54 dd3b d448 83bc 274f 0d3c
00000160: d854 32bc 8868 14bc cc0b a5bc 8151 4dbc
00000170: 83c9 bdbc 8995 1c3c ec96 2cbb 6d09 b33c
00000180: 3f88 0a3c cb17 813c 629b 1abc d557 723c
00000190: 40f1 e0bb 5502 67bb a446 f53a b23f e53b
000001a0: 6e82 003c 0086 0abb 50d6 963a 3c66 f9bb
000001b0: 98e7 9abb 5510 48ba 3727 2fbc edaa 2a3b
000001c0: 9461 153c a6c8 5cb9 70c1 663b a40a afbb
000001d0: 26c2 ce3a 698b 8ebb 8a4a 97bb e3d7 efbb
000001e0: 30a4 dfbb 427a 1f38 fc51 643b ed50 0cbb
000001f0: 43e8 b13b 9773 a7bb 37ea f2ba eda0 13bb
00000200: bb51 3d3c a474 223c 045d 103c b972 163c
00000210: 309d 9a3a 57fd 2a3b f44d babb bb15 40bb
00000220: 9156 7fbb 2b0f 05bc 8a62 a0bb 0dad 1bba
00000230: 469d a8bb 9631 ce3a 0d76 32bc f691 793b
00000240: 16be 9a3b 015c 2c3a 5b89 1a3b e639 d13a
00000250: 19bd e939 d243 023c 3484 67ba 1d0d baba
00000260: e9e9 7e3a d8bc 85bb 8398 db3b 34b4 89bb
00000270: f0b4 403c c677 9639 3c6b c93a 4cb9 ca3b
00000280: b1d3 16bc cfc1 993b 455c 4fbb 4eca 91ba
00000290: e080 c0ba 3b5b 383b f72f af39 b6bd b5bb
000002a0: e7ff d6bb f55c 55bb 3882 6bbb e25e 553b
000002b0: 9247 253a 1030 bbbb 2f11 103c e87c 9bbb
000002c0: dbda 31bb 86d4 0bb9 de35 423b eb66 293c
000002d0: 88e5 263c bdea 91bb a6d5 b83b 717d fd3b
000002e0: e43f b0bb cc7c b03b fb64 e5b9 96d7 40ba
000002f0: ca3a 68bb f43f 983a 5dce 4dbc a986 5cbb
00000300: 9a8b 173c 1bae 993b c70f 313c 505e db3a
00000310: f046 4d3c 0ccb 883b d3d4 62ba dde5 013b
00000320: f06b 113b 3cc1 b93b 856f e0ba 4e53 703c
00000330: 0df1 413b d7ca 91bc 1848 bd3b c368 003d
00000340: f185 2cbc 8c0a d53b b8b6 d43b bebe 633c
00000350: 868f cfbc b253 e3ba 73d2 a1bc a3b5 d13c
00000360: 23d4 e13c 75ad a3ba d0d3 b7bb 897e c93c
00000370: 503b dbb9 6009 5e3a 0190 8c3c 9a90 15bb
00000380: 1b72 d1bb 1a0d 1eba 9c1b ac3b da34 6dba
00000390: 6924 403b 39a1 dcbc 24d8 9339 21b7 fabc
000003a0: 0af9 4e3a ee8a 7d3b ee81 e03b 7b48 3b3c
000003b0: f307 06bc 71af 053d 49b9 05bc 511e b2bc
000003c0: 7bb2 d73a ba41 a7bb a4c2 853b a546 18bc
000003d0: cc4b 36bc e010 a23c 52b3 b03b aa9c 113c
000003e0: c5e9 723b 7df8 333c eba6 353c 21e1 593c
000003f0: 8666 2b3c 4d71 31bc 6018 393c ddc5 5a3c
-0.0070101228 0.0005125859 4.3947e-05 0.0030495003 -0.006778358 -0.00015147004 0.00040911065 -0.0027298753
-0.0013464318 0.008470112 -0.009959317 -0.00051538774 0.006822643 0.008175071 0.0061494666 0.0019386722
0.007594606 -0.0062097507 0.0008691299 0.0036467281 -6.267311e-05 -0.007372862 0.009469573 -0.002869834
0.0026625087 -0.0025224388 0.0041594193 0.0037018976 -0.0006213942 -0.00018970948 -0.006208746 0.008402042
0.0055249287 -0.0056069186 0.004820079 0.004308527 0.0025070468 -0.0005175408 -0.0013866412 -0.0008086975
0.0069144117 -0.0074047716 -0.00764037 0.000325881 0.003804063 0.0062692766 0.0070644896 -0.0029496674
0.0029443807 0.0074332557 -0.017328925 0.0008501111 -0.0006546836 0.025783855 0.0045300624 -0.017563652
0.008464537 0.0037460362 -0.019600157 0.012715043 -0.019161407 0.015945101 -0.009131443 -0.0044644624
-0.0060423925 0.013113689 0.018413045 -0.016009757 -0.016915832 0.005633028 -0.010665783 0.00980887
0.016099684 -0.00911985 0.01619987 0.0047036367 -0.013219359 -0.009424295 0.025804421 0.007866819
0.015110537 -0.0066008493 0.0106865 0.0153070185 -0.01340092 0.0067545017 -0.016025938 0.008624828
-0.010884486 -0.009058125 -0.020147227 -0.012531639 -0.023167377 0.009557136 -0.0026335074 0.02185508
0.008455335 0.015758416 -0.00943646 0.014791449 -0.0068646967 -0.0035249193 0.0018713069 0.0069961185
0.007843597 -0.0021137 0.0011507962 -0.0076110642 -0.004727315 -0.0007631828 -0.010690502 0.002604182
0.009117503 -0.00021055582 0.0035210513 -0.0053418446 0.0015774413 -0.004350115 -0.00461704 -0.007319437
-0.0068249926 3.8022416e-05 0.0034838906 -0.002141054 0.005429299 -0.005110215 -0.0018532936 -0.002252634
0.011555131 0.009915505 0.008811239 0.009182625 0.0011796113 0.0026090944 -0.0056855623 -0.0029309827
-0.003896151 -0.008121292 -0.0048945593 -0.00059385673 -0.0051457016 0.001573133 -0.010892403 0.0038081384
0.004722367 0.0006574989 0.0023580405 0.001596269 0.00044582112 0.00795074 -0.00088316505 -0.0014194582
0.00097241864 -0.00408135 0.0067015304 -0.00420239 0.011761889 0.00028699468 0.0015367041 0.00618664
-0.009205745 0.0046922932 -0.003164069 -0.0011122914 -0.0014686845 0.002813055 0.00033414338 -0.005546297
-0.0065612677 -0.0032556627 -0.003593577 0.0032557775 0.00063049153 -0.0057125166 0.008793159 -0.0047451146
-0.0027138505 -0.00013335244 0.0029634158 0.010339479 0.01018656 -0.004453032 0.0056407033 0.007735901
-0.00537871 0.0053859707 -0.0004375352 -0.00073563436 -0.0035435432 0.0011615739 -0.012561408 -0.00336496
0.009249592 0.0046899444 0.010806984 0.0016736481 0.01252912 0.0041745957 -0.0008652929 0.0019820847
0.002218958 0.0056687873 -0.0017123079 0.014668299 0.002959314 -0.017796917 0.0057764165 0.03134991
-0.010529981 0.0065015014 0.0064915083 0.013900457 -0.025336992 -0.0017343669 -0.01975367 0.025599306
0.027566975 -0.0012487607 -0.005609967 0.02459647 -0.00041815126 0.0008470025 0.01715851 -0.0022821785
-0.0063917763 -0.0006029174 0.0052523147 -0.0009048708 0.0029318577 -0.026932346 0.00028199062 -0.0306049
0.0007895386 0.0038687545 0.0068514263 0.011430855 -0.008180606 0.032638017 -0.008161851 -0.021742972
0.001645639 -0.0051042708 0.004082041 -0.009294187 -0.01112647 0.019783437 0.0053924704 0.008887449
0.0037065607 0.010984537 0.01108716 0.013298304 0.010461455 -0.010830236 0.011297315 0.013352838

model.gru.bias_ih_l0 f4 [150]
00000000: f792 0b3c 7ca4 193c 1ad5 193c 20fc 32bc
00000010: ae7d b63a fb53 22bd 6c40 cbbc 8b59 753d
00000020: 18af 9abc 7b0a 023c aaef 213d eee8 5f3d
00000030: 186f 823d 83c9 0cbc ce79 bdba 3ab0 a23d
00000040: 0ac1 a7bc c698 cb3c 6f49 513c 93cb 81bc
00000050: ada4 3abc dd7c 023d bb39 f83c a0ea ed3c
00000060: 5c85 043d 8d64 35bd b1fc dd3c d441 783b
00000070: 4ffc b73c d1de 4f3c 20a1 413d 765a c13d
00000080: 0bff c3bc 4e6b b93b fac4 2fbc 17c0 3f3e
00000090: 82d0 efbc a76f 7cbc 08eb eabc a90e 2e3d
000000a0: a1db 983b 3d8d 463b 7cfd d4bc 5a63 f2bc
000000b0: 3a50 cf3c 215e 233d d35a 8abc bf48 a53c
000000c0: e2ca debc 2061 87bb fc7a 7e3c 2252 3d3b
000000d0: 128a 13bc f1a6 74bd 4aec 653c 667d 793d
000000e0: bb16 c8bc a33c 7e3d 8965 13bd eeee c238
000000f0: 49fe 9dbc 3355 133d 2109 923d 48fa 673d
00000100: f37d 843d b620 2c3d 7181 64b9 7320 b13b
00000110: 3743 3b3d 1657 183d 7ad8 733c d613 d03c
00000120: 6fba 34bd 1af4 65bc 0b79 35bd d4f3 07bd
00000130: 1e76 0d3d 82fa 523c 6ac4 793d f8a4 9b3d
00000140: 4a88 a53d c8ce a23b cbbb 9abb af2a 7d3c
00000150: c94f 743c 79db fc3c 492d 7ab9 e60a 8a3d
00000160: 7d4e 33bd dc67 323d 7f57 253d 308b 8c3c
00000170: 8ed6 8d3c 7b80 1f3d a52e 143d f955 853b
00000180: 8f99 e33c a1c5 173a 6bfd 0abd 65b5 0e3d
00000190: d994 c2bc ea06 a6bc c49b 243c 2eef 75bb
000001a0: c77d 5bbc 988b 11bd 8f7c 50bd 1a34 223d
000001b0: dd5b 96bc 19f1 cabb 471e f5bc fe15 b03d
000001c0: 5ab5 56bd a9c1 24bd 09fa 49bd fa47 8ebc
000001d0: 59ac 823c 4cea 183d 8866 4cbd 1df2 083d
000001e0: bfd8 8cbc 0cc3 263c 7cb9 a73c a10e c8bc
000001f0: 5a0b 343b 17cf 713d d1be 85bb ba5d fdbc
00000200: 78ed ef3c 780d 133d 0b0c 123d 8633 1d3d
00000210: eea2 003c 49d5 023d d839 1fbd 4738 8e3d
00000220: 6c8e 32bd c0d6 b03c 9151 33bc d887 edbc
00000230: e94b 09bd 02ef a83c cd2f 0cbd e7cb 033c
00000240: 1e0f df3b 8def f2bb 817d 2abd f70b 653c
00000250: 1eb0 94bc 4c17 8abc
0.008518926 0.009377595 0.009389186 -0.010924369 0.0013922954 -0.03963087 -0.024810992 0.059899848
-0.01888232 0.007937069 0.039535202 0.0546655 0.06368846 -0.008592966 -0.0014455856 0.07943769
-0.02047779 0.024853121 0.012773856 -0.015844142 -0.011391801 0.03185736 0.030300966 0.029042542
0.032353744 -0.044285346 0.027098032 0.0037881033 0.022459177 0.012687401 0.0472728 0.09441082
-0.023925325 0.0056585437 -0.010728115 0.1872562 -0.029274229 -0.015407479 -0.028676525 0.04249445
0.0046648537 0.0030296587 -0.025999777 -0.02958839 0.02530681 0.03988469 -0.016889011 0.02017629
-0.027196351 -0.0041314512 0.015532251 0.0028888066 -0.0090050865 -0.05972952 0.0140333865 0.060910605
-0.024424901 0.062069546 -0.035985503 9.295145e-05 -0.019286292 0.035969924 0.071306475 0.05663517
0.064693354 0.042023383 -0.00021791995 0.0054054796 0.045718398 0.037192427 0.014883155 0.025400084
-0.04412311 -0.014035249 -0.04430489 -0.033191517 0.034536473 0.0128771085 0.06097833 0.07599825
0.08082636 0.004968498 -0.0047220937 0.015452071 0.0149116 0.030866371 -0.00023858728 0.0674036
-0.043776024 0.04355608 0.040366646 0.017156214 0.017314222 0.038940888 0.036177296 0.0040690866
0.027783183 0.0005789642 -0.033933084 0.03484096 -0.023752617 -0.020266969 0.010046903 -0.0037526595
-0.013396687 -0.035533518 -0.05090004 0.03960047 -0.01835435 -0.006193292 -0.029921664 0.08597945
-0.052419044 -0.04022375 -0.049310718 -0.017368305 0.015951322 0.037332818 -0.04990247 0.033434022
-0.017193196 0.010178339 0.020474188 -0.024421038 0.0027472586 0.059035387 -0.004081585 -0.030928481
0.029288039 0.035901517 0.035656016 0.038379215 0.007851345 0.031941686 -0.038873523 0.06944328
-0.043592855 0.021586776 -0.01094474 -0.02899544 -0.03351966 0.02062178 -0.034225274 0.00804422
0.006807222 -0.0074138106 -0.041623596 0.013979903 -0.018150385 -0.016856812

model.gru.bias_hh_l0 f4 [150]
00000000: f792 0b3c 7ca4 193c 1ad5 193c 1efc 32bc
00000010: ae7d b63a fb53 22bd 6c40 cbbc 8fea 693d
00000020: 18af 9abc 2a0a 023c baef 213d d2b9 5f3d
00000030: d5b8 7d3d 83c9 0cbc ba7b bdba 4092 b33d
00000040: 0ac1 a7bc c698 cb3c 274a 513c 93cb 81bc
00000050: ada4 3abc e17c 023d 7f35 f83c dae3 ed3c
00000060: 5c85 043d 9064 35bd 0dfc dd3c 4640 783b
00000070: 4ffc b73c f7de 4f3c 1fa1 413d b639 bb3d
00000080: 0bff c3bc 4e6b b93b 08c5 2fbc 3bd7 413e
00000090: 82d0 efbc 3a85 6bbc 08eb eabc 6602 2e3d
000000a0: a1db 983b 008f 4e3b 7cfd d4bc 5a63 f2bc
000000b0: a90b d03c e7e7 263d d35a 8abc 6e3d a53c
000000c0: e1ca debc 2e61 87bb fc7a 7e3c 2252 3d3b
000000d0: 128a 13bc f1a6 74bd 4aec 653c 667d 793d
000000e0: bb16 c8bc 077f 7e3d 8965 13bd eeee c238
000000f0: 49fe 9dbc 3355 133d f408 923d 48fa 673d
00000100: f37d 843d 9220 2c3d 7181 64b9 7320 b13b
00000110: 3743 3b3d 1657 183d 7ad8 733c d613 d03c
00000120: 6fba 34bd 0ef4 65bc 0b79 35bd d4f3 07bd
00000130: 1e76 0d3d 82fa 523c 6ac4 793d f8a4 9b3d
00000140: 4688 a53d 62ae a23b cbbb 9abb af2a 7d3c
00000150: c94f 743c 79db fc3c 492d 7ab9 930d 8a3d
00000160: 7d4e 33bd dc67 323d 7f57 253d 308b 8c3c
00000170: 8ed6 8d3c 7b80 1f3d a52e 143d f955 853b
00000180: 8f99 e33c a1c5 173a 6bfd 0abd 65b5 0e3d
00000190: 89a9 143c a63a 893c 4736 5dbd c4de 493d
000001a0: bce1 23bd b68e 0fbd a858 b2bc 1a89 b5bc
000001b0: c872 d13b e20a 0c3d 735f 793c 5c3f c1bb
000001c0: 27f8 b23c 6bda 82bc b8b8 213d b6f9 023e
000001d0: d93e 09bd cff7 efbc 8366 c33c 864e fd39
000001e0: 984a 873c d84e 4d3d e7f2 1e3c 3d18 cb3c
000001f0: 08c8 b1bd e710 25bd aec5 84bd 5701 a9bc
00000200: cb7e 9c3d dae6 48bd 3aa6 f4b9 1f07 85bd
00000210: e993 ec3c 0f5e 30bd 0ff7 1e3d c1f3 58bc
00000220: 6f77 653c 999a ba3b 9d60 1e3d 2001 84bd
00000230: 9c00 fb3c 5769 89bd 8f72 09bb 2fc5 bb3c
00000240: 261b 773c 010c d93d 6502 8dbc f9cd 633d
00000250: 53b7 59bd 6152 64bc
0.008518926 0.009377595 0.009389186 -0.010924367 0.0013922954 -0.03963087 -0.024810992 0.057108458
-0.01888232 0.007936994 0.03953526 0.05462057 0.061943848 -0.008592966 -0.0014456429 0.08768129
-0.02047779 0.024853121 0.012774027 -0.015844142 -0.011391801 0.031857375 0.030298946 0.029039312
0.032353744 -0.044285357 0.027097726 0.0037880107 0.022459177 0.012687436 0.047272798 0.09141867
-0.023925325 0.0056585437 -0.010728128 0.1892976 -0.029274229 -0.014375025 -0.028676525 0.042482756
0.0046648537 0.003151834 -0.025999777 -0.02958839 0.025396185 0.040748503 -0.016889011 0.020170894
-0.02719635 -0.004131458 0.015532251 0.0028888066 -0.0090050865 -0.05972952 0.0140333865 0.060910605
-0.024424901 0.06213286 -0.035985503 9.295145e-05 -0.019286292 0.035969924 0.07130614 0.05663517
0.064693354 0.04202325 -0.00021791995 0.0054054796 0.045718398 0.037192427 0.014883155 0.025400084
-0.04412311 -0.014035238 -0.04430489 -0.033191517 0.034536473 0.0128771085 0.06097833 0.07599825
0.08082633 0.0049646357 -0.0047220937 0.015452071 0.0149116 0.030866371 -0.00023858728 0.0674087
-0.043776024 0.04355608 0.040366646 0.017156214 0.017314222 0.038940888 0.036177296 0.0040690866
0.027783183 0.0005789642 -0.033933084 0.03484096 0.009073623 0.016751599 -0.05400684 0.04928471
-0.0400102 -0.03504821 -0.02177079 -0.022160102 0.006391857 0.034190066 0.015220511 -0.0058974456
0.021846844 -0.01597329 0.039482802 0.1279057 -0.0335072 -0.029292969 0.023852592 0.00048314425
0.016515061 0.05012402 0.009701467 0.024791831 -0.08680731 -0.040299322 -0.06483017 -0.020630522
0.07641371 -0.049048282 -0.00046663155 -0.06495499 0.028879123 -0.04305845 0.038809832 -0.013241709
0.014005526 0.005694699 0.038666356 -0.06445527 0.030639939 -0.06709545 -0.0020972823 0.022921173
0.015082156 0.10597993 -0.017213056 0.055616353 -0.053153347 -0.013935656

model.gru.weight_ih_l1 f4 [150, 50]
00000000: 6d21 e3bb 7eaa 8f3b a361 aeb8 25d1 ffba
00000010: 241f 473a 0e61 f33b 6ad3 a63b fb1f 2b3a
00000020: 978e 1abc d014 0bbb 9290 11bc 3645 babb
00000030: 0f5c e4bb 704d a8bb 942d a43b 1e49 e63a
00000040: e9d8 14ba 50ba 7fbb ae5d 253b d82e 9bbb
00000050: 29a0 363b d942 e1ba 2cd8 7d3b a7e7 19b9
00000060: ecaf 27ba fd8c 3cba c7b5 c63a 4488 27bc
00000070: 05d4 9d3a d984 2bbb c76d f6ba 9da2 c13b
00000080: 3c72 8e3a 5197 c0bb 648b 7d3b d2ed dcbb
00000090: 27bd 0db9 02d5 073c e3ba af3a 0894 d63b
000000a0: dcc4 d03b 7f1a 5bbb 74c3 133b 0458 cabb
000000b0: 567f 3dbb 9861 c83a 8957 e13b 4e0e c9bb
000000c0: 2e0b d63a 9cba 133c 595b f3bb 4460 1fbc
000000d0: 813d cfba fd37 a4ba 7f17 bbbb 63bf 013c
000000e0: 58ad fdb8 3172 6abb ec9b 2dbc 9284 50bc
000000f0: 0149 8ebc 3c13 22bb c1ea 2d3c 6c76 363c
00000100: 733b ed3b 1240 dbbb 7988 093b 3f94 203c
00000110: 15ed d03b 8b9f 26bc 001b 503b e70f cf37
00000120: f2a4 9ebb 7a52 54bc 6e91 f03b b319 c93a
00000130: c650 313c b709 05bc 0485 5bba 4b0e 81bb
00000140: 105d b3bb 7e66 723c de10 ceba 8f8f f1bb
00000150: 2f10 2abb c04d 49bc f780 d73b 67d5 2ebc
00000160: f824 84ba 29db 9d3b 39a7 973b ad11 a838
00000170: 1e86 d2bb a5b8 87ba 9d61 b9bb 740f d2bb
00000180: 815b 323c a785 e2ba 6f0b ddba f68d 85bb
00000190: c73a 673c 0ce0 793a 9813 1fbb ca32 aaba
000001a0: ba1b 95bb 2fd7 363c 796c f739 3003 fdbc
000001b0: 6848 f23b fcab e9ba 481a dd3b bb74 20bb
000001c0: 801f 013d 8434 883c 94c0 99bb b6ff 97bc
000001d0: a177 77bb baa8 473c da14 653c 3254 d039
000001e0: bc90 02bb 489d baba d8a4 fdbb 8353 f8bb
000001f0: 4609 13bc 610d 313c 72a5 9f3b 0700 7d3c
00000200: bffb b73b 5c03 953a 8906 183c 0e90 e33c
00000210: 3b6e feba 1240 e9bb c757 443c d427 04bc
00000220: 0766 333c 07ac 23bd 75da 65bc dc92 633c
00000230: 225b 8cbb 7dd1 1c39 b569 823b 2446 24bc
00000240: f603 703b 3667 c8bb 7c0d ae3b 37dd 4dbb
00000250: 6b08 3dbb 8a91 9eba dbfb 0fb7 17e2 50ba
00000260: 461e 613a 1dac 78bb 98a4 833b 8e9a 523b
00000270: fab6 40bb 810b 48bb 4690 5a3b 2bb2 953b
00000280: 41b7 7bbb 6e4b b1bb c25e 4dba 1bd5 03bc
00000290: 5d83 cb3b e195 6eba e466 d1bb 2eb7 abbb
000002a0: e22e e8ba 86e0 f4bb 19a4 bd3b c95b 043c
000002b0: 0784 a339 b134 923b 1b52 a439 b49a 99bb
000002c0: cf1b c8bb cc92 513b 8a4a c6bb 39dd 623c
000002d0: 67f6 173b b48d e33a 3e6b cdba 9e88 d63b
000002e0: c739 08bc 2ae8 463a 89b6 ab3a 4e64 943a
000002f0: 0bd4 513c 93f0 dc3b fbeb aebb fa3e 7a3b
00000300: f24d 873b fa26 663c 2592 0d3c d69c 8dbb
00000310: 03ff 66bb 854a 4c3a 792f 9eb9 12b2 573a
00000320: 6199 8a3b a1eb 9c3b 23b2 19bb a006 a9bb
00000330: 06c1 09bb 49bd 843c 3353 6a3c 275e c539
00000340: 9bf2 353c d19c ad3b 9f1e a0b9 57c1 24bc
00000350: 55e6 003c b7b2 043a 5539 4c3b 7444 0bbc
00000360: 595a 78bb 8d27 05bc dc79 f7ba fe92 e3bb
00000370: 539e a23b 83f6 2cb9 7e56 13bc 58bc 9a3b
00000380: b5b7 803c 9f19 aebb 257c fc3a 157c 47bb
00000390: a0cf 23bc 6dfa 153c a717 bb3a d268 553b
000003a0: e395 6a3b 738e 593b cdd7 78bb f749 d9bb
000003b0: eeba 613b 90d9 82bb d458 22bb a93a 3f3c
000003c0: ca67 7c3b 4796 463a fdbd 653c 9c67 2f3c
000003d0: 11c4 2d3c 99e5 84bc 1d33 ec3b 88fa 31bb
000003e0: 9bdc c23b d893 38ba 75e2 3f3b fce9 3d3b
000003f0: 913a eab9 9dbd 23ba 5754 8b3a c379 73bb
-0.006931475 0.004384338 -8.315153e-05 -0.0019517286 0.0007595888 0.0074273413 0.0050911205 0.0006527898
-0.00943341 -0.0021222122 -0.008884566 -0.00568452 -0.006968982 -0.0051361844 0.005010316 0.0017569398
-0.0005678074 -0.0039020963 0.002523284 -0.004735809 0.002786646 -0.001718606 0.0038733585 -0.00014677514
-0.0006396759 -0.000719264 0.0015160375 -0.010225359 0.0012041336 -0.0026171713 -0.0018801027 0.0059092776
0.0010867785 -0.0058774133 0.003868782 -0.0067422176 -0.00013517273 0.008290531 0.0013407137 0.0065484084
0.0063711237 -0.003343254 0.002254692 -0.006175043 -0.002891501 0.0015287874 0.00687689 -0.0061357385
0.0016330236 0.009016659 -0.007426661 -0.009727541 -0.0015811176 -0.0012528893 -0.005709588 0.007919165
-0.00012096268 -0.003577363 -0.010596257 -0.01272692 -0.017368795 -0.0024730703 0.010615052 0.011136632
0.007239753 -0.0066909874 0.0020985885 0.00980097 0.0063759186 -0.010169874 0.0031754375 2.4683728e-05
-0.0048414404 -0.012959117 0.0073415553 0.0015342742 0.010822481 -0.008119992 -0.0008374008 -0.0039384714
-0.0054737404 0.014794944 -0.001572158 -0.00737185 -0.0025949588 -0.012286603 0.006576653 -0.010670996
-0.0010081818 0.0048173857 0.004628089 8.0141566e-05 -0.0064246794 -0.0010354711 -0.0056573884 -0.0064105336
0.010886074 -0.0017282263 -0.0016864369 -0.004075761 0.014113135 0.0009531982 -0.0024273153 -0.0012985107
-0.0045504244 0.011159702 0.0004719233 -0.030885309 0.0073938854 -0.0017827745 0.0067475177 -0.002448364
0.03152418 0.016626604 -0.0046921466 -0.01855455 -0.0037760513 0.012186224 0.013982022 0.00039735582
-0.0019922694 -0.0014237547 -0.007740598 -0.0075783147 -0.008974379 0.010806412 0.0048720175 0.015441901
0.0056147273 0.0011368799 0.009278902 0.027778652 -0.0019411513 -0.0071182335 0.011983818 -0.008066136
0.010949618 -0.03995898 -0.014029135 0.0138899945 -0.004283325 0.0001495536 0.0039798864 -0.010026488
0.0036623455 -0.0061158193 0.005311666 -0.0031412372 -0.0028844129 -0.0012097817 -8.582104e-06 -0.00079682603
0.000858758 -0.0037944384 0.004017424 0.0032135579 -0.0029405938 -0.0030524435 0.0033350154 0.0045683584
-0.0038408788 -0.0054106032 -0.00078342494 -0.008046414 0.006210728 -0.0009101313 -0.0063904393 -0.0052403426
-0.0017714167 -0.0074730543 0.005787384 0.008078524 0.0003118815 0.0044618477 0.0003134169 -0.0046876315
-0.0061068307 0.0031978367 -0.006051366 0.013846689 0.0023187639 0.0017360956 -0.001567222 0.0065470478
-0.008314556 0.0007587696 0.0013100664 0.0011321397 0.012806903 0.006742546 -0.0053381897 0.003818451
0.004129165 0.014047379 0.008640801 -0.004321675 -0.0035247214 0.00077930867 -0.00030171478 0.00082281337
0.00422971 0.0047888313 -0.0023452125 -0.0051582605 -0.0021019592 0.01620354 0.014302063 0.00037644917
0.011105205 0.005298235 -0.00030540393 -0.010055861 0.007867415 0.0005062031 0.0031162102 -0.008500207
-0.0037895648 -0.008127105 -0.0018880921 -0.006945013 0.0049627214 -0.00016495031 -0.008992789 0.0047221594
0.015712598 -0.005313113 0.0019263072 -0.003043895 -0.009998232 0.009153944 0.0014274017 0.0032563698
0.0035794906 0.0033196479 -0.0037970424 -0.0066311317 0.0034443694 -0.0039932206 -0.0024772184 0.0116717005
0.0038514012 0.00075754937 0.0140223475 0.010705855 0.010605828 -0.016222762 0.0072082416 -0.0027157385
0.0059467084 -0.00070410734 0.0029279266 0.0028978577 -0.00044675593 -0.0006246211 0.0010629994 -0.0037151433

model.gru.weight_hh_l1 f4 [150, 50]
00000000: 43c0 a5bb 0d68 2b39 1f66 47bb 79dc 913a
00000010: 0f53 deba c4c3 0439 deb3 a03a e299 f139
00000020: 9f07 29bb f3f0 fe3a 14e6 84bb 02d6 e8ba
00000030: 42aa 333a 4fd9 eaba 8ad1 51bb 8984 5dbb
00000040: 5b75 feb8 f3f0 19bb 912b 22bb 22d6 b1bb
00000050: 27d3 8239 b199 d03a bb77 183b aee6 42bb
00000060: a243 cc39 2e00 88ba 6e30 8a3a d87c 9b3a
00000070: 35fc 7ebb 3b69 3abb 714d 5cbb 07bc 063b
00000080: 23d6 183a 449a a9ba 6a7f 13ba 78e7 af3a
00000090: 3968 84b9 8531 303b e923 55ba b618 383b
000000a0: a3b1 b3b9 6ca4 813a b4c5 413b cd80 c5bb
000000b0: a8b0 153b d13e 2cb9 a09f ffba f883 42bb
000000c0: af4e 753a daec 5d39 578a 80ba b229 723b
000000d0: d326 42bc b1c1 023b 6c0b 2cbc 1a4e 3d3b
000000e0: 308c f2b9 d81a d13a afb5 a9bb cebf 063b
000000f0: e2c6 0ebc 703e bab9 fae3 3b3b 2066 8abb
00000100: 0bd5 8ebb a468 b6bb 40ae 36bb c22d d23a
00000110: 5de3 33bb 9e4b 1bbc cb83 de3a 8ef9 703b
00000120: 4feb b03b ee90 fc3a f0ff 463a 22a5 83bb
00000130: 0ebd a93b eb42 4e3a 4c11 063c b754 b7bb
00000140: fbef 41bb 9f92 7d3b bb42 ebbb f5b5 773b
00000150: 2722 2abc 80b5 e73b ff2f 38ba 05bc d53b
00000160: 5a61 fabb 75bd 913a 80ee 92bb 09c0 9e3b
00000170: 24c2 983a 86ed 1b3c efe9 573c dd83 6dbb
00000180: f202 f03a 269f 84bb 4e4c a4bb e64c 3b3b
00000190: 32e0 fdb9 0537 f8bb 8a15 3e3b 1610 d1ba
000001a0: 4497 b2bb 5488 b5bb 481c debb 8759 a03a
000001b0: d8ad 7a3b e68e 29bb 0165 3f3b 0a72 63b9
000001c0: 3b43 9f3b eb55 f33b e3b9 903b 9cea b43b
000001d0: eb42 0e3b 1218 04bc 8721 063a 4533 113c
000001e0: ea53 6b3b 7c43 a7bb e6f4 39bc 03f0 f6bb
000001f0: 45b1 9c3b 3ce4 ee3a 36e0 d9bb 198e 01bc
00000200: 4f4a f53c 6d23 173b 79b9 58ba cfa3 f43b
00000210: 66b1 083c 937f 19bc 315b 063c 78b0 54bc
00000220: 218f 50bb e435 b7bb 8932 113b ca8d 063b
00000230: c230 8b3b 6e50 04bb 0ace 45bc e7e8 fa3c
00000240: 6eae 34bc 9a0b b0bb 9349 7e3b a771 243b
00000250: a7d8 8dbb b238 173b 5d50 baba a1a3 1fbb
00000260: f376 253b ca0e ae39 70de 803b cd16 1abb
00000270: cb5e 9e3a f341 7bbb ab17 493a 097d 4338
00000280: a71f 5c3b 2f29 6bba 6417 cdba 4966 8c3b
00000290: d07d f13a 0b42 1a3b a729 60b9 35a2 eaba
000002a0: c4b2 1bb9 e0f2 5a3b 4c32 a3ba 2bd7 2fb9
000002b0: 2850 89bb 969e 5fbb 8ebb 02bb a9a7 4f3b
000002c0: 1738 70ba 70eb 1cbb 60be 26bb 575e 2a3a
000002d0: 78bc b73a ad7a 96bb bbee 663b 1927 87bb
000002e0: 9a40 9f3b 6647 a8bb 21dc 053a ad5a 95bb
000002f0: 0bab 4c3b 69ad 6d3a 46eb c83a 1e10 2abb
00000300: f1eb 1fb9 c256 3ebb 7708 95bb 2983 953b
00000310: b73e f2ba 7996 22bb 9088 503b 8d6e 09bb
00000320: 8511 f2bb 17ab a13a ef54 f2ba 9351 8a3b
00000330: 3a1f 92bb adaf fa38 7c1e 443b 5f6a 02bb
00000340: b59f 89bb 6964 193b b5c2 9bba bb3a 56ba
00000350: aa37 a23a 56c9 ceba 0443 d5b9 07b2 aaba
00000360: c0be 3039 1e9b 97bb 206a 99bb 58eb 4dba
00000370: f6ef 1739 41b0 203b 8a1d 813b 12c7 d5bb
00000380: 851c 09ba f1f7 9d39 d0ca 03bb 5f1a ecba
00000390: 7153 3f3b 1082 5bbb 853d 50ba 6c2d e63b
000003a0: f3eb b73a 4def 71bb 0062 c5b9 ee08 83bb
000003b0: 3813 2bbb 3f4b 4bbb ea48 c83a b775 a23b
000003c0: 2535 34b9 74b6 a2b9 77f9 0fba 39df ab3a
000003d0: 4298 9739 5c8e 503b 1475 95bb f963 a4bb
000003e0: 4498 c03a b656 383a c994 46b9 b14d a7b9
000003f0: 0b59 e5b8 90dd 79b9 31ad 80b9 6ceb 08bb
-0.00505832 0.00016346593 -0.003042586 0.0011128328 -0.0016962009 0.0001266143 0.0012260636 0.00046081754
-0.0025791896 0.001945047 -0.0040557478 -0.0017763975 0.00068536785 -0.0017917546 -0.0032015764 -0.003380092
-0.00012133523 -0.0023489564 -0.0024745206 -0.005427138 0.00024952853 0.0015914944 0.0023264724 -0.0029739547
0.00038960302 -0.001037603 0.0010542998 0.0011862768 -0.0038907651 -0.002844407 -0.0033615495 0.002055885
0.00058302487 -0.0012939651 -0.0005626591 0.0013420423 -0.00025254654 0.0026884985 -0.0008130656 0.00280909
-0.0003427389 0.000989092 0.0029567303 -0.006027317 0.002284089 -0.00016426599 -0.0019502528 -0.002968071
0.0009357733 0.00021164436 -0.0009806853 0.0036951122 -0.011850077 0.0019951875 -0.01050077 0.0028885663
-0.00046262285 0.0015953435 -0.005179129 0.0020561102 -0.00871441 -0.00035523204 0.002866982 -0.0042236
-0.004358893 -0.0055666734 -0.0027874857 0.0016035365 -0.0027448751 -0.009478478 0.0016976533 0.003676984
0.0053991447 0.0019269267 0.0007591238 -0.004017488 0.005180008 0.0007868248 0.008182835 -0.0055948156
-0.0029592502 0.003869213 -0.0071795858 0.0037797664 -0.010384119 0.007071197 -0.0007026195 0.006522658
-0.0076409997 0.0011119085 -0.004483998 0.0048446697 0.0011654538 0.009517079 0.013178333 -0.0036241927
0.0018311425 -0.0040472923 -0.005013979 0.002857977 -0.0004842296 -0.007574918 0.0029004538 -0.0015950229
-0.005450161 -0.005539933 -0.0067782737 0.0012233712 0.0038250592 -0.0025872528 0.002920449 -0.0002169089
0.0048603094 0.0074260137 0.0044166907 0.0055211317 0.0021707367 -0.008062379 0.00051166903 0.008862321
0.003590817 -0.0051044803 -0.011349892 -0.007535936 0.0047818744 0.0018225978 -0.0066490425 -0.007907414
0.02994266 0.0023061887 -0.00082673837 0.0074658166 0.008343076 -0.009368795 0.008200453 -0.012981527
-0.0031823593 -0.005591141 0.0022155365 0.002053129 0.0042477557 -0.0020189541 -0.012073049 0.030628635
-0.011027915 -0.0053724768 0.0038801178 0.0025092156 -0.0043288055 0.0023074565 -0.0014214624 -0.0024359005
0.0025247901 0.00033198885 0.0039327666 -0.0023512125 0.0012082694 -0.003833887 0.00076710683 4.660807e-05
0.0033588202 -0.00089706754 -0.001564723 0.0042846543 0.0018424336 0.00235379 -0.00021377821 -0.0017901125
-0.00014848547 0.0033408925 -0.0012450903 -0.00016769457 -0.0041904636 -0.0034121624 -0.0019948217 0.0031685627
-0.00091636315 -0.0023944043 -0.0025443062 0.0006499043 0.001401796 -0.004592261 0.003523751 -0.004124534
0.004859996 -0.0051354645 0.0005106349 -0.0045579285 0.003122988 0.00090666726 0.0015328906 -0.0025949548
-0.00015251317 -0.002904341 -0.004548128 0.0045627546 -0.0018481825 -0.0024808927 0.003181968 -0.0020970434
-0.0073873424 0.0012334314 -0.0018488447 0.00422115 -0.004459289 0.00011953651 0.0029925397 -0.0019899828
-0.0041999468 0.0023405796 -0.0011883589 -0.00081722037 0.0012376208 -0.0015776556 -0.00040676456 -0.0013023027
0.00016855728 -0.0046266457 -0.0046818405 -0.00078551983 0.00014489875 0.0024519118 0.003940289 -0.006523975
-0.0005230385 0.00030130104 -0.00201099 -0.001801323 0.0029194022 -0.0033494271 -0.00079437374 0.0070244577
0.001403211 -0.0036916316 -0.00037647784 -0.0039988672 -0.0026103985 -0.0031020192 0.0015280519 0.0049578804
-0.00017185936 -0.00031034986 -0.000549219 0.001311279 0.00028914405 0.0031823134 -0.004561076 -0.0050168005
0.0014693816 0.0007031964 -0.00018938178 -0.00031910607 -0.000109361565 -0.00023829029 -0.000245431 -0.0020892275

model.gru.bias_ih_l1 f4 [150]
00000000: ea57 15bc eab5 4cbc d8f9 babb 02d0 6ebb
00000010: d3a6 783b b86c 15bc b891 b13b 3470 f1b9
00000020: 992a a73d 8a6f 563d 0bc3 0d3d 99a7 203c
00000030: 76f1 bf3c d82f 3ebc faeb 853c b48d 5ebc
00000040: 67dd 653c f5d1 ad3c ba8e 1c3d 8cc0 003d
00000050: db5e ccba 78a3 963d 7168 febc 2c98 41ba
00000060: 6c49 513b a9f0 9e3c 7bf4 79bc 2de6 0d3b
00000070: 0176 153c 40a5 d63b 9c94 d93b d620 963b
00000080: 4074 fdbb abd8 98bb 39d4 81bb f92e ef3c
00000090: beda 0e3c 17aa a7bb 3450 883c d5e8 d53c
000000a0: b48c f13d b3a6 e7ba 4ca8 073c 851f 603d
000000b0: a7d9 83bc bbb0 073a a2a2 963c 4a69 b33b
000000c0: 016c 1c3c e0eb 323e 7396 27bd 932d 08bb
000000d0: 4eb9 40bc 3476 f03b 9ac1 213c 5505 08bc
000000e0: ad28 e73b c19e 813c 3f07 1f3e c227 b63c
000000f0: 5646 623c 1124 683c 891c 1d3d a3cd f33a
00000100: add3 6c3c 35dd ae3c 5f24 86bb e7c1 1a3d
00000110: 4ca4 1e3e d840 ccbc 9efa df3b 4a1e 363e
00000120: f528 833c 20f2 133d 8505 463c 3663 583b
00000130: 0b29 f43c 1f68 cd3a 0495 9f3f 5682 92bc
00000140: 2bac 4f3b a46c 743c ba77 eabc 4c50 a4bc
00000150: 0380 b43c f26e 19bc 672d debb 72f3 d93c
00000160: f242 81bc b208 e33d cfe7 603e 5289 113c
00000170: 94f0 293b a2e4 983f 60c8 cdbb 216d 603c
00000180: 2a9b e7bb 93fb 29bc c829 d33b db58 6b3e
00000190: bb70 d6bc 2896 823c 034e 173b e604 bfba
000001a0: 7d2b 32bd a197 223c 006a 633d 163e 233c
000001b0: b6da 603c c32a 06bc 5036 9a3c 74cb 3b3c
000001c0: 0bdd 8d3b 7593 42bc 4355 683c c1cb 06bd
000001d0: 5176 0ebc c56d 013c 9998 ebbc 4d9b 3a3c
000001e0: 954d 6dbb 6409 63bd fd90 303a 6ab1 c73b
000001f0: dbff 1c3d 6423 00ba 2d4b 263d 1dc0 a8bc
00000200: 7844 30bd 33bc 31bd 0317 31bd fb18 d2bc
00000210: 2981 05bd 585e cfbb 21ff 5f3b e101 e1bc
00000220: a3ef 813c 7c27 a53c 2d25 adbc 897c 9bbc
00000230: 7402 3ebc edc0 afbb 58d5 32ba 670f b6bd
00000240: b703 013c 7cb0 883a 6f54 b13c 73e6 2a3b
00000250: e5c3 073c 203f 9ebc
-0.009115199 -0.012494544 -0.005706053 -0.00364399 0.0037941232 -0.009120159 0.0054189824 -0.000460507
0.08162422 0.052352466 0.034609836 0.009805583 0.023430567 -0.0116080865 0.016347874 -0.013583589
0.014029837 0.02121828 0.038222052 0.031433627 -0.0015592234 0.07355398 -0.03105566 -0.0007385041
0.0031934632 0.019401865 -0.015256043 0.0021652088 0.009122373 0.006550461 0.00664003 0.004581551
-0.0077348053 -0.0046645007 -0.0039620665 0.029197203 0.008719144 -0.005116712 0.016639806 0.026112
0.11794415 -0.0017673582 0.008279871 0.05471756 -0.016094996 0.0005176176 0.018388096 0.005475198
0.0095472345 0.17472792 -0.040914964 -0.0020779117 -0.01176293 0.0073383097 0.009872818 -0.0083020525
0.0070544095 0.01582277 0.15530108 0.022235755 0.013810715 0.014168755 0.03835729 0.0018600713
0.014454764 0.021345714 -0.0040936912 0.037782576 0.15492362 -0.024933264 0.006835296 0.17784992
0.01601074 0.03611958 0.012086277 0.0033018119 0.029804727 0.0015671289 1.2467351 -0.017884415
0.0031688313 0.01491848 -0.028621543 -0.02005782 0.022033697 -0.00936483 -0.0067803147 0.026605342
-0.015778992 0.11085643 0.21963428 0.008882837 0.002593075 1.1944773 -0.00627999 0.013697893
-0.0070680575 -0.010374921 0.0064441897 0.22983114 -0.026176801 0.01594074 0.002308727 -0.0014573603
-0.043498505 0.009923846 0.05552101 0.009963533 0.01372402 -0.008188906 0.018824726 0.011462081
0.004329329 -0.011875977 0.014180484 -0.03290916 -0.008695201 0.007899706 -0.028759288 0.011389566
-0.0036209573 -0.055428877 0.0006735472 0.0060941475 0.03832994 -0.0004888086 0.040599037 -0.02059942
-0.043034047 -0.04339237 -0.043234836 -0.025646677 -0.03259388 -0.0063283853 0.0034179168 -0.027466716
0.015861338 0.02016043 -0.02113589 -0.018980281 -0.011597265 -0.0053635747 -0.0006821952 -0.088896565
0.007874421 0.0010428573 0.021646706 0.00260773 0.008286451 -0.01931721

model.gru.bias_hh_l1 f4 [150]
00000000: 9055 15bc eab5 4cbc d8f9 babb 02d0 6ebb
00000010: 4b85 713b b86c 15bc 827f ad3b 3470 f1b9
00000020: 8c2a a73d 8a6f 563d d4c2 0d3d 99a7 203c
00000030: 76f1 bf3c d82f 3ebc faeb 853c c793 5ebc
00000040: 67dd 653c f5d1 ad3c 208c 1c3d bfc0 003d
00000050: db5e ccba 8df6 953d 7168 febc 2c98 41ba
00000060: f10c 4c3b a9f0 9e3c 62f6 79bc f76d 0e3b
00000070: e3b4 10b6 dcd8 d63b c73d db3b 5021 963b
00000080: d46d febb abd8 98bb 39d4 81bb f164 ef3c
00000090: beda 0e3c 17aa a7bb 3550 883c d7e8 d53c
000000a0: 47b5 f13d b3a6 e7ba 42a8 073c a583 e03d
000000b0: a7d9 83bc bbb0 073a daa3 963c 4a69 b33b
000000c0: 016c 1c3c 04f2 323e 7396 27bd 932d 08bb
000000d0: 4eb9 40bc 3476 f03b 9ac1 213c 5505 08bc
000000e0: ad28 e73b c19e 813c 2a07 1f3e c227 b63c
000000f0: 5646 623c 1124 683c 891c 1d3d a3cd f33a
00000100: add3 6c3c 35dd ae3c 5f24 86bb e7c1 1a3d
00000110: 32a4 1e3e d840 ccbc 9efa df3b 751d 363e
00000120: f528 833c 21f2 133d 8505 463c 3663 583b
00000130: 0b29 f43c 1f68 cd3a 83c2 9b3f 5682 92bc
00000140: 2bac 4f3b a46c 743c ba77 eabc 4c50 a4bc
00000150: 0380 b43c f26e 19bc 672d debb 72f3 d93c
00000160: f242 81bc 1909 e33d b5e3 603e 5289 113c
00000170: 94f0 293b e472 a53f 60c8 cdbb 216d 603c
00000180: 2a9b e7bb 93fb 29bc c829 d33b 306c 6b3e
00000190: 502a 173d 68f8 d9bb 10a5 23bc ccf8 033b
000001a0: 69b2 c23d 8c6f 91bb d484 b2bd 4bad ccbc
000001b0: 643f 0bbd 48ae 013d d28a 2fbd 10c9 2dbc
000001c0: 18fa e4bc 3dad 9bba 6d84 23bd 9681 1b3d
000001d0: ecc5 ca3c 3a7a df3b db2e 663d d721 96bd
000001e0: d37e 78bc 5139 e93d 3f00 033c c7f3 6e3a
000001f0: 4241 b1bd e604 01bc ed98 dfbc 8194 9a3d
00000200: 8b98 6cbc 190a 653d 1a87 c33d e351 273d
00000210: e2c8 993d e25e 033d a407 79bc 1d46 cb3d
00000220: ad7e 79bc 7891 22bc f349 203d 7786 0b3d
00000230: babe 953c 1679 c13c 9609 513d 6adc 303c
00000240: e7c1 5abb c2bc 903c f304 81bd 50e1 73bc
00000250: cc5d 2b39 a0ed cd3c
-0.009114638 -0.012494544 -0.005706053 -0.00364399 0.003685313 -0.009120159 0.005294741 -0.000460507
0.08162412 0.052352466 0.03460963 0.009805583 0.023430567 -0.0116080865 0.016347874 -0.013585038
0.014029837 0.02121828 0.03821957 0.031433817 -0.0015592234 0.073224165 -0.03105566 -0.0007385041
0.0031135643 0.019401865 -0.015256496 0.0021733025 -2.1562962e-06 0.0065566134 0.006690714 0.004581608
-0.0077645574 -0.0046645007 -0.0039620665 0.029222937 0.008719144 -0.005116712 0.016639808 0.026112003
0.11802154 -0.0017673582 0.008279862 0.10962609 -0.016094996 0.0005176176 0.018388677 0.005475198
0.0095472345 0.17475134 -0.040914964 -0.0020779117 -0.01176293 0.0073383097 0.009872818 -0.0083020525
0.0070544095 0.01582277 0.15530077 0.022235755 0.013810715 0.014168755 0.03835729 0.0018600713
0.014454764 0.021345714 -0.0040936912 0.037782576 0.15492323 -0.024933264 0.006835296 0.17784674
0.01601074 0.036119584 0.012086277 0.0033018119 0.029804727 0.0015671289 1.2168735 -0.017884415
0.0031688313 0.01491848 -0.028621543 -0.02005782 0.022033697 -0.00936483 -0.0067803147 0.026605342
-0.015778992 0.110857196 0.21961863 0.008882837 0.002593075 1.2925687 -0.00627999 0.013697893
-0.0070680575 -0.010374921 0.0064441897 0.22990489 0.036905587 -0.006651927 -0.009988084 0.0020137308
0.09506685 -0.0044383463 -0.08716741 -0.024984976 -0.033996 0.03166035 -0.042857 -0.010607019
-0.027951285 -0.001187719 -0.039921213 0.03796538 0.02475258 0.0068199905 0.05619703 -0.07330673
-0.015166956 0.11387885 0.007995664 0.0009115305 -0.08655025 -0.007874703 -0.0272946 0.07547856
-0.014440666 0.055917833 0.09547253 0.040849578 0.075090185 0.03207291 -0.015199576 0.099254824
-0.015227956 -0.009922378 0.039133023 0.034063783 0.018279422 0.023617309 0.051034532 0.010794738
-0.0033379735 0.017668132 -0.06299772 -0.014885262 0.00016342773 0.025137722

model.fc.weight f4 [1, 50]
00000000: 9a7e c83a 1879 73bb 8625 a3ba ce67 91bb
00000010: 020c 6d3b ab70 83b8 45b6 6fbb 6615 ef3a
00000020: b77b 863c 6545 60ba f1f4 9a39 c5c7 39bb
00000030: 52c9 a538 8c2c 9b3a 167c ae3b 1542 c73a
00000040: 2f61 8fba a26f 493b f5af 553c f5d7 a4bb
00000050: 899f 48bb a2a6 81bc f60f edbb 0c52 953b
00000060: fee9 ea3a 86f2 90bb 87c3 063a 69b4 11bb
00000070: 2d86 9bbd 6a52 87bb 745f 5fb9 324a 85ba
00000080: 7fa3 76ba 91ac 113b 81c2 8f3b f746 de3b
00000090: d2c8 20ba c9b6 9037 11be c2ba 89fe 1dbc
000000a0: b1e5 a23c 362d 793b 8a5f d6bb e403 cebd
000000b0: 2028 f7bb 61f8 f33a a994 013c b4ca a4ba
000000c0: 0b67 fa3a 0394 cfbc
0.0015296519 -0.0037151035 -0.0012447096 -0.0044374233 0.0036170487 -6.267553e-05 -0.0036577147 0.001824063
0.016416414 -0.00085552625 0.00029555665 -0.0028347832 7.905312e-05 0.0011838838 0.005324851 0.0015202189
-0.0010938997 0.0030736704 0.01304244 -0.005030627 -0.0030612668 -0.015826527 -0.0072345687 0.0045569
0.0017922518 -0.0044234423 0.000514083 -0.0022232777 -0.075939514 -0.0041296976 -0.00021302496 -0.0010169207
-0.0009408518 0.0022228102 0.0043872003 0.006783362 -0.000613344 1.7251254e-05 -0.001485767 -0.009643205
0.019884916 0.0038021333 -0.006542151 -0.10059336 -0.007542625 0.0018613451 0.0079089785 -0.0012572617
0.0019104196 -0.025339132

exp_avg f4 [150, 22]
00000000: 710f d733 9bf5 ffb4 65cd a8b4 af73 53b5
00000010: 5db7 2432 0e6a e134 9de5 2833 9b28 02b4
00000020: de83 f934 fcc6 a4b4 a646 4435 2378 2b35
00000030: aa0b b733 b196 1935 71a7 ed34 2071 5f33
00000040: 0000 0000 de2d b6b4 c7ac 9a34 829d e4b4
00000050: 0000 0080 ffe3 fb33 e3d8 6cb5 e10b 90b6
00000060: 59ca 9e35 54df 5b34 5b95 ad30 5d3b c436
00000070: 276c 62b5 122c 03b7 a5d9 6bb5 b3fe 09b6
00000080: f200 ff34 3f98 da36 ec01 6036 be2b 9bb5
00000090: ffb6 f6b5 f421 6ab6 0000 0080 cd0a e9b5
000000a0: 0c68 97b4 8f4f b535 0000 0000 0e57 95b4
000000b0: 6bc6 9434 8dbf 7c35 8109 86b4 fa4e fdb4
000000c0: 81b6 17b4 df25 cf35 f203 af34 7624 5db5
000000d0: d521 c633 ea25 65b5 6172 37b3 7b5c fe35
000000e0: fffe 9635 1646 6f34 399c 9734 75cd 81b4
000000f0: 0000 0080 cc43 3cb5 5bec c333 a3ca adb4
00000100: 0000 0080 d9c5 6831 59cd 32b2 2abb 2935
00000110: 4c73 87b4 2711 5cb4 f6d4 6035 cef9 92b5
00000120: efd7 2833 2027 9fb5 f7e9 3335 4b0d ad34
00000130: c3c8 b8b2 33c5 b4b5 cfb5 9c33 9995 8635
00000140: 1ec0 ac34 4f57 81b5 0000 0000 5051 f1b4
00000150: acd4 0c35 6999 e2b4 0000 0080 bdc3 a4b4
00000160: 8710 69b5 dd75 57b6 1537 1631 7e6b 5235
00000170: 9edb 6435 bb33 2537 41a9 f1b5 3c9f 52b6
00000180: 2f51 8fb3 603b 22b5 20f3 1135 1c69 2c37
00000190: 3519 9635 9379 bab4 fd8a a9b5 cbdc c6b5
000001a0: 0000 0000 7542 45b5 8a6f 53b5 5692 4335
000001b0: 0000 0000 9cf7 a8b4 5a44 88b2 01a4 71b4
000001c0: f48d 82b4 21d3 9bb3 dbbf 7f35 0e8c 1f36
000001d0: 42ba 6fb4 0cc1 fbb5 d915 1035 6c63 20b5
000001e0: 9dfa a1b4 c13c 3a36 9adb e734 a676 0eb5
000001f0: 5710 afb4 05fa e7b5 0000 0080 36a0 edb4
00000200: cefd 4433 d3b5 8d34 0000 0000 06a0 f4b4
00000210: 83b4 af35 925c c5b5 cc70 cc35 9c68 a235
00000220: 6577 f035 1c90 e636 2e91 36b5 4cd2 47b6
00000230: 0b36 3e35 adae abb5 79bf 2135 2be0 fb36
00000240: 9b68 2536 05d4 5434 a991 5635 31ad b6b4
00000250: 0000 0080 5214 0bb5 e8a9 30b5 8884 ab34
00000260: 0000 0080 7e9f 6634 4cc5 39b8 e2f3 cfb7
00000270: c2ce f736 e907 f035 a6ab 42b8 a899 17b8
00000280: e0f3 9cb7 1c09 67b8 3285 24b8 2189 f837
00000290: 2770 1c37 5a11 5fb8 399f 08b7 aecc 0e36
000002a0: 4feb 3eb8 d5e0 f3b7 0000 0000 50f9 cf37
000002b0: 818d 9bb6 b917 f836 0000 0000 534c 8fb7
000002c0: b7ed 9435 44e0 33b5 ba2f 98b5 185d eab5
000002d0: e3c7 ee35 ab5c 0236 5955 ce34 77a9 c734
000002e0: 5988 9e35 3d66 eab5 64b8 4335 2955 3c36
000002f0: 765f 0535 b7c7 0936 aa8f 0936 6dc8 25b5
00000300: 0000 0080 eb8f 79b5 4617 ba34 94f2 e6b5
00000310: 0000 0080 c0dd 3935 d652 c0b5 dc5a 18b6
00000320: b033 49b5 9962 5db5 fad2 3a34 5659 8736
00000330: c13e deb5 81b8 a7b5 5404 d134 6a5b 6735
00000340: e5c8 74b5 edae 7e36 a473 0835 4906 79b5
00000350: ca75 e7b5 291d 10b6 0000 0080 da21 2a34
00000360: 437d 9f33 019d 1435 0000 0000 d765 0c34
00000370: aac1 8635 5486 99b6 3dc4 1b31 c32d ba35
00000380: aa31 7e36 1fba 7c37 ee81 2cb6 44d1 62b5
00000390: 3bd1 14b4 f425 6cb6 9445 06b6 9f73 8b37
000003a0: 9b91 8c36 bc59 f935 da7c 38b5 2f2b a236
000003b0: 0000 0080 05bd 50b6 8da9 55b5 6ac8 e335
000003c0: 0000 0080 ff59 d736 46e8 c3b6 8709 2fb6
000003d0: 6c3c 13b6 07d0 2ab6 caed 5eb6 c375 a536
000003e0: 9abf d6b5 253a 11b7 7110 98b6 6f1d 7936
000003f0: f432 2d36 496b 5f36 19a7 9e36 ee59 9bb6
1.00145265e-07 -4.7676153e-07 -3.1441883e-07 -7.8771967e-07 9.587748e-09 4.198668e-07 3.932438e-08 -1.2121966e-07
4.647581e-07 -3.069216e-07 7.3118497e-07 6.3877286e-07 8.523723e-08 5.7216226e-07 4.426652e-07 5.202412e-08
0.0 -3.3933514e-07 2.8810447e-07 -4.258291e-07 -0.0 1.17295706e-07 -8.823246e-07 -4.2929173e-06
1.1830808e-06 2.047721e-07 1.2629856e-09 5.848166e-06 -8.4348943e-07 -7.818469e-06 -8.7861036e-07 -2.0562845e-06
4.749814e-07 6.51463e-06 3.337972e-06 -1.1561131e-06 -1.8381687e-06 -3.488848e-06 -0.0 -1.7362996e-06
-2.8201646e-07 1.3508705e-06 0.0 -2.7816753e-07 2.7711516e-07 9.415606e-07 -2.496636e-07 -4.7182385e-07
-1.4129365e-07 1.5433724e-06 3.259916e-07 -8.2381973e-07 9.2262475e-08 -8.536432e-07 -4.2712035e-08 1.895139e-06
1.1250085e-06 2.2284107e-07 2.823961e-07 -2.4177612e-07 -0.0 -7.0134115e-07 9.123388e-08 -3.23712e-07
-0.0 3.3872907e-09 -1.0407654e-08 6.3229766e-07 -2.52296e-07 -2.0495337e-07 8.37564e-07 -1.095055e-06
3.931194e-08 -1.185781e-06 6.702316e-07 3.2233433e-07 -2.1511715e-08 -1.3468438e-06 7.297387e-08 1.0027317e-06
3.217728e-07 -9.636659e-07 0.0 -4.494891e-07 5.246354e-07 -4.22074e-07 -0.0 -3.06898e-07
-8.6823314e-07 -3.2106102e-06 2.1859183e-09 7.838752e-07 8.5256204e-07 9.846811e-06 -1.8005159e-06 -3.1385125e-06
-6.6737236e-08 -6.0436105e-07 5.43705e-07 1.0276472e-05 1.1183207e-06 -3.4733657e-07 -1.2631932e-06 -1.4816409e-06
0.0 -7.3484927e-07 -7.8765936e-07 7.285611e-07 0.0 -3.1472598e-07 -1.5863566e-08 -2.2504538e-07
-2.4317671e-07 -7.256154e-08 9.527409e-07 2.3774369e-06 -2.232637e-07 -1.8757141e-06 5.367597e-07 -5.974932e-07
-3.0170932e-07 2.7751523e-06 4.3186884e-07 -5.307178e-07 -3.260818e-07 -1.7283606e-06 -0.0 -4.426126e-07
4.586564e-08 2.639559e-07 0.0 -4.5564974e-07 1.3091052e-06 -1.4704585e-06 1.5232013e-06 1.2100386e-06
1.7916142e-06 6.8713107e-06 -6.801155e-07 -2.977572e-06 7.085916e-07 -1.279133e-06 6.0255803e-07 7.5064795e-06
2.4647804e-06 1.9821171e-07 7.9933176e-07 -3.4026155e-07 -0.0 -5.1811105e-07 -6.5812355e-07 3.194766e-07
-0.0 2.1478442e-07 -4.4291184e-05 -2.478989e-05 7.3852434e-06 1.7883696e-06 -4.6413064e-05 -3.614431e-05
-1.8710212e-05 -5.5083176e-05 -3.9224695e-05 2.962776e-05 9.324437e-06 -5.3183503e-05 -8.143304e-06 2.1278788e-06
-4.551868e-05 -2.9072553e-05 0.0 2.4792418e-05 -4.635833e-06 7.3937376e-06 0.0 -1.708247e-05
1.1096043e-06 -6.7009046e-07 -1.1338773e-06 -1.7461452e-06 1.7790557e-06 1.942545e-06 3.843259e-07 3.718994e-07
1.18116e-06 -1.7464114e-06 7.2911484e-07 2.8063753e-06 4.9685275e-07 2.053084e-06 2.0498214e-06 -6.175895e-07
-0.0 -9.2969157e-07 3.4662133e-07 -1.7206935e-06 -0.0 6.924056e-07 -1.4329223e-06 -2.2702652e-06
-7.495355e-07 -8.2472394e-07 1.7399353e-07 4.0337136e-06 -1.6558553e-06 -1.2496167e-06 3.8932433e-07 8.618723e-07
-9.1189423e-07 3.795077e-06 5.083223e-07 -9.2768875e-07 -1.7245122e-06 -2.1474646e-06 -0.0 1.5844799e-07
7.4267994e-08 5.536277e-07 0.0 1.3075565e-07 1.0040142e-06 -4.575393e-06 2.2667017e-09 1.3871398e-06
3.7877858e-06 1.5063705e-05 -2.5705626e-06 -8.449608e-07 -1.3859692e-07 -3.5188832e-06 -2.0008056e-06 1.6623932e-05
4.189276e-06 1.8578062e-06 -6.8727024e-07 4.8330035e-06 -0.0 -3.110444e-06 -7.959541e-07 1.6971146e-06
-0.0 6.4179762e-06 -5.838493e-06 -2.6082578e-06 -2.1939877e-06 -2.5453062e-06 -3.321899e-06 4.9310925e-06
-1.6000006e-06 -8.656211e-06 -4.531867e-06 3.7121024e-06 2.5808667e-06 3.3292038e-06 4.7282197e-06 -4.629829e-06
