lightning_logs/version_33479210/checkpoints/epoch=49-step=6000-v2.ckpt (torch, 142804 bytes, 15 tensors)

model.gru.weight_ih_l0 f4 [150, 22]
000000 77 2f a2 bc 66 ef 33 3c fe 37 1a 3d 3c 72 04 bd
       -0.019798024 0.01098237 0.037651055 -0.032335505
000010 5b 68 01 bd 28 99 1d 3e 1d e7 b5 bd 52 35 0b 3e
       -0.03159366 0.15390456 -0.08881972 0.13594559
000020 70 55 c6 bd a5 86 20 3d f8 80 ad bd 07 dc c7 3c
       -0.09684265 0.039190907 -0.084718645 0.02439691
000030 35 f7 24 bd 00 96 8b bc 67 9a b5 3d de 49 fe 3d
       -0.040274817 -0.017039299 0.088673405 0.12416433
000040 6d da 4b 3d 9b 53 51 3c cd 05 6d 3d c3 ef 17 be
       0.049768854 0.012776281 0.05786686 -0.14837556
000050 a7 24 85 3d 2e f4 3c 3e a4 51 ab 3d 19 d7 b0 3d
       0.065011315 0.18452522 0.08365181 0.086347766
000060 74 0e ba 3d fb df 8a bc 34 cd a7 bd 3c 84 0a be
       0.09084788 -0.016952505 -0.08193436 -0.13527006
000070 9d b8 0c 3e 16 b0 a7 3d ed 27 43 bd 0c d8 e8 3c
       0.137423 0.081878826 -0.047645498 0.028423332
000080 ae 21 d1 3d 3c 19 6e bd 50 fc 1c bd 1c f8 3f 3e
       0.10211502 -0.058129534 -0.03832656 0.1874699
000090 f6 a1 b1 bd 6f a8 ed 3d 8a 25 76 bd 7b 58 8e bd
       -0.0867347 0.11604392 -0.060094394 -0.0695047
0000a0 c4 3f c5 3c fc da 52 be 50 2d 0c 3e 0b 7d 4e 3e
       0.024078257 -0.20591348 0.1368916 0.20164888
0000b0 b0 19 15 bd a2 79 6a 3d 0c 4c c9 bd 91 d0 00 3e
       -0.03640145 0.057244904 -0.09828958 0.12579562
0000c0 aa d6 d5 3d 76 98 81 3d 53 03 ce bd 5b 17 5a 3c
       0.104413345 0.06327908 -0.10059228 0.013311232
0000d0 4d c8 12 3d dd f6 08 bc 27 30 fd bd dd da fe 3d
       0.035835553 -0.008359638 -0.123627 0.124440886
0000e0 50 47 f3 3d 8b cf f0 3b 98 35 8a 3c 59 ab 88 3c
       0.11878836 0.00734896 0.016871259 0.016683267
0000f0 c2 5a c1 bd c0 20 04 be be 11 cf 3c 88 ab 4d 3d
       -0.09441139 -0.12903118 0.025277015 0.050212413
000100 6e 22 8c 3d 1b d4 9c bd 4d 79 09 be 21 00 0f 3c
       0.068425044 -0.076576434 -0.13425179 0.008728058
000110 bf 29 bf bc f9 7c a1 3d b0 34 ba 3d 1a 11 9f 3d
       -0.023335336 0.07885165 0.090920806 0.07766934
000120 c6 75 22 be fd 34 b2 bd 6f b8 da bc ff 68 d3 bd
       -0.1586524 -0.08701513 -0.026699273 -0.10322761
000130 77 cb b2 bd 4d e3 d3 bd 66 62 28 3d 3b ae cb 3c
       -0.08730214 -0.103460886 0.041109465 0.024863353
000140 d0 a7 0a 3d 84 99 11 3d df d9 8a 3d 3e be 3e 3d
       0.033851445 0.035546795 0.06779837 0.046568148
000150 81 c3 94 bd 5a 92 a4 bd 5f f1 37 3d 2f 36 a0 3d
       -0.07263852 -0.08035727 0.044907924 0.07822835
000160 b5 2e 03 bb 58 ac 9d 3c 97 74 5d 3d 2e e6 88 bd
       -0.0020016853 0.019247219 0.054066267 -0.06684528
000170 ad cc dd 3d e5 92 9a 3c ab f3 c8 bc 43 16 0b 3d
       0.108300544 0.018868873 -0.024530252 0.033956777
000180 15 ff fd 3d 23 c3 93 bd 47 24 a5 3d 06 60 03 be
       0.12402169 -0.07214954 0.0806356 -0.12829599
000190 60 31 8c bd 02 43 18 3e cf 69 6a 3d ee 7f 8f 3c
       -0.06845355 0.14869311 0.057229813 0.017517056
0001a0 fe 08 07 3e 7a df 5a bd 59 fb e1 bd 62 a5 a0 3d
       0.13187024 -0.05343578 -0.11034269 0.07844044
0001b0 65 44 8e bd 04 31 16 bd 2e 17 5c 3d 97 48 a7 3d
       -0.06946639 -0.03666784 0.053733043 0.08168142
0001c0 87 7a df 3d 5f f0 35 3e 67 b0 a2 3d 82 a5 6e bd
       0.10912042 0.17767476 0.07943802 -0.05826331
0001d0 3f fa d8 bc 9b 66 e4 bd 44 3a e7 3d 76 05 a4 bd
       -0.026486514 -0.11152383 0.1129041 -0.08008854
0001e0 1e 67 1e be 0c b3 5e 3c 15 09 79 3c 6b 28 d1 bd
       -0.15469024 0.013592493 0.015199919 -0.10212787
0001f0 8f fc 3c bd 0c 8d 9d bd 04 a0 9b 3d 45 93 df bc
       -0.046139296 -0.07692918 0.0759888 -0.027291903
000200 fb 3b a4 3c e5 d4 0c 3a a0 b3 8c bd a4 bf 60 bb
       0.020048132 0.00053723 -0.06870198 -0.0034293914
000210 a2 d6 97 3c b5 89 59 3d 24 14 7d 3d d7 38 ba bd
       0.018534962 0.053109843 0.061786786 -0.090928726
000220 27 b1 84 bd 6a f6 09 3e 94 87 82 3c 02 8d 4c 3d
       -0.06479102 0.13472906 0.01593379 0.049939163
000230 81 95 02 3e 9a a4 bc bc 90 fe f0 bd c7 66 d2 3d
       0.12752344 -0.023027707 -0.11767304 0.102735095
000240 e2 6b ce 3c 0c 76 6d bd b2 8e bc bd c9 9c aa 3c
       0.025197927 -0.057973906 -0.092069045 0.020826714
000250 27 69 90 bd 79 cd e8 3d b4 d4 d6 bd e2 45 13 3e
       -0.07051306 0.11367316 -0.10489789 0.14382127
000260 75 3d c4 bd 93 ca d0 bd 4d c3 30 3d 65 2b 1d be
       -0.095820345 -0.10194888 0.043155003 -0.15348585
000270 4f 94 d7 bc 58 34 36 3d 44 60 00 be d1 e8 ec 3d
       -0.026315836 0.044483513 -0.12536722 0.11567844
000280 38 c6 96 3b 4b b1 3f bd 56 a8 7d bd bd 05 c9 bd
       0.0046012662 -0.04679994 -0.061928116 -0.098155476
000290 99 ea 46 3d 0b 28 a8 3d 1e 99 11 be 84 7d 5e 3d
       0.048563574 0.082107626 -0.14218566 0.05431892
0002a0 5b f8 84 3b e7 02 9d bd fe cb 10 be 67 76 34 3d
       0.0040579266 -0.07666569 -0.14140317 0.04405823
0002b0 89 98 04 be 3b c5 e9 3b 56 c7 04 3e 07 78 af bb
       -0.12948813 0.0071341074 0.12966666 -0.0053548845
0002c0 4d f7 23 3e 0e f5 04 3e 95 24 36 3d 86 31 8a 3d
       0.16012307 0.12984106 0.04446848 0.06747727
0002d0 dd 9d 71 3d 30 ea bf bd 2a 57 61 3d 38 03 d6 bd
       0.05898844 -0.093708396 0.055014767 -0.10449833
0002e0 ef 1a 2a be e6 ce fc bd 66 6d 14 3d 23 44 5b 3d
       -0.16611837 -0.1234415 0.036237143 0.053531777
0002f0 a5 4b 91 bd d8 09 21 3d 47 1f ec bd f5 f6 71 bb
       -0.07094506 0.03931603 -0.11529403 -0.003692088
000300 3c 1a 8b 3d 76 90 c3 bd 8c 35 d6 3d 53 8e 07 be
       0.06792113 -0.09549038 0.10459432 -0.13237886
000310 1b ed 86 3d 8b f5 f0 3d 17 28 17 bd a2 2e ca 3d
       0.06588193 0.117655836 -0.036903467 0.09872176
000320 32 e3 68 3d 31 51 d1 bb 10 21 74 bd 0c 29 87 bd
       0.056857295 -0.0063878526 -0.059601843 -0.06599626
000330 58 59 05 3e 83 a8 95 3d bc de 08 3e 84 4a 9a 3c
       0.13022363 0.07307532 0.13366216 0.01883436
000340 82 9b a1 3d 16 3e dc bd d3 33 9c 3c d9 5a ab 3d
       0.07890989 -0.107540295 0.01906768 0.08366937
000350 2a 4a 04 be 75 fb 7f be 17 ae 18 3d 6d a1 b0 3b
       -0.12918916 -0.24998267 0.0372754 0.005390337
000360 bb c4 dd 3c bd 33 fa bc 2d e9 da 3d 4c 5f ea bc
       0.027071347 -0.030542249 0.10689006 -0.028609894
000370 31 af c7 bd e6 55 dc bd a2 0f 8a bd 66 e5 88 3d
       -0.09750212 -0.10758571 -0.06741263 0.06684379
000380 7d eb 8e bd d1 6d 45 bd 17 01 16 3e 3f 0e a7 3c
       -0.069785096 -0.048200432 0.14648853 0.020392535
000390 b7 8b 14 3e 6f 7f 90 bc bf cd ae 3d 51 88 16 bd
       0.14506422 -0.01763889 0.08535337 -0.036751095
0003a0 ce 79 b1 bd 78 c6 85 3d cf e1 0f 3d 48 a1 08 bd
       -0.086658105 0.065319955 0.035127457 -0.033356935
0003b0 48 1f 97 bd 67 92 60 bd 97 4a 25 3d 09 61 14 3d
       -0.07379013 -0.05482712 0.040354338 0.036225352
0003c0 06 d4 48 3d 49 21 98 bd 6c 59 72 bd 07 4d 0c bc
       0.049030326 -0.07428224 -0.05916731 -0.008563287
0003d0 fb e2 43 bc e2 36 47 3c 86 d3 a0 bc bd f6 16 bb
       -0.011955972 0.012159081 -0.019632112 -0.002303525
0003e0 ad 02 4c bd db 9a dc bd 7a b5 a4 3c fc c7 4a bd
       -0.04980724 -0.10771724 0.020106066 -0.049507126
0003f0 72 e9 ac 3c 0c 7e ed 3d d2 c0 6b 3d 22 f9 d3 bb
       0.02110741 0.11596307 0.057556935 -0.006468908

model.gru.weight_hh_l0 f4 [150, 50]
000000 74 f8 57 be dc 3c b9 bd 74 37 4d ba b4 9d f9 3c
       -0.21090871 -0.09044811 -0.00078283926 0.030470707
000010 c2 12 58 3d 17 ce 2a bd 5d 0b 01 3e 3c 67 1d 3e
       0.052752264 -0.04170045 0.12601991 0.15371412
000020 2f a8 79 3d 05 93 7c bd b6 b2 2f 3e cb db d3 bd
       0.060951408 -0.061663646 0.17158017 -0.103446566
000030 88 fe 1b be ee 1a 60 bd ac 24 db bd 53 55 55 bd
       -0.15233815 -0.054713182 -0.10700354 -0.052083325
000040 7a 15 5b 3d 78 17 8b bd 44 7c 0e bd a0 92 e8 bc
       0.05348728 -0.06791586 -0.034786478 -0.028390229
000050 2e d6 94 bd 8c fa 40 be 89 30 a4 3c bc 9b 07 3e
       -0.07267414 -0.18845576 0.020042675 0.13243002
000060 db 5d a4 3c 23 a8 e9 bd ab ce d3 bd d8 06 ab 3d
       0.020064285 -0.11409023 -0.10342153 0.08350915
000070 6d 66 1d 3e 9a 10 f4 3d c1 3f a1 3d ef f8 76 3d
       0.15371104 0.11917229 0.07873488 0.060295995
000080 03 e4 3e bc fb c1 c9 3d 38 c3 e2 3d 16 d2 dc bd
       -0.011651042 0.09851452 0.11072391 -0.10782258
000090 a4 b2 06 be 4e 59 34 bd ed a4 34 bd cc 1f 32 be
       -0.13154083 -0.04403048 -0.044102598 -0.17394942
0000a0 5f 60 db bc b5 92 b4 bd f8 04 cb 3d 5b ba 60 3d
       -0.026779352 -0.08817045 0.09913057 0.054865222
0000b0 95 e6 c7 3d af 09 13 be 4e 4d 85 bd cd bd 65 bd
       0.09760777 -0.14359163 -0.06508885 -0.05608921
0000c0 ae 63 c0 3d 1c 9b 21 3d 10 df ce bd 17 30 59 bd
       0.093940124 0.039454564 -0.101011395 -0.053024378
0000d0 8b 99 26 bb aa 53 ca 3d 16 19 1d 3d 6f d3 7e 3d
       -0.0025421109 0.09879239 0.038354002 0.062213358
0000e0 a7 d7 c9 bd 87 7f 4a 3b 93 55 a9 3c 76 35 4d bc
       -0.098555855 0.0030898766 0.020670688 -0.012524953
0000f0 59 f7 3f 3d ed 96 e6 bd 13 20 de 3d 22 10 88 bd
       0.04686675 -0.112592556 0.108459614 -0.06643702
000100 b7 8d 3d 3d 46 54 d4 3d 06 8a af 3d f7 f0 a3 bc
       0.046277728 0.103676364 0.08571248 -0.020012362
000110 b8 b3 0d 3a ac 21 b1 3d 99 af a6 3d 0f f3 0d 3d
       0.00054055033 0.086490005 0.08138961 0.034655627
000120 cc c3 04 be 9d 1e df 3c 41 16 23 bd 8f 01 41 be
       -0.12965316 0.027236277 -0.039816145 -0.18848251
000130 93 d7 a8 3d 0e e3 c4 bd f2 1e 2c 3d f1 09 8c bd
       0.082442425 -0.0961362 0.0420217 -0.06837834
000140 00 73 f1 3d c1 b2 3f bd 85 69 17 be c3 b1 ac bd
       0.11789513 -0.046801332 -0.14786346 -0.08432343
000150 3d 0f ab bd c6 2a 9c bc 94 8f 46 3e 91 35 1d 3d
       -0.08352516 -0.019063365 0.19390708 0.038381163
000160 4f bb 0b 3d ec 87 9a bd 59 fd 31 3d 1b 63 35 3d
       0.03411418 -0.07545456 0.0434545 0.044283967
000170 d3 75 97 bd 2d 97 6d bd 3b 38 9b bb 65 75 1c 3e
       -0.0739552 -0.0580055 -0.004736928 0.15279157
000180 56 b2 aa bd e9 b7 1f bd 2e 66 1c 3e 29 92 23 3e
       -0.08334796 -0.03899375 0.15273353 0.15973724
000190 49 fc f1 3d 60 bc a3 3d 96 b3 7a bd 5b 13 f9 ba
       0.11815698 0.07994914 -0.061206423 -0.0019002961
0001a0 51 ae a1 3c ea f6 5d 3d 5f 10 8b bd d2 78 f2 bc
       0.01973644 0.054190554 -0.06790232 -0.029598627
0001b0 b9 2b 0f be 22 d8 af bc 71 91 ba bc 45 3a 06 ba
       -0.13981523 -0.021465365 -0.02277443 -0.0005120377
0001c0 70 ac 43 3c b9 34 94 bd 7c bd af bd ec 17 6b 3d
       0.011942968 -0.072366185 -0.08581063 0.05739586
0001d0 58 9b e8 3d cd 89 2b 3e 7d 06 4c be 2e 9b 0d 3d
       0.113577545 0.16751786 -0.1992435 0.03457182
0001e0 4a ec 56 3d 5d fe 6b 3c 6d 39 4d be b7 bd 68 3d
       0.052471437 0.014403907 -0.20041437 0.05682155
0001f0 15 6c 0c be cb 56 48 bd 6f 87 14 3d e6 05 08 bd
       -0.13713105 -0.048910897 0.036261972 -0.03320875
000200 f0 15 da 3d ae 2d 92 bd ca 40 8a bd 3f 1e 87 bd
       0.106487155 -0.07137619 -0.06750639 -0.06597566
000210 3e 3e 18 3c 76 68 bc 3b 35 c1 1f 3e 83 0e a6 bd
       0.009292183 0.0057497574 0.15601046 -0.08108237
000220 bc 6a 34 3e c7 29 bc 3d 1f 65 e3 3c d5 e2 12 bd
       0.17618841 0.09187656 0.02775818 -0.035860855
000230 d9 20 09 3e 89 d4 a9 bb 3c 9d cd 3d 23 5a 0c be
       0.13391437 -0.005182807 0.10039756 -0.1370626
000240 57 ad 7f bd 9b d9 12 be 6a 07 e8 bc 29 54 0a bd
       -0.06242117 -0.14340822 -0.028323848 -0.033771668
000250 a2 7c 76 bc f3 31 02 3e a7 18 38 bd 58 4f 71 bd
       -0.015044363 0.12714367 -0.044945385 -0.05891356
000260 a2 a7 02 be 5e c4 22 bd 7b a5 13 3e d5 0b 87 bd
       -0.1275926 -0.03973805 0.14418595 -0.06594054
000270 a9 89 3e 3b 5b 4a 02 be 63 3a c6 bd 73 2d e4 bd
       0.002907375 -0.12723677 -0.09679105 -0.11141481
000280 c1 c0 ed 3d 07 d3 04 bc 8f 38 fc 3c 94 bd 84 3c
       0.116090305 -0.008106953 0.030788688 0.01620368
000290 c4 c0 f2 3c 8c a7 ed bd f1 8e a9 bd 74 82 fd 3d
       0.029632933 -0.11604223 -0.08279217 0.123783976
0002a0 1a 32 3a be 6b 44 f3 3b f2 87 ff 3d e1 ad 57 3d
       -0.18183175 0.0074239275 0.124771014 0.05265606
0002b0 0b 1a 9d 3d a3 39 7a bd 55 d2 39 bd 19 58 5d 3d
       0.07670983 -0.061090123 -0.045366604 0.054039095
0002c0 55 9f b8 3d 72 8b f6 3d b4 14 89 bd 6b c7 be bd
       0.09014765 0.12038316 -0.06693402 -0.0931538
0002d0 b4 2e 99 3d ab c0 23 3e 46 9b 53 bd 4a bb 24 3d
       0.07479611 0.15991466 -0.051661752 0.040217675
0002e0 31 10 20 3e 51 53 d5 bb d0 65 45 3b 18 a7 db 3d
       0.15631177 -0.006510176 0.00301205 0.1072523
0002f0 12 99 ad bd 78 ff a4 bc 16 78 c7 bd 30 ae 38 3d
       -0.084764615 -0.020141348 -0.097397014 0.045087993
000300 9b 9e 0b bd 76 b0 c3 bd b4 7e 42 3c b0 4e 07 3e
       -0.034086805 -0.09555142 0.011871029 0.1321361
000310 e6 27 d1 bc 01 a3 01 be ce 3d 11 be b4 7d 8a bd
       -0.02553172 -0.12659837 -0.14183733 -0.06762257
000320 df 94 ee 3b 47 ec 5c bd 5c 47 b5 3d 64 c4 41 bd
       0.0072809304 -0.05393627 0.08851501 -0.047306433
000330 81 ff ca bd 61 d1 0f bc b6 cc d5 bd af 0f 5c bd
       -0.09912015 -0.008777947 -0.10439436 -0.053725895
000340 27 8c b1 3c 6d e2 04 3e db 0c f2 bc b0 c6 bb 3d
       0.021673275 0.12977 -0.029547146 0.09168756
000350 cf 50 b3 bc a1 f3 fa 3d df f0 64 3d 0a 42 5c bd
       -0.021889118 0.122535 0.055893775 -0.053773917
000360 53 76 76 3e 46 b9 bf bc 01 2b d2 3a 91 ca 22 3e
       0.24068575 -0.023403775 0.0016034545 0.15897585
000370 48 ec 3e be fa 43 84 bd c3 dd 37 be a2 34 9e 3d
       -0.18644822 -0.06458278 -0.17955689 0.07724883
000380 da 6a 1a bd 3d cd 0c be 07 2b 81 bd 69 c0 fc bd
       -0.037699558 -0.13750167 -0.06307035 -0.12341387
000390 9a f9 89 3d 2f 85 fd bc 12 03 53 3d 10 5e 9e bd
       0.06737061 -0.030947296 0.0515166 -0.07732785
0003a0 64 ed e0 bd 8e 7c 99 3d c4 4a 25 bd 20 95 85 3d
       -0.10982779 0.0749446 -0.040354505 0.06522584
0003b0 16 01 45 3e 37 40 25 3d e6 97 48 bc 1f bc 0f be
       0.19238696 0.040344443 -0.012243247 -0.14036606
0003c0 10 ca 92 3a e7 56 fb 3d 77 7d 3e 3d 83 7a 63 bc
       0.0011199135 0.12272435 0.04650637 -0.01388419
0003d0 c7 37 85 3d 4a d7 b4 3c 7d a5 6e bd 7a d4 7c bd
       0.06504779 0.022075314 -0.05826329 -0.06172607
0003e0 8a 59 7b 3d 8b e9 a3 3d 1d b7 1b be 17 a8 89 bd
       0.061364688 0.08003529 -0.15206571 -0.06721514
0003f0 7b 03 b0 bd c0 58 4f 3d eb 16 0c 3e 4b 59 15 3c
       -0.08594414 0.050621748 0.13680618 0.009115527

model.gru.bias_ih_l0 f4 [150]
000000 8b bb dd bd 2b f3 38 bd e8 d0 14 be ae 0d a4 3c
       -0.108267866 -0.045153778 -0.14532816 0.020026054
000010 2d a4 97 bd 81 88 0d 3e ec 46 aa bd 8a 34 03 bd
       -0.07404361 0.13821603 -0.083143085 -0.032032527
000020 9a 25 8a 3d ce 2e eb 3d e3 8c af 3d 2b 06 24 3e
       0.06745453 0.11483537 0.08571794 0.16017978
000030 8d dd 9d 3c ee 65 3d 3d 1b c2 a7 3d ed 26 08 3e
       0.019270683 0.046239786 0.081913196 0.13296099
000040 2a 9d 8e bd 44 9e d2 bd 9b da 1f bd 53 a6 19 be
       -0.069635704 -0.10284093 -0.039026838 -0.15004854
000050 7d 97 da bd 9d 29 f0 bd 74 12 2f bd e1 28 12 3c
       -0.10673425 -0.11726687 -0.042742208 0.008920879
000060 7e 02 0f 3e 8c 2b 32 3d 33 b0 0e 3d 8d 0e ed bd
       0.13965794 0.04349856 0.034836005 -0.11575041
000070 0d 05 3e be c7 71 aa bd 8f 8b 33 be 39 cf 57 bd
       -0.18556614 -0.083224826 -0.17533706 -0.052687857
000080 c5 1f 84 bd 49 a7 4d be ff 0f 03 be 12 5f a6 3d
       -0.06451372 -0.20083345 -0.12799071 0.08123602
000090 43 87 24 bc 1e 27 a2 bc dd 28 8e bc c0 c7 93 3d
       -0.0100420145 -0.019794043 -0.01735347 0.07215834
0000a0 28 a5 b7 bd e9 7b 0d be 40 cd ed 3b e9 26 e0 3c
       -0.08967048 -0.13816799 0.0072571337 0.027362304
0000b0 09 a6 51 be e9 cc 4d bc 02 42 f4 3b 27 8a 5d 3c
       -0.20473494 -0.012561061 0.007454158 0.013521708
0000c0 ca d9 d6 bd 4b 0c ac bc 15 36 23 3e b4 ae 00 3e
       -0.10490759 -0.021001955 0.159386 0.12566644
0000d0 96 c2 46 3e 96 b1 14 be 26 52 a5 bc 4e 59 71 3d
       0.19410166 -0.14520869 -0.020180773 0.05892306
0000e0 01 7c b6 bd a2 19 bd bd 2e b1 b7 3d 79 9d ed 3c
       -0.089103706 -0.09233405 0.08969341 0.029005753
0000f0 8d f7 6d 3e 8f 60 5a bd 86 8f 76 3e 41 21 cf bd
       0.23238964 -0.05331474 0.24078187 -0.101137646
000100 c8 e8 64 3d 96 cc 60 3c 87 e3 3b bd ff ed dd bd
       0.05588606 0.013720652 -0.045871284 -0.1083641
000110 41 88 83 3d 21 0b 10 3e 00 02 25 be 78 03 17 3e
       0.06422473 0.14066745 -0.16114044 0.14747417
000120 33 ef 39 3e 5b 90 8a 3d 7a 7d 42 3d 0c 2a c1 bc
       0.18157654 0.06765815 0.047482945 -0.02357962
000130 96 e9 e3 3d a8 01 a3 3d 86 f1 cb 3d ae 58 36 3e
       0.11128537 0.079593 0.09958176 0.17807266
000140 f8 4b 29 3e c8 07 f4 3d 7e f8 26 3e b9 45 dd 3c
       0.16532886 0.11915547 0.1630573 0.027010785
000150 24 67 42 bd cf 7f 7c 3e 34 67 ad bd 9c 17 ec bc
       -0.047461644 0.2465813 -0.0846695 -0.028819852
000160 2b e6 10 3c de 2a 15 3e 80 bf 57 bd 0d e7 a3 bc
       0.008843939 0.14567134 -0.052672863 -0.020007635
000170 49 54 ce 3d b5 9d 39 bd ac ea a7 3d 8c 2e 12 bd
       0.1007467 -0.045316417 0.08199057 -0.03568892
000180 9f 93 80 3d af 12 1e 3e aa 90 80 bd f8 b7 b1 3d
       0.062781565 0.15436815 -0.062775925 0.086776674
000190 0e a6 fc bc 24 7c 38 bc a9 0c 9f bc 8d c7 d9 3c
       -0.0308409 -0.011260066 -0.019415217 0.026584411
0001a0 bc 38 94 3c b7 75 a3 bd 77 8e 0d be 69 67 cb bb
       0.01809346 -0.07981437 -0.13823877 -0.006207396
0001b0 6c 65 0a bd 6d 37 b1 3c e0 e7 15 be ae 16 1c 3d
       -0.03378813 0.021632874 -0.14639235 0.038107567
0001c0 f3 a0 5b bd 2c 4e 8a bd 84 e4 ae bd f4 66 29 3c
       -0.05362029 -0.06753191 -0.0853968 0.010339487
0001d0 cb 9f 01 be 73 6f 20 bd 88 19 bd 3d 42 7f b1 bc
       -0.12658612 -0.039168786 0.09233385 -0.021667127
0001e0 5c 45 01 3e cd e5 8e 3d 22 a9 91 3d c1 4a 5c bd
       0.12624115 0.06977425 0.07112338 -0.05378223
0001f0 b7 b5 a0 bd b8 0f 5b 3c d5 b7 a4 3d 1d 7e c6 bc
       -0.07847159 0.013370447 0.08042876 -0.024230057
000200 56 fe 2c be c7 5b bf 3d c1 27 0f 3d d6 c0 7a bd
       -0.16893896 0.09343677 0.03495002 -0.06121906
000210 d1 cd 05 3d 28 79 94 bc 60 63 ac bd 6a f6 dc bd
       0.032666985 -0.018124178 -0.08417392 -0.10789187
000220 a5 87 fe bd db ef af 3b 32 7a 41 3d 1f 23 95 3d
       -0.12428216 0.005369169 0.047235675 0.072820894
000230 58 d2 af bd 0f 6d 20 be e8 62 7a 3d 8a 9f ec 3d
       -0.08585042 -0.15666603 0.06112948 0.11553867
000240 64 34 ee 3a e6 83 2f 3e c2 17 37 3c c5 c1 06 3d
       0.0018173573 0.17140159 0.011175098 0.032899637
000250 9b 1e b4 bd 77 f2 99 3d
       -0.087949 0.075169496

model.gru.bias_hh_l0 f4 [150]
000000 04 42 0a 3c d8 5a be bd 7f 9d 52 bd da 80 e7 bb
       0.008438591 -0.09294671 -0.05141973 -0.007064921
000010 4e 1d 8b 3c e6 d2 1e 3e 14 e9 9d 3d da f9 26 3d
       0.016981747 0.15510139 0.07710472 0.04076562
000020 d5 00 16 3e ce e7 36 3e 20 36 1d be 3f 89 ea 3d
       0.14648755 0.17861864 -0.15352678 0.11451959
000030 e9 05 25 bd 47 2a e4 bd c8 a1 a3 3c e9 c6 c0 3d
       -0.04028884 -0.11140876 0.019974604 0.09412939
000040 36 de fd bc b3 58 88 bd 89 55 ef bc 9b d5 2f bd
       -0.030989747 -0.06657543 -0.029215591 -0.04292832
000050 b9 a5 b7 bb 67 01 c3 bc 49 a5 96 3d 6c 7b e2 bd
       -0.0056044725 -0.02380438 0.073557444 -0.11058697
000060 50 40 e5 3c 3f 66 f8 3b d8 14 09 bd 6d 28 0e bd
       0.027984768 0.007580548 -0.033467144 -0.03470652
000070 7b fa 27 be 41 d2 7c 3d 9f a6 b8 bc eb 48 f6 bc
       -0.16404144 0.06172395 -0.022540389 -0.030064067
000080 73 a3 e5 3d 10 ab 47 bc 23 a4 15 be d7 d7 0d be
       0.11212816 -0.012186781 -0.14613394 -0.13851868
000090 05 b4 25 3c f8 27 12 be 86 68 41 3d 9a 4e ff bd
       0.010113721 -0.1427306 0.047218822 -0.12466164
0000a0 ea dc c6 bd 67 80 1f be cd e1 46 bc cb 61 19 bd
       -0.09710105 -0.15576325 -0.012138796 -0.03744678
0000b0 84 f7 89 bd ea 4d cf bd 40 97 de bd f6 35 3a be
       -0.06736663 -0.10122283 -0.108686924 -0.18184647
0000c0 6c 0f d3 3d d6 0d 10 be a8 46 e6 bc 76 6e 55 bd
       0.10305676 -0.14067778 -0.028109863 -0.052107297
0000d0 93 7c 9a 3e c1 4c c7 bd 86 ee 35 bd 58 a9 e0 3d
       0.30173168 -0.097314365 -0.044416927 0.109698
0000e0 90 dd 13 3d a0 1f ef 3d ce 56 89 3d 01 17 0b 3e
       0.03609997 0.11675954 0.0670601 0.13582994
0000f0 27 57 ed 3d d6 97 67 3c 4a ca 89 3e 0a 58 bf bd
       0.115888886 0.014135322 0.26912147 -0.09342964
000100 4f fa 3c 3d 5a e2 0a bd 83 c1 d7 3d ee f4 f2 3d
       0.04613715 -0.033907272 0.10534956 0.11863123
000110 85 ee 20 bd b9 8d 0b 3e 36 20 30 be c7 d7 8e bd
       -0.03928997 0.13628282 -0.17199787 -0.0697475
000120 22 81 08 3e 3b c2 6f 3d 60 c0 69 3e eb ea 1b 3d
       0.1333051 0.058534842 0.22827291 0.038065832
000130 5a db 37 3e ea fc ed 3d bb c0 9d 3d 32 57 38 3e
       0.1795477 0.11620505 0.07702776 0.18002012
000140 e4 55 28 3e d2 18 69 3d 96 d4 00 3d eb 1c f0 3d
       0.16439015 0.056908436 0.031452738 0.11724266
000150 c8 2c 30 3e 50 86 4a 3e ca 8e aa bd 4e cf 0a 3e
       0.17204583 0.19777799 -0.08328016 0.13555643
000160 f7 53 b6 bd f0 9f 36 3d 7f 1c d0 3c a9 81 b3 3d
       -0.08902734 0.044586122 0.025404213 0.08764965
000170 4a c4 81 3c 74 e4 84 bd e5 1c 0e 3d cd fa 56 39
       0.015840668 -0.064888865 0.034695525 0.00020502061
000180 9b 27 e1 3d af 4f 2a 3e 3a 58 c6 3d df 66 5e 3e
       0.10993882 0.1663196 0.09684797 0.2171893
000190 a2 12 90 3d 36 41 89 bd b0 9c 18 3c 78 37 d8 bd
       0.07034804 -0.06701891 0.009314701 -0.10557455
0001a0 c7 b0 6f 3d 6a db 0c 3e 29 47 b3 3d 8c 8d b4 bd
       0.058518197 0.13755575 0.08753807 -0.088160604
0001b0 1f 26 01 3e 0c f3 04 3e 3e fc 83 3d 9e d6 93 bd
       0.12612198 0.1298334 0.06444596 -0.07218669
0001c0 56 79 b4 3d 8f f0 46 3d e4 22 a9 3d 8c 3b 19 3d
       0.088122055 0.04856926 0.08258608 0.037410304
0001d0 d3 01 54 bd 1d a4 71 bc e2 dd fa 3d a6 1c 84 3d
       -0.051759552 -0.0147486 0.12249352 0.06450777
0001e0 12 3e 80 3d 13 1b 22 bb 0e 69 23 bd 97 d0 6b bd
       0.06261839 -0.0024735376 -0.03989511 -0.057571974
0001f0 4b b9 b1 3d fb d6 13 3e bc 2e fd 3b d6 ce 87 3c
       0.0867792 0.14437477 0.0077265184 0.01657812
000200 eb d8 cb 3d 76 15 1e be 2d a1 8e bc 6c ea 02 be
       0.09953483 -0.15437874 -0.017410839 -0.12784737
000210 d6 35 9f 3d 2e 0e 41 bb bf 12 85 3c 4e 2d 57 bd
       0.0777394 -0.0029457915 0.01624429 -0.05253344
000220 06 a4 9c 3c ec 79 58 3d 01 4e d2 bd 8b 97 80 3d
       0.019121181 0.05285065 -0.10268784 0.062789045
000230 96 e0 0e be e3 84 91 bd ef a7 ea bd 47 91 3d 3e
       -0.1395286 -0.07105424 -0.11457812 0.1851245
000240 44 9b a2 bd d3 82 ed 3d 97 8b bb bc ed 2b e2 bc
       -0.07939771 0.11597218 -0.02289371 -0.027608836
000250 bc a1 88 3d 49 ea 65 bd
       0.066714734 -0.056131635

model.fc.weight f4 [1, 50]
000000 6a e0 98 3a 16 ca 6e 3b e0 2d 96 bb 9a a1 49 3c
       0.001166356 0.003643637 -0.0045831054 0.012306595
000010 4a db ba bc 83 87 a5 bc 54 57 13 3d 6a 35 10 3c
       -0.022809643 -0.020206219 0.035971954 0.008801797
000020 35 a5 b8 bb b5 b9 88 bc 38 40 38 3d 5a e1 8b ba
       -0.0056349286 -0.016690115 0.04498312 -0.0010672018
000030 fd 96 c6 bc be 08 92 3c 59 5b ac 3c 05 ef 9b bc
       -0.024241919 0.017826434 0.021039652 -0.019034872
000040 f8 ca 90 3d 97 10 e9 bb 72 19 13 bd d4 1c 42 bc
       0.07069963 -0.0071125734 -0.03591294 -0.0118476935
000050 f7 45 48 bd 3e 1c d1 bc 4f 65 07 ba 3c cf 8d 3b
       -0.04889485 -0.025526162 -0.00051649375 0.004327683
000060 a6 bc 62 bc 5e 45 f7 bc 15 a7 f5 3a cf e1 74 bc
       -0.013838923 -0.030184444 0.0018741811 -0.014946415
000070 62 96 22 3d d0 f4 38 bc ed 43 d5 b9 17 27 30 3d
       0.039694197 -0.011288837 -0.00040677135 0.04300603
000080 6b 78 02 3b 42 d0 ac bc 3f 6c d1 3c 7f 3d 53 3d
       0.00199082 -0.021095399 0.025564311 0.05157232
000090 a1 85 39 3c 7f 90 83 3b 2b 93 e5 bc 99 e5 30 bd
       0.0113233635 0.004015028 -0.028024277 -0.04318771
0000a0 51 3c e4 3c 0a 75 62 3d 30 55 1b 3b fc 48 be bd
       0.027860792 0.0552874 0.0023701899 -0.092912644
0000b0 d1 66 47 bc b9 52 b2 bd c9 ae d6 3a aa 53 06 3b
       -0.012170509 -0.08707184 0.0016378994 0.0020496645
0000c0 9f 6d 23 3b 28 86 02 3c
       0.0024937165 0.007966556

exp_avg f4 [150, 22]
000000 db 19 19 b5 38 e4 0b 35 c0 09 86 b5 11 40 fe 35
       -5.7034566e-07 5.2113637e-07 -9.986616e-07 1.894312e-06
000010 c1 9d ca 35 d2 35 25 35 48 45 6b 35 32 16 ad 35
       1.5096085e-06 6.154561e-07 8.764514e-07 1.2895964e-06
000020 3c 0a fd 33 74 f2 48 b4 29 b7 04 b6 e9 ba 57 35
       1.1783092e-07 -1.8714655e-07 -1.9776146e-06 8.036573e-07
000030 e6 0e 05 b6 69 a8 16 b5 96 57 b9 33 f1 bd f5 35
       -1.9827216e-06 -5.6124424e-07 8.6306656e-08 1.8309203e-06
000040 00 00 00 00 21 55 09 33 8a 0f 2e b5 b5 d1 a6 35
       0.0 3.1975222e-08 -6.4842664e-07 1.2428997e-06
000050 00 00 00 00 7e 5e 59 35 d6 47 da 34 ff f8 84 35
       0.0 8.0976304e-07 4.0657932e-07 9.907234e-07
000060 73 b6 e8 b5 98 23 b3 35 e7 20 4a 36 3d 45 89 36
       -1.7338447e-06 1.3346898e-06 3.0119497e-06 4.0909786e-06
000070 b8 95 04 b6 19 f6 59 36 ce e4 89 b5 42 49 fa 35
       -1.975668e-06 3.2478767e-06 -1.0273886e-06 1.8647772e-06
000080 88 d1 95 35 f5 1e 7b 36 5c c6 f4 b5 ed 2d 54 b6
       1.1162347e-06 3.7419934e-06 -1.8237147e-06 -3.1617194e-06
000090 65 65 4a 35 96 eb c7 34 00 00 00 00 06 28 3b 35
       7.539841e-07 3.723805e-07 0.0 6.972117e-07
0000a0 92 e9 bc b4 9d 6d 10 b5 00 00 00 00 6f de 19 36
       -3.5187674e-07 -5.380369e-07 0.0 2.292825e-06
0000b0 c3 8c be 35 61 2e 07 36 50 31 0c b4 2c 45 e2 b4
       1.419707e-06 2.0143564e-06 -1.3056456e-07 -4.214611e-07
0000c0 36 eb c8 b4 37 6a 42 36 a8 3d 0d 36 67 02 34 36
       -3.7424041e-07 2.8970078e-06 2.1046526e-06 2.6823488e-06
0000d0 aa ad 03 36 57 0b 22 35 70 36 b2 b5 91 8d 3b 36
       1.9621607e-06 6.0366204e-07 -1.3277877e-06 2.7947574e-06
0000e0 f1 e8 4f 36 39 eb 82 b3 60 ec ea b3 3a da 88 35
       3.0980993e-06 -6.0963835e-08 -1.09394705e-07 1.0196302e-06
0000f0 00 00 00 00 f6 c8 ad b5 70 f3 d4 b4 e4 69 53 35
       0.0 -1.2947992e-06 -3.96652e-07 7.8757716e-07
000100 00 00 00 00 de c6 cb 32 62 39 58 35 b0 27 60 36
       0.0 2.3722745e-08 8.0549773e-07 3.3401702e-06
000110 9d 82 9e b6 f9 63 b5 b6 eb c2 7b b4 8d 8c a4 b3
       -4.7239723e-06 -5.4058587e-06 -2.3447107e-07 -7.662411e-08
000120 10 79 83 b6 cd 1e a5 b5 4e f8 5c b5 a4 56 15 36
       -3.9181978e-06 -1.2302422e-06 -8.231772e-07 2.2253162e-06
000130 8c 96 e0 b5 77 dd a3 b5 a9 1f 1d 36 cc 1f e4 34
       -1.6733115e-06 -1.2208901e-06 2.3413252e-06 4.2491445e-07
000140 37 04 53 b4 07 40 ee 35 00 00 00 00 27 bf 8a b6
       -1.965244e-07 1.7751016e-06 0.0 -4.1349736e-06
000150 f2 8e 8a 36 33 e1 4b b5 00 00 00 00 2b b0 b3 b5
       4.1293615e-06 -7.59511e-07 0.0 -1.3387811e-06
000160 f9 39 77 34 ec 75 38 b6 7b 5a 46 b6 85 9e 80 b5
       2.3024758e-07 -2.7486776e-06 -2.9556966e-06 -9.582878e-07
000170 d9 3c 1f 32 f7 58 78 35 ca 31 4c b6 8f 10 df 34
       9.268853e-09 9.251666e-07 -3.042735e-06 4.1549035e-07
000180 c6 5b 71 b6 79 ff 85 35 2c c9 f8 36 08 cf 25 35
       -3.5965218e-06 9.983625e-07 7.4143954e-06 6.176856e-07
000190 cc cb 14 b5 db 09 59 36 16 0e e2 b5 f0 f9 de b6
       -5.543086e-07 3.2341256e-06 -1.6842412e-06 -6.645212e-06
0001a0 00 00 00 00 a4 f0 f0 36 b5 86 11 b6 4c 73 90 36
       0.0 7.1805716e-06 -2.1685094e-06 4.3049567e-06
0001b0 00 00 00 00 ec a7 32 b6 f1 03 9e 34 86 3b 08 36
       0.0 -2.662181e-06 2.943266e-07 2.0300226e-06
0001c0 75 0f f4 35 01 df 9e b6 07 ae 8b 36 6d 64 7b b6
       1.8183915e-06 -4.734728e-06 4.1627823e-06 -3.746037e-06
0001d0 2c 66 5a 36 9e a1 81 34 df 8a 91 b4 e8 b1 b4 b6
       3.2544003e-06 2.4145714e-07 -2.7109397e-07 -5.385129e-06
0001e0 36 ad 00 37 00 60 b8 b5 f3 0e 03 b5 aa 5e 38 35
       7.669723e-06 -1.3737008e-06 -4.8823057e-07 6.8683096e-07
0001f0 d1 c9 70 36 cb 52 f0 34 00 00 00 00 41 58 23 b7
       3.588026e-06 4.4763723e-07 0.0 -9.736105e-06
000200 60 ed 66 b6 54 90 9a 36 00 00 00 00 32 4f dd b6
       -3.4410841e-06 4.6063597e-06 0.0 -6.595533e-06
000210 e1 7a 60 b7 f3 43 e2 37 22 96 c3 36 25 a5 e9 b6
       -1.338005e-05 2.697294e-05 5.8289306e-06 -6.9631665e-06
000220 11 3a 81 b7 67 45 fc b6 4c ae 42 37 7e e5 a7 b7
       -1.5405038e-05 -7.5182647e-06 1.1603883e-05 -2.0014817e-05
000230 b4 c7 50 b7 80 81 6d 37 78 e0 e4 b7 65 bc 74 b7
       -1.2444263e-05 1.4156452e-05 -2.7284244e-05 -1.4587397e-05
000240 67 46 75 37 41 14 c8 36 69 23 90 b6 ad 71 c3 36
       1.461953e-05 5.9628223e-06 -4.2956567e-06 5.8246865e-06
000250 00 00 00 00 fd 18 ad 37 f9 32 36 36 f9 fe 57 36
       0.0 2.0634843e-05 2.7149783e-06 3.218591e-06
000260 00 00 00 00 c8 f2 a6 36 5f 9d 49 36 ab 03 33 b5
       0.0 4.975449e-06 3.0042936e-06 -6.6688034e-07
000270 82 9a 65 34 e2 9b a1 b3 a8 18 72 b5 1e 07 e9 b5
       2.1383497e-07 -7.5255016e-08 -9.0187905e-07 -1.7361924e-06
000280 5f 1b 33 b5 14 c7 3b b6 c2 00 27 b6 46 1e b0 b5
       -6.6722527e-07 -2.798105e-06 -2.488538e-06 -1.3121833e-06
000290 8e a6 01 35 8a 74 b6 b5 8d d5 ea 35 b5 81 ea 34
       4.8298614e-07 -1.3593974e-06 1.749651e-06 4.368027e-07
0002a0 ef 67 af 35 16 52 96 b4 00 00 00 00 0c dc cb b5
       1.3068765e-06 -2.7999403e-07 0.0 -1.5188721e-06
0002b0 e6 00 11 b6 a2 b0 79 b1 00 00 00 00 67 ff 05 34
       -2.1607207e-06 -3.6334673e-09 0.0 1.2479505e-07
0002c0 0f 11 b2 32 eb 69 51 b6 a5 87 f0 33 2b db ac b5
       2.0729685e-08 -3.120508e-06 1.12005445e-07 -1.2878785e-06
0002d0 d9 2d 2e 34 af e5 87 b5 2a 07 22 b6 39 66 b6 b5
       1.6221692e-07 -1.012513e-06 -2.4144051e-06 -1.3589807e-06
0002e0 f0 b6 1e 35 b1 91 3b 33 53 ac 9f 35 cc 9a 9e b5
       5.9125796e-07 4.3671836e-08 1.1896576e-06 -1.1816969e-06
0002f0 5d 49 02 b5 b7 9a 14 b5 10 0a b0 b5 e9 4c a3 b5
       -4.853553e-07 -5.5359436e-07 -1.311595e-06 -1.216683e-06
000300 00 00 00 00 c4 70 69 35 8a 0e 0b b6 48 41 63 b5
       0.0 8.696336e-07 -2.0721077e-06 -8.4659086e-07
000310 00 00 00 00 bb 90 de 34 c6 91 a9 36 17 76 9f 36
       0.0 4.1456028e-07 5.0535627e-06 4.7523167e-06
000320 32 1c fb b5 94 af b3 34 f1 77 1c b6 b2 2a ca b3
       -1.8709163e-06 3.3469098e-07 -2.3315627e-06 -9.414124e-08
000330 ec 73 98 36 a0 65 88 35 ba ed 43 b6 8a 61 15 b5
       4.543448e-06 1.0162366e-06 -2.919564e-06 -5.5648763e-07
000340 39 a0 be 36 73 f4 b4 33 df 42 93 36 7b 3a 33 b5
       5.6810936e-06 8.426368e-08 4.388726e-06 -6.6767797e-07
000350 db c7 0e 33 03 9f 0c b6 00 00 00 00 bb 48 05 36
       3.324372e-08 -2.0954183e-06 0.0 1.986088e-06
000360 1f 0a 49 b5 2e f8 c9 35 00 00 00 00 64 78 d4 35
       -7.4893063e-07 1.5047897e-06 0.0 1.5830269e-06
000370 0f a9 70 36 10 59 27 38 1e 25 6b 36 13 86 88 37
       3.5861192e-06 3.989885e-05 3.5039334e-06 1.6274897e-05
000380 b9 ff fd 36 4e f3 0d b7 09 50 1d 38 10 1a 30 b7
       7.5697576e-06 -8.460904e-06 3.7506255e-05 -1.0496486e-05
000390 ee 0b ca b7 3c d8 9d b6 0b 1f 22 37 39 9b 04 b7
       -2.4085832e-05 -4.7041376e-06 9.66318e-06 -7.903954e-06
0003a0 77 aa bc 37 c8 3f 04 37 24 54 09 37 44 8d 86 37
       2.2490725e-05 7.882663e-06 8.185427e-06 1.6039827e-05
0003b0 00 00 00 00 5f 59 91 37 86 63 93 37 05 5f 8a b7
       0.0 1.7326964e-05 1.757011e-05 -1.6495129e-05
0003c0 00 00 00 00 15 05 c0 37 1d 8b 85 35 ab 6c 29 b6
       0.0 2.289055e-05 9.94976e-07 -2.5246216e-06
0003d0 96 44 fe 35 72 3c c5 35 29 98 3a 36 c8 a7 0a 36
       1.8944436e-06 1.4695236e-06 2.7804729e-06 2.0661264e-06
0003e0 6a b9 7d 35 a0 9e cc 35 4a 0a 28 36 09 31 70 35
       9.451966e-07 1.524535e-06 2.503994e-06 8.947832e-07
0003f0 3e 46 b1 35 92 12 02 36 36 8f 16 b4 db db cc b5
       1.3207971e-06 1.938232e-06 -1.4021938e-07 -1.5263171e-06

exp_avg_sq f4 [150, 22]
000000 0c ef 35 2f 9f 5d b2 2f 77 5a a9 2f 3c 8c 6e 2f
       1.654678e-10 3.2444533e-10 3.08052e-10 2.1695795e-10
000010 5f e3 2b 2f 89 c9 97 30 8a 55 35 2f a3 b6 16 30
       1.5633138e-10 1.1043976e-09 1.6492244e-10 5.4829224e-10
000020 c9 6b f5 2e 5b 9f 25 30 cd 96 0f 2f c6 74 68 30
       1.11604566e-10 6.025311e-10 1.305935e-10 8.4567053e-10
000030 bd 38 fc 2f 1e 7c 80 2e 08 10 42 30 38 0b 01 2f
       4.5878848e-10 5.842814e-11 7.059957e-10 1.1736467e-10
000040 00 00 00 00 20 c0 14 2f ed d2 df 2e 79 73 05 2f
       0.0 1.3528778e-10 1.0178334e-10 1.2137304e-10
000050 00 00 00 00 e1 a7 c2 2e bc 01 c1 2f 3e bf 02 30
       0.0 8.85192e-11 3.5107728e-10 4.7565496e-10
000060 86 dc b9 2f 8e 94 6f 2f 63 f5 00 30 98 74 19 31
       3.3807995e-10 2.17897e-10 4.6914844e-10 2.2330706e-09
000070 2b 88 38 30 08 e2 f0 30 b0 21 7a 30 ec d2 a5 2f
       6.7132316e-10 1.752654e-09 9.0997343e-10 3.0163194e-10
000080 ba e7 aa 2f 97 35 40 31 02 17 69 30 6b 59 96 2f
       3.1087471e-10 2.797014e-09 8.47976e-10 2.7348376e-10
000090 a9 31 e6 2f ed 3e 88 2f 00 00 00 00 14 3f 15 2f
       4.1872042e-10 2.4782967e-10 0.0 1.3573881e-10
0000a0 c6 d1 a9 2e dc 4e ab 2e 00 00 00 00 e3 df cb 2e
       7.7224935e-11 7.790188e-11 0.0 9.2711415e-11
0000b0 bf 7f f2 2f 42 15 fc 2f 00 7a 5a 2f 50 8e d9 2e
       4.4110313e-10 4.5853638e-10 1.9870328e-10 9.893297e-11
0000c0 1a 55 e6 2f 58 1c c2 30 6b 9d 92 2f 5d 31 97 30
       4.1897225e-10 1.4123414e-09 2.6669097e-10 1.1000726e-09
0000d0 9c 64 a2 2f 97 0f 8e 2f d6 b4 ec 2f 8c 66 b9 30
       2.9539116e-10 2.5840727e-10 4.3056642e-10 1.3489667e-09
0000e0 0e 07 38 2f 27 d4 36 2e 8e b1 96 2f fc ac 6f 2f
       1.6737209e-10 4.1570438e-11 2.7411e-10 2.179838e-10
0000f0 00 00 00 00 39 32 8d 2f e4 df 04 2f c8 a3 11 2f
       0.0 2.5683436e-10 1.2084872e-10 1.324586e-10
000100 00 00 00 00 c1 61 0d 2f 2e 1e ed 2f 2c 0d 05 30
       0.0 1.2858604e-10 4.3131493e-10 4.8403836e-10
000110 54 4b f6 2f 57 9a ce 2f c1 73 93 2f 1b e1 4a 30
       4.4800663e-10 3.7580847e-10 2.6821392e-10 7.3807066e-10
000120 71 78 27 30 97 2a 2d 30 17 19 e7 2f 0a 15 e2 2f
       6.0925404e-10 6.2997557e-10 4.2036483e-10 4.112411e-10
000130 07 f3 f2 2f 76 44 2f 30 b3 16 04 30 ab e7 0a 30
       4.4192225e-10 6.376192e-10 4.805358e-10 5.053333e-10
000140 5a 0f 2f 30 b7 c7 2e 30 00 00 00 00 0a b1 ef 2f
       6.3686445e-10 6.3584643e-10 0.0 4.359964e-10
000150 a8 7e 20 30 e4 42 0c 30 00 00 00 00 aa 9f 0a 30
       5.838765e-10 5.102676e-10 0.0 5.0431004e-10
000160 60 85 81 31 7f be d6 30 33 38 8d 30 d5 7d 86 30
       3.769557e-09 1.5624692e-09 1.0275073e-09 9.785547e-10
000170 cc c8 34 31 1e 27 8c 31 1b 02 d3 30 dd b4 4e 31
       2.6307587e-09 4.0789834e-09 1.5352869e-09 3.0079754e-09
000180 9b 20 a6 31 ad 15 62 31 ad 37 2d 31 ed 8f 4e 31
       4.8349427e-09 3.289965e-09 2.5206461e-09 3.0058758e-09
000190 6a 6b 17 31 d9 eb cc 30 d2 b7 81 31 99 16 51 31
       2.203445e-09 1.4909985e-09 3.775292e-09 3.0426348e-09
0001a0 00 00 00 00 43 95 ca 30 4f 0e 9a 30 27 53 a6 30
       0.0 1.4739857e-09 1.1209041e-09 1.2101723e-09
0001b0 00 00 00 00 71 bd ed 30 7a 64 f8 2f 3f a0 9b 30
       0.0 1.7297862e-09 4.518233e-10 1.1323279e-09
0001c0 4c 3c 64 30 0e 8f 3a 30 b4 b2 08 30 c0 f8 b4 30
       8.3031604e-10 6.78697e-10 4.9730464e-10 1.3167423e-09
0001d0 57 9f 8e 30 71 35 74 30 c3 8e 10 30 39 3d c4 30
       1.0377147e-09 8.884263e-10 5.258977e-10 1.4278277e-09
0001e0 af 95 7e 30 24 41 81 30 e0 f5 0e 30 cc dd ea 30
       9.2617375e-10 9.404499e-10 5.200871e-10 1.7088779e-09
0001f0 73 2c 47 30 d0 ea 4b 30 00 00 00 00 75 f8 ae 30
       7.2458944e-10 7.418466e-10 0.0 1.2730782e-09
000200 e5 b8 98 30 5e af 7b 30 00 00 00 00 2b 15 4a 30
       1.1112006e-09 9.156248e-10 0.0 7.3517253e-10
000210 20 1c c5 32 8d 3d 3a 32 98 80 89 32 87 75 92 32
       2.2946608e-08 1.084062e-08 1.6007377e-08 1.7050082e-08
000220 3d f7 a8 32 c5 4f 5d 33 fb 40 08 32 1b a6 ad 32
       1.9670205e-08 5.1528122e-08 7.931017e-09 2.0215387e-08
000230 1b 7a 0b 32 b3 ee 87 32 0e f3 13 32 b7 9e 41 33
       8.118628e-09 1.5824616e-08 8.61179e-09 4.5080665e-08
000240 6a 74 5b 32 ad fa 6c 31 c1 87 96 32 49 d3 d7 31
       1.2773947e-08 3.4485013e-09 1.7524032e-08 6.281344e-09
000250 00 00 00 00 d0 a2 e7 31 a7 4d 91 31 6b d3 57 31
       0.0 6.7414945e-09 4.2288835e-09 3.1406795e-09
000260 00 00 00 00 68 f5 80 31 e6 cc 10 30 56 55 b8 2f
       0.0 3.7531898e-09 5.2678073e-10 3.353004e-10
000270 8a 0d f1 2f 4f 6d da 2f d8 46 c1 2f 2a c7 11 31
       4.3847265e-10 3.9731637e-10 3.5156833e-10 2.1213489e-09
000280 1a 52 50 30 7a 3f 83 30 cc 44 72 30 25 13 94 30
       7.578663e-10 9.549546e-10 8.8136853e-10 1.0773858e-09
000290 40 ca 2f 30 b3 1f ce 30 73 5b 27 30 8f 30 96 2f
       6.3952044e-10 1.4997482e-09 6.0884203e-10 2.7319344e-10
0002a0 b6 54 2d 30 1a b1 e4 2f 00 00 00 00 f4 68 1e 30
       6.3057415e-10 4.1598797e-10 0.0 5.762921e-10
0002b0 c3 4e 02 30 f1 39 e6 2f 00 00 00 00 39 60 3e 30
       4.740565e-10 4.1877926e-10 0.0 6.925834e-10
0002c0 46 ec 3f 30 30 67 79 30 c6 53 ce 2f 8c 9f 30 30
       6.982116e-10 9.073231e-10 3.7530706e-10 6.4255157e-10
0002d0 b1 b6 1b 30 f8 6a 5b 30 0b ab b9 2f 91 a3 11 30
       5.664829e-10 7.982375e-10 3.3772837e-10 5.2983135e-10
0002e0 98 07 c9 2f fb 69 87 30 17 f4 19 30 3d 2e 60 30
       3.6567083e-10 9.852664e-10 5.600795e-10 8.1556434e-10
0002f0 ac ee c7 2f 1c 29 21 2f 2c 72 91 30 2f ad 9a 30
       3.6367476e-10 1.465747e-10 1.0582588e-09 1.1254196e-09
000300 00 00 00 00 f1 20 2a 30 14 00 4f 2f 3e a4 5d 2f
       0.0 6.189245e-10 1.8826568e-10 2.0158183e-10
000310 00 00 00 00 21 9e c7 2f c6 1d e1 30 17 bb c2 31
       0.0 3.6310246e-10 1.6379367e-09 5.6674128e-09
000320 9c bf b6 30 8f 25 e9 30 97 82 81 31 71 9c 1c 31
       1.3296702e-09 1.6963656e-09 3.7692405e-09 2.2789914e-09
000330 ce b5 e1 30 da 41 eb 30 21 cc 33 31 6a e8 d8 30
       1.6422577e-09 1.7117217e-09 2.6163962e-09 1.5782124e-09
000340 09 b4 d0 30 b7 a9 14 31 db ea 21 32 58 4f f9 2e
       1.5185161e-09 2.1633306e-09 9.424833e-09 1.1337303e-10
000350 48 40 23 31 da 8b 8d 30 00 00 00 00 86 d3 ad 30
       2.3756161e-09 1.0298848e-09 0.0 1.2647525e-09
000360 79 a6 13 30 2e e9 08 30 00 00 00 00 99 33 13 30
       5.371486e-10 4.980788e-10 0.0 5.3551613e-10
000370 a2 0c 9b 32 45 d4 ae 32 75 37 23 33 15 7a f2 32
       1.805012e-08 2.0352795e-08 3.8001833e-08 2.8228024e-08
000380 97 70 ae 32 a2 98 91 33 a7 fc bc 32 00 cb 60 33
       2.0307466e-08 6.7798524e-08 2.2000973e-08 5.233869e-08
000390 3f c4 c2 32 eb a6 93 32 48 54 8d 32 86 e5 ab 33
       2.2673815e-08 1.7188958e-08 1.6452887e-08 8.004558e-08
0003a0 1f 26 d7 32 28 27 34 32 40 4f ab 32 e0 47 ee 32
       2.504663e-08 1.0486282e-08 1.9943059e-08 2.7739532e-08
0003b0 00 00 00 00 8b 61 41 32 ec f3 f6 31 4e 87 14 32
       0.0 1.1256257e-08 7.187273e-09 8.6454985e-09
0003c0 00 00 00 00 2d 0e 20 32 40 8c 82 2f 3f af b5 30
       0.0 9.316449e-09 2.3746516e-10 1.3219291e-09
0003d0 de ce 8b 2f 66 98 57 2f 5e 9b 98 2f 4c 55 d7 30
       2.543094e-10 1.9608279e-10 2.7759034e-10 1.5667552e-09
0003e0 05 df 43 30 c4 89 a5 30 89 f6 cf 2f 79 75 8f 2f
       7.1257517e-10 1.2044485e-09 3.7828254e-10 2.6095018e-10
0003f0 07 22 05 30 3e 73 0a 31 a8 b7 4a 30 cf 41 a5 2f
       4.8433474e-10 2.014715e-09 7.3748163e-10 3.0060085e-10

exp_avg f4 [150, 50]
000000 d0 24 e0 b3 84 76 01 34 82 44 9c 33 f3 c2 a6 b4
       -1.0437509e-07 1.2057177e-07 7.2767776e-08 -3.1061754e-07
000010 88 ad 01 34 b0 9c 88 b4 c0 ec f0 33 2f d1 b4 b4
       1.2077192e-07 -2.544598e-07 1.12189355e-07 -3.3679814e-07
000020 8d e6 d6 33 c4 77 9c b4 57 7d 9d b3 00 95 6b b3
       1.00070885e-07 -2.9144405e-07 -7.3336814e-08 -5.4850716e-08
000030 5f 2a f5 34 c3 08 53 33 cf 38 ee 30 4f 90 0d b4
       4.5665635e-07 4.9135235e-08 1.7332925e-09 -1.3184147e-07
000040 0f 7a a9 b4 a3 57 4d 33 91 a0 37 b4 12 49 d4 32
       -3.1567512e-07 4.7809987e-08 -1.7101617e-07 2.4713277e-08
000050 6e 0c 65 34 07 4d a9 34 53 a7 37 b4 b6 05 63 b4
       2.1331809e-07 3.1534748e-07 -1.7104075e-07 -2.11431e-07
000060 44 0e 1c b4 6d cd 93 34 c4 17 45 b3 37 a8 dc 33
       -1.4533822e-07 2.753035e-07 -4.588925e-08 1.02751464e-07
000070 d0 84 58 34 f6 cd 74 b4 49 e3 e0 33 f1 9e a5 33
       2.0164885e-07 -2.2799199e-07 1.0472156e-07 7.7123225e-08
000080 ef 9a c1 b3 50 b2 94 34 e1 5e 9a b4 a5 af 0c 35
       -9.015445e-08 2.7696888e-07 -2.875377e-07 5.240966e-07
000090 1d 7f 98 b4 ae 44 2e b4 b5 9c 40 b3 c2 e8 b0 32
       -2.8404693e-07 -1.6229998e-07 -4.4846008e-08 2.0594943e-08
0000a0 7e 49 54 b3 fc 00 9f 34 c6 36 3f b4 32 ad 4f 34
       -4.9426937e-08 2.9616774e-07 -1.7808188e-07 1.9341385e-07
0000b0 56 f0 8c 33 50 6e 0f 35 ef 56 04 b4 1d 37 24 b3
       6.562975e-08 5.3432177e-07 -1.2325084e-07 -3.823435e-08
0000c0 79 42 87 34 4d 70 8f b2 81 3d a6 33 a6 d9 84 b3
       2.5194075e-07 -1.669846e-08 7.741165e-08 -6.186319e-08
0000d0 4c 8e ad 34 f1 73 4c b5 5c 12 93 b4 61 59 03 34
       3.2327296e-07 -7.616464e-07 -2.7394242e-07 1.2232842e-07
0000e0 d3 59 1b 35 e4 86 3a b4 8a bd fa b4 8d d8 c3 b4
       5.787271e-07 -1.7371673e-07 -4.6704037e-07 -3.6479142e-07
0000f0 e1 cf fc 33 e9 e0 c0 b4 37 9f aa 33 89 73 a5 33
       1.17724774e-07 -3.592643e-07 7.945203e-08 7.704427e-08
000100 2e 84 a5 b3 08 26 57 b3 13 d4 f1 34 e0 a5 4c b4
       -7.7074546e-08 -5.0093178e-08 4.5044052e-07 -1.9059325e-07
000110 fd 2e 11 b5 9d 2e ec b4 b1 c0 bb 35 7b 28 dc 34
       -5.4085086e-07 -4.399234e-07 1.3988666e-06 4.1007647e-07
000120 0c c4 e3 b4 45 22 a9 b3 c7 aa 46 34 4f 2b 41 34
       -4.2424688e-07 -7.875909e-08 1.8502315e-07 1.7990281e-07
000130 e5 5d 3f 34 f8 a8 c5 b3 3c 34 1f 35 9e 6d ca b4
       1.782242e-07 -9.2042626e-08 5.9308127e-07 -3.770519e-07
000140 24 65 cd b4 c8 ae 58 b4 71 2c 15 b3 00 2b 5d b4
       -3.8257815e-07 -2.0180153e-07 -3.4732185e-08 -2.0597872e-07
000150 6d 45 0a b4 40 f0 b4 35 a7 82 a0 34 d8 63 08 34
       -1.2877508e-07 1.3480967e-06 2.9897384e-07 1.270231e-07
000160 2c db 09 35 28 2a 2b b4 3e d8 19 b5 9e 25 11 b4
       5.1355414e-07 -1.5940952e-07 -5.7311615e-07 -1.3517862e-07
000170 9f 4a a4 b4 3c 27 7a 35 7c c7 3e 30 37 fa 84 34
       -3.0601674e-07 9.318935e-07 6.940508e-10 2.476897e-07
000180 55 4b 06 b4 7f 63 06 b4 e3 df 2a 35 b3 6e c0 34
       -1.2507128e-07 -1.2515919e-07 6.3655733e-07 3.584333e-07
000190 87 da 18 32 06 fc 1c b4 80 79 c7 33 97 d5 49 34
       8.897252e-09 -1.4620318e-07 9.28876e-08 1.8797287e-07
0001a0 f9 a2 b7 33 0d e8 a9 34 4f d6 b9 b4 5d 28 8d b4
       8.551246e-08 3.1647542e-07 -3.4614865e-07 -2.6292665e-07
0001b0 1d 5b 54 34 3b be 18 35 ef bc dc 34 ef ae 06 33
       1.9777185e-07 5.6901234e-07 4.111566e-07 3.1358407e-08
0001c0 b1 f3 f4 34 1d b3 0f b5 7c ca 26 34 1b 4c 2c 34
       4.562585e-07 -5.3532295e-07 1.5533618e-07 1.6046435e-07
0001d0 6e b1 4d b5 68 fe a7 b3 33 78 a9 34 ba 3c a9 b4
       -7.6626645e-07 -7.82282e-08 3.156616e-07 -3.1522887e-07
0001e0 b6 fa 76 35 ba a7 ec b4 67 67 12 b5 12 00 52 b4
       9.2006974e-07 -4.4080463e-07 -5.453971e-07 -1.95578e-07
0001f0 6b 4b c2 b4 95 e8 6b 34 f7 e5 d5 31 90 17 5a 34
       -3.619019e-07 2.1970693e-07 6.22526e-09 2.0311404e-07
000200 14 af 52 35 d0 82 01 34 81 8b 1b b4 a7 be 40 35
       7.848587e-07 1.206165e-07 -1.4486251e-07 7.180301e-07
000210 a4 a6 ba b4 c5 b0 05 35 44 fc f4 34 4e d0 f2 b4
       -3.4766447e-07 4.9803594e-07 4.563209e-07 -4.5227574e-07
000220 1c 85 90 b5 05 48 08 b4 05 a2 3a b4 e0 2b 46 b5
       -1.0767576e-06 -1.2692188e-07 -1.7381542e-07 -7.3824594e-07
000230 32 bb f6 34 5c 13 85 34 07 9a 1d b4 28 ff e0 34
       4.5957273e-07 2.4787266e-07 -1.4677799e-07 4.1908902e-07
000240 c2 69 c7 b1 10 ed 8e b4 a1 61 0d 33 00 f9 c0 34
       -5.8036855e-09 -2.6622047e-07 3.2917914e-08 3.5943958e-07
000250 65 ca 5c b4 80 35 5c 33 c9 fe ff b4 db 9f e6 34
       -2.0562727e-07 5.12714e-08 -4.7682832e-07 4.295715e-07
000260 43 64 b3 b5 1f 77 04 33 7d 57 68 b5 f3 fe 17 35
       -1.3365719e-06 3.0841985e-08 -8.6554047e-07 5.6622883e-07
000270 47 0f 4d b5 52 4a 3a 34 fe 7d e2 b4 89 87 1e b3
       -7.639068e-07 1.7349637e-07 -4.2187452e-07 -3.691051e-08
000280 69 fd 92 b4 4e 43 04 35 f8 68 1c 33 fe 90 2b 34
       -2.7379e-07 4.9271773e-07 3.641705e-08 1.5978364e-07
000290 25 34 e4 33 aa 17 03 b3 0d 8b d6 b3 ac e0 e7 b4
       1.06265624e-07 -3.0522337e-08 -9.990445e-08 -4.3190573e-07
0002a0 9e 73 7d 35 de 3e bb 33 97 46 3f b5 52 ae 45 34
       9.441809e-07 8.7193015e-08 -7.1255766e-07 1.8410472e-07
0002b0 00 35 01 b5 c0 a6 2d 34 09 1a 16 34 9a fb 47 b5
       -4.813337e-07 1.6172544e-07 1.397931e-07 -7.4499405e-07
0002c0 e3 77 43 b4 4e 17 a4 35 51 2e 8a 35 05 f5 c0 b3
       -1.8204405e-07 1.2225735e-06 1.0295281e-06 -8.9852655e-08
0002d0 78 0c d0 34 4b d3 44 34 3e 6c 47 b4 09 5d 70 35
       3.875209e-07 1.833079e-07 -1.8572698e-07 8.954235e-07
0002e0 1f ad 85 35 43 6f 99 b2 39 eb 07 b5 f2 31 c9 b4
       9.959657e-07 -1.786214e-08 -5.0633713e-07 -3.7475507e-07
0002f0 24 72 07 b5 48 df bc 34 19 41 ee b1 c7 69 79 34
       -5.0457515e-07 3.5180187e-07 -6.9341124e-09 2.3228414e-07
000300 ae cb 0b b4 4b 88 2c b5 c3 b7 e6 33 2d da 29 b5
       -1.3019482e-07 -6.4273326e-07 1.0743636e-07 -6.3274894e-07
000310 65 2b 8e 34 5c 02 a8 b3 53 47 97 b5 8b a0 9f b4
       2.6481135e-07 -7.823539e-08 -1.1271135e-06 -2.9732868e-07
000320 a5 9b bc 34 d1 e9 5f b5 5a 57 dd 34 94 ed d3 34
       3.5130975e-07 -8.341422e-07 4.1228014e-07 3.9474673e-07
000330 65 53 5a b4 00 4d 7f 35 50 57 e7 b3 72 79 a9 35
       -2.0333171e-07 9.510695e-07 -1.0772658e-07 1.2626826e-06
000340 41 9b 3f b5 67 60 22 b5 e3 85 62 33 d4 2e e8 b4
       -7.137897e-07 -6.0489987e-07 5.2741495e-08 -4.324744e-07
000350 3b 63 bc b5 ff 3c 06 35 fa 23 18 35 ad 21 6e 35
       -1.4035971e-06 5.000765e-07 5.6676765e-07 8.8710914e-07
000360 6e 16 8d 35 e3 86 4b b5 fc 5f 05 b5 12 f7 3b b5
       1.0511847e-06 -7.581968e-07 -4.9686037e-07 -7.0022463e-07
000370 c6 c0 a8 b2 4d 0e 14 35 3d 0a ad 35 b4 c5 5e 35
       -1.9645437e-08 5.5155107e-07 1.2892484e-06 8.298914e-07
000380 98 5b 7f 35 61 18 63 33 c0 20 43 35 1f d1 7e 34
       9.512819e-07 5.287473e-08 7.269082e-07 2.3731671e-07
000390 ec 17 18 b5 34 f4 97 b4 24 c9 17 34 25 2f 91 b5
       -5.6659223e-07 -2.8303623e-07 1.4136145e-07 -1.0817063e-06
0003a0 46 2d dc 34 86 cc b0 b5 55 9c 32 35 97 5c 01 b5
       4.1011134e-07 -1.3172546e-06 6.653766e-07 -4.819098e-07
0003b0 5a 70 97 35 38 a5 86 35 99 f8 aa b4 39 34 43 35
       1.1283075e-06 1.0031863e-06 -3.1845846e-07 7.2719155e-07
0003c0 b8 3c d2 b4 9b 05 26 b5 37 e1 c6 34 f2 fe 54 35
       -3.9159727e-07 -6.1847976e-07 3.704424e-07 7.934715e-07
0003d0 79 96 c8 34 bd ec 82 b3 3e 07 b8 34 82 bf 4d b4
       3.7362386e-07 -6.096659e-08 3.427794e-07 -1.9161783e-07
0003e0 7b 18 82 33 9b 9a 2f 33 ee f2 49 b5 2f cd af 33
       6.05805e-08 4.0885975e-08 -7.5231844e-07 8.186395e-08
0003f0 af 15 2d 35 06 ac 7a b5 8c da 39 b5 21 ce 3c b5
       6.4479076e-07 -9.3382585e-07 -6.92359e-07 -7.0335415e-07
