lightning_logs/version_33479210/checkpoints/epoch=49-step=11950-v1.ckpt (torch, 142804 bytes, 15 tensors)

model.gru.weight_ih_l0 f4 [150, 22]
0.06313967 -0.11511287 0.058133453 0.22128484 -0.13503769 0.025222408 -0.14881724 -0.09334018
-0.18201956 0.09195456 -0.013792396 -0.09955699 0.03374913 0.006878642 -0.24490061 0.0022469074
0.081927136 -0.07271803 0.07036376 -0.13616647 0.12658122 -0.050356213 -0.019565184 0.030913368
0.0446259 0.038217753 0.111032605 0.109469086 0.017791763 -0.0880381 -0.095517755 0.046351213
-0.10253449 0.001994203 0.07125587 0.13509785 0.08291476 0.063692346 0.021504065 -0.043072365
0.014873197 0.10293716 0.029518912 0.04615531 0.038518034 0.13896759 0.10038305 -0.0052974606
0.14363769 0.0006375758 -0.0550865 -0.04166297 0.13222328 0.08510206 -0.024775175 0.034664564
-0.1465721 -0.15969433 -0.05241477 -0.1349727 0.11144937 -0.052118067 0.13081253 -0.09352567
-0.00053180894 -0.0039481116 0.2074863 -0.18110111 0.141161 0.13008326 0.10881818 0.09339013
0.028411003 0.07649516 -0.025096832 -0.018323429 0.039503943 0.20991865 -0.047160365 0.080384806
-0.053814102 0.01129212 0.067882985 0.0076604136 -0.13028726 -0.24841078 -0.042416606 0.09966475
-0.08891796 0.1892858 -0.10748065 0.06620103 0.12936799 -0.0059212144 -0.10855708 0.17926413
0.17215198 0.11757533 -0.041742463 -0.0012352847 0.0044392063 -0.09652728 -0.10256815 -0.18244514
-0.081634805 -0.056955338 0.124272354 0.12490361 -0.057579845 -0.06882017 0.057293266 0.06016181
-0.061456937 -0.2074273 0.1474548 -0.15388261 -0.024294788 0.06620732 -0.09467491 -0.037016846
-0.0016196155 0.088906944 0.04460472 -0.063029215 0.014028223 -0.1335391 0.123952575 0.047522526
-0.033727065 -0.029598897 0.047796585 -0.07696195 -0.031213742 0.058993757 -0.15648778 0.032297235
0.010874571 -0.059387423 0.14824577 0.16579816 -0.029373627 -0.12238058 0.019716095 -0.036333926
0.1321448 -0.025757851 0.048587713 0.085196614 0.035390373 0.039213262 -0.08122201 0.13652568
0.08662425 0.14321402 -0.089412734 0.05820995 0.07729921 -0.17577983 0.033232834 0.1084021
-0.22580719 -0.07380346 0.0550964 0.0506219 0.022076722 0.26702446 -0.023700003 -0.09052345
0.091178924 0.016271433 -0.10555338 -0.11400333 0.15297846 -0.063235715 -0.09103887 -0.30089548
-0.06494934 -0.10941508 0.063464165 -0.22813241 -0.19097997 0.128365 0.15849128 0.17261617
-0.0927367 -0.044870123 0.21917623 -0.15886612 0.13387845 -0.14631484 -0.011918859 -0.16612096
0.045452446 -0.038507454 -0.18832022 -0.09121328 -0.09640748 -0.087234676 0.006538963 -0.034895897
0.018446112 0.1742701 0.18755947 0.05325834 0.0963341 0.23597337 0.043613512 0.18679763
-0.16228662 -0.00020373236 0.026136206 -0.0031635263 -0.0459263 0.048273906 0.13609459 0.043976508
-0.13089624 -0.13472919 0.10139868 0.040998336 0.011159217 -0.07523098 -0.0151267415 -0.07376593
-0.060865812 0.012726998 -0.084671214 -0.01912643 0.06728725 -0.06697999 0.013412104 0.22430561
0.17212796 -0.093738824 -0.008042637 -0.057547737 -0.101507 -0.13052863 -0.18709122 0.007671758
0.015928391 0.06715564 0.07230236 0.050138313 0.06588059 -0.2280803 0.091047525 0.0032613776
-0.082958095 -0.09262649 -0.085000314 -0.14442956 -0.06435284 0.17087983 -0.08026371 -0.1925247
00000000: 5f4f 813d 4cc0 ebbd 581d 6e3d 7e98 623e
00000010: 5247 0abe 399f ce3c 8c63 18be 2329 bfbd
00000020: 5663 3abe ac52 bc3d 80f9 61bc 89e4 cbbd
00000030: 873c 0a3d 3b66 e13b 3ac7 7abe da40 133b
00000040: 6ac9 a73d 31ed 94bd e01a 903d 396f 0bbe
00000050: 829e 013e 5142 4ebd 2a47 a0bc 083e fd3c
00000060: a6c9 363d 388a 1c3d 1065 e33d 5431 e03d
00000070: 08c0 913c 524d b4bd d09e c3bd c5da 3d3d
00000080: 9afd d1bd 2db1 023b 99ee 913d 1757 0a3e
00000090: 37cf a93d 2271 823d 4b29 b03c a66c 30bd
000000a0: b6ae 733c b8d0 d23d a5d1 f13c 5a0d 3d3d
000000b0: 16c5 1d3d 854d 0e3e a195 cd3d 5296 adbb
000000c0: c215 133e fd22 273a 62a2 61bd caa6 2abd
000000d0: 8a65 073e fd49 ae3d 4ff5 cabc 6efc 0d3d
000000e0: ff16 16be e986 23be dfb0 56bd 4936 0abe
000000f0: 913f e43d c179 55bd b8f3 053e 638a bfbd
00000100: 1869 0bba 295f 81bb 4a77 543e 9272 39be
00000110: 828c 103e 8c34 053e 11dc de3d 5343 bf3d
00000120: 31be e83c 7fa9 9c3d df97 cdbc 041b 96bc
00000130: e3ce 213d eaf4 563e 3a2b 41bd caa0 a43d
00000140: 2d6c 5cbd 9602 393c 3c06 8b3d 3504 fb3b
00000150: 066a 05be 655f 7ebe 09bd 2dbd 081d cc3d
00000160: 9f1a b6bd 23d4 413e d11e dcbd 6894 873d
00000170: 0b79 043e bf06 c2bb 2d53 debd 0491 373e
00000180: 9c48 303e 56cb f03d 25fa 2abd 47e9 a1ba
00000190: c376 913b 18b0 c5bd 400f d2bd e6d2 3abe
000001a0: 2630 a7bd 004a 69bd 8182 fe3d 77cd ff3d
000001b0: d8d8 6bbd 97f1 8cbd 58ac 6a3d 3b6c 763d
000001c0: 45ba 7bbd d267 54be 64fe 163e 6793 1dbe
000001d0: dd05 c7bc b497 873d ebe4 c1bd fa9e 17bd
000001e0: 4749 d4ba d814 b63d 70b3 363d 7615 81bd
000001f0: a2d6 653c 79be 08be d9da fd3d fba6 423d
00000200: 6425 0abd 6379 f2bc 5ac6 433d 3a9e 9dbd
00000210: f6b3 ffbc 70a3 713d 553e 20be 1b4a 043d
00000220: 422b 323c 3a40 73bd bdcd 173e fec6 293e
00000230: f6a0 f0bc aba2 fabd a683 a13c e2d2 14bd
00000240: f750 073e 2102 d3bc e903 473d 907b ae3d
00000250: 7ff5 103d 169e 203d ba57 a6bd 63cd 0b3e
00000260: 0e68 b13d b2a6 123e 061e b7bd 8e6d 6e3d
00000270: 0c4f 9e3d a1ff 33be 271f 083d ec01 de3d
00000280: 003a 67be 4526 97bd c3ac 613d e958 4f3d
00000290: 3eda b43c 6eb7 883e 8226 c2bc 5c64 b9bd
000002a0: 04bc ba3d ab4b 853c 5f2c d8bd 947a e9bd
000002b0: 63a6 1c3e ba81 81bd 9672 babd f90e 9abe
000002c0: 2904 85bd 0315 e0bd 80f9 813d 8b9b 69be
000002d0: 4190 43be 1d72 033e 8a4b 223e 4bc2 303e
000002e0: bdec bdbd bcc9 37bd bc6f 603e cdad 22be
000002f0: 6f17 093e 8fd3 15be 5147 43bc 9d1b 2abe
00000300: 582c 3a3d feb9 1dbd 04d7 40be 07ce babd
00000310: 4971 c5bd 18a8 b2bd cc44 d63b 00ef 0ebd
00000320: 4d1c 973c dc73 323e 970f 403e 6b25 5a3d
00000330: d04a c53d 01a3 713e 15a4 323d e147 3f3e
00000340: 772e 26be fda0 55b9 991b d63c 2a53 4fbb
00000350: 371d 3cbd dcba 453d 615c 0b3e b620 343d
00000360: aa09 06be 73f6 09be 1caa cf3d dfed 273d
00000370: 26d5 363c b312 9abd 27d6 77bc 9812 97bd
00000380: 6e4e 79bd e684 503c 1a68 adbd 08af 9cbc
00000390: e6cd 893d ce2c 89bd 71be 5b3c 5fb0 653e
000003a0: 5042 303e 24fa bfbd 44c5 03bc 2db7 6bbd
000003b0: e7e2 cfbd 4ca9 05be d794 3fbe 5f63 fb3b
000003c0: 427c 823c e588 893d 4213 943d d55d 4d3d
000003d0: 67ec 863d e28d 69be 2077 ba3d d6bc 553b
000003e0: efe5 a9bd f5b2 bdbd a514 aebd 58e5 13be
000003f0: 6ccb 83bd 1ffb 2e3e 4d61 a4bd 3225 45be

model.gru.weight_hh_l0 f4 [150, 50]
0.4317468 0.0072149476 0.06599685 0.10383743 -0.00012132068 0.10776748 0.11374596 -0.08737
0.089244336 -0.0324746 0.20311697 0.10705243 -0.09386103 0.23585904 -0.09628763 -0.08522218
-0.103142686 0.049765725 0.1304177 0.10721054 -0.06574587 -0.1923799 0.1393214 0.10530796
0.08026573 -0.076549955 0.12658313 -0.17881894 0.07360745 0.16177307 -0.0037869897 0.17250493
0.27890852 -0.06709184 0.10111756 0.061363198 -0.00068421534 0.0066636703 -0.14536092 0.14432338
0.25676468 0.14701125 0.097830005 -0.045619797 -0.25404835 0.008651538 0.09106673 0.022913238
-0.010270314 -0.012572803 0.022202587 0.08407235 0.11187364 -0.14256965 0.15446255 0.04279991
-0.010630099 -0.0050731194 -0.06457456 -0.05941568 0.12691355 -0.028373277 -0.09108468 -0.123581044
0.04732944 -0.092187725 0.07311971 0.058495875 -0.14445847 0.02199935 -0.020962356 -0.019045873
-0.040332522 0.12927586 0.025925083 -0.01136475 0.0055484017 -0.10750294 0.049654134 0.024856223
0.03771694 -0.07583784 -0.09391116 0.0019170232 -0.07712656 -0.04524379 -0.08720423 -0.026198257
-0.06460517 0.08573695 0.12095175 -0.068483256 -0.016571276 -0.024942113 -0.13113107 0.1103663
-0.03165696 -0.024500893 -0.1367389 -0.14101636 0.2029835 0.15928185 0.17833088 0.13162546
-0.08713937 0.19556713 0.102760635 0.031043429 -0.024813108 -0.063204415 0.1779728 -0.031089742
0.109476075 0.1330218 0.04224177 0.08810445 0.0057119904 0.12360136 -0.092332736 0.081813686
-0.205155 -0.009232994 0.08941453 -0.11721693 -0.14987229 0.019787392 0.030091822 0.102883436
0.09464119 0.1778674 -0.019851804 0.12394032 -0.08235546 -0.037299953 0.11774447 -0.10531603
0.12184882 -0.0017101266 -0.07701012 0.090817004 0.19360608 -0.11158798 -0.0707207 0.08361702
-0.013104177 -0.0751742 0.11241591 0.05384515 -0.07127845 -0.11236432 -0.01660492 0.19760641
-0.21169128 0.009009019 0.15960999 0.09324652 -0.06693852 0.13387588 0.03848446 0.013215545
-0.055591144 0.0317822 0.049487613 -0.15061143 -0.1473231 0.033407293 -0.09781123 -0.13378951
-0.030086197 0.11754673 -0.08654505 -0.20030138 0.13158228 0.07914354 0.16708934 -0.013868402
-0.06876015 -0.04188572 0.033800595 -0.16318686 -0.043898415 0.035183497 0.2519589 0.17564206
0.031392876 0.009203512 0.037136618 -0.08462355 0.040499695 0.24596384 -0.103677236 0.038903646
-0.017236793 0.07061981 -0.13960285 -0.21690524 -0.04159485 -0.0971547 -0.15601611 0.123598754
0.15156458 -0.051011793 0.19638653 -0.09897801 0.041154962 -0.11124993 -0.118524365 0.16871068
0.025036886 0.15047644 0.16094622 0.12520619 -0.08569603 0.15429166 0.01772311 -0.119625255
-0.11694262 -0.08527674 -0.084039316 0.13753983 0.07464479 0.013549839 0.02795474 0.018126765
-0.14925578 -0.018418483 -0.07601522 -0.021962943 -0.028239973 0.15159227 -0.00025659468 0.0817861
0.10745884 0.020006645 0.0023528 -0.12008984 0.01585681 0.03082951 -0.05008288 -0.05248296
0.057650506 -0.0037015188 -0.035812262 0.068603285 0.042625498 -0.061604142 0.072006516 0.11264637
0.13642025 -0.04621747 0.01789658 -0.010801568 -0.25546566 0.07218165 -0.020726413 -0.06024586
00000000: eb0d dd3e 5e6b ec3b 5b29 873d b8a8 d43d
00000010: 8b6d feb8 32b5 dc3d a4f3 e83d 0bef b2bd
00000020: bcc5 b63d 1604 05bd e5fd 4f3e 4e3e db3d
00000030: 363a c0bd 0885 713e 7332 c5bd f788 aebd
00000040: 793c d3bd 25d7 4b3d 388c 053e 3391 db3d
00000050: c5a5 86bd 3dff 44be 45aa 0e3e b3ab d73d
00000060: 5c62 a43d 39c6 9cbd 029f 013e 501c 37be
00000070: 81bf 963d d7a7 253e 252f 78bb 22a5 303e
00000080: 19cd 8e3e 7267 89bd b916 cf3d fa57 7b3d
00000090: ea5c 33ba eb5a da3b 7ed9 14be 82c9 133e
000000a0: a976 833e 1e8a 163e 195b c83d d3db 3abd
000000b0: a012 82be 2ebf 0d3c 3281 ba3d 8bb4 bb3c
000000c0: d244 28bc 28fe 4dbc 33e2 b53c 202e ac3d
000000d0: 021e e53d c7fd 11be 6e2b 1e3e f54e 2f3d
000000e0: de29 2ebc 693c a6bb ab3f 84bd db5d 73bd
000000f0: a0f5 013e 136f e8bc 9b8a babd 0f18 fdbd
00000100: 84dc 413d ebcc bcbd c9bf 953d 5f99 6f3d
00000110: ecec 13be fb37 b43c 3fb9 abbc 1706 9cbc
00000120: b733 25bd e460 043e d760 d43c 3733 3abc
00000130: 5ecf b53b 802a dcbd 2262 4b3d 479f cb3c
00000140: 147d 1a3d df50 9bbd 7f54 c0bd a044 fb3a
00000150: 88f4 9dbd 8d51 39bd 2298 b2bd ba9d d6bc
00000160: b74f 84bd db96 af3d 8db5 f73d f340 8cbd
00000170: 7cc0 87bc 6753 ccbc 3947 06be ba07 e23d
00000180: baaa 01bd 19b6 c8bc 4805 0cbe 9866 10be
00000190: e8da 4f3e c81a 233e 5f9c 363e d3c8 063e
000001a0: 2076 b2bd c042 483e 2b74 d23d ca4e fe3c
000001b0: dc44 cbbc 5171 81bd 803e 363e eaaf febc
000001c0: fe34 e03d de36 083e b505 2d3d 1b70 b43d
000001d0: a62b bb3b b622 fd3d f218 bdbd ef8d a73d
000001e0: 2714 52be fc45 17bc f71e b73d 6e0f f0bd
000001f0: 1f78 19be 2b19 a23c 2083 f63c 8db4 d23d
00000200: 3dd3 c13d df22 363e 40a0 a2bc 6cd4 fd3d
00000210: fba9 a8bd d6c7 18bd 0324 f13d eeaf d7bd
00000220: e08b f93d 5426 e0ba 7bb7 9dbd 44fe b93d
00000230: ac40 463e 3d88 e4bd 04d6 90bd 663f ab3d
00000240: e7b2 56bc eef4 99bd 503a e63d bb8c 5c3d
00000250: 70fa 91bd 441f e6bd 0b07 88bc 5659 4a3e
00000260: 99c5 58be 909a 133c cd70 233e 08f8 be3d
00000270: 1017 89bd c216 093e e2a1 1d3d 0386 583c
00000280: 8ab3 63bd 0d2e 023d 86b3 4a3d e239 1abe
00000290: dedb 16be 16d6 083d 4151 c8bd 1e00 09be
000002a0: 5477 f6bc 57bc f03d 883e b1bd ce1b 4dbe
000002b0: 81bd 063e 0216 a23d 7819 2b3e 4b38 63bc
000002c0: 1fd2 8cbd 5c90 2bbd 7e72 0a3d 751a 27be
000002d0: d3ce 33bd 921c 103d c200 813e 83db 333e
000002e0: d195 003d 54ca 163c 911c 183d 1d4f adbd
000002f0: 02e3 253d f2dd 7b3e bb54 d4bd 6e59 1f3d
00000300: 2d34 8dbc 1ea1 903d 0df4 0ebe 681c 5ebe
00000310: 5d5f 2abd 0bf9 c6bd b0c2 1fbe 5821 fd3d
00000320: bf33 1b3e bef1 50bd 8d19 493e fcb4 cabd
00000330: 1b92 283d 01d7 e3bd e7bc f2bd 7ec2 2c3e
00000340: 281a cd3c 7f16 1a3e 16cf 243e 0d36 003e
00000350: 6681 afbd a2fe 1d3e 0e30 913c 16fe f4bd
00000360: 9d7f efbd 92a5 aebd ce1c acbd 3ed7 0c3e
00000370: 5edf 983d 2500 5e3c 5701 e53c 957e 943c
00000380: 82d6 18be 5ce2 96bc dead 9bbd a1eb b3bc
00000390: 8457 e7bc 013b 1b3e 8e87 86b9 797f a73d
000003a0: 6113 dc3d fae4 a33c 6f31 1a3b a9f1 f5bd
000003b0: 24e6 813c 2b8e fc3c b523 4dbd 5ff8 56bd
000003c0: f022 6c3d 2e95 72bb e1af 12bd e17f 8c3d
000003d0: 1398 2e3d a054 7cbd 2778 933d 24b3 e63d
000003e0: c0b1 0b3e 884e 3dbd d99b 923c 0ff9 30bc
000003f0: 65cc 82be f9d3 933d 70ca a9bc 5dc4 76bd

model.gru.bias_ih_l0 f4 [150]
-0.025262665 0.055851493 0.12975438 0.067723244 -0.003126382 0.16437526 0.02499051 0.11752034
0.101115294 -0.11421372 -0.10185794 -0.012590402 0.09673292 0.06300746 0.07639742 -0.08021217
-0.008535234 0.16895089 0.07724157 -0.09962319 0.1650895 0.18470755 0.13643935 0.21519169
-0.06997428 0.0068218866 -0.07395748 0.14608075 0.14978829 0.081716396 -0.23561305 0.08515185
0.17898795 0.10949738 0.13167545 -0.16526088 -0.14221314 0.032507747 -0.008656791 0.0022872514
0.19564924 0.2369818 0.06913271 -0.11990811 0.0989375 0.16690901 0.06120921 -0.18849778
-0.15523304 -0.12019156 0.24969965 0.70746475 0.32774106 0.30814448 0.13541487 0.026570367
0.17548901 0.04975216 0.010137483 0.30956006 0.016808389 0.19140561 0.30637047 0.02504053
0.09537721 0.20239177 0.16017188 0.10760005 0.08929983 0.16853957 0.15063404 0.18849783
0.16946292 0.26814365 0.09884958 0.20052211 0.10661709 0.08116156 0.24871217 0.1995215
0.12409764 0.1752281 0.02147198 -0.007843679 0.302705 0.08319623 0.043884594 0.19012249
0.15379465 0.01892227 0.06274126 0.19330949 0.042087488 0.00667481 0.09099872 0.14158952
0.31157982 0.12521061 0.1710812 0.338239 0.11993516 0.17488536 0.008646403 0.055713657
0.0062493253 0.0010294624 -0.07257793 0.06913439 -0.013846682 0.03613804 0.006654648 0.07012768
0.0020590443 0.13526167 -0.010341635 0.128351 0.02479411 0.0074924044 -0.056005713 0.12555884
0.089512184 -0.022242967 0.021844607 0.03631102 -0.01701905 -0.039326936 -0.06499294 -0.03731475
0.0048193405 -0.032771673 -0.15739124 0.063749336 0.07230104 -0.07966505 -0.017177986 0.018389087
0.18146046 0.027761359 -0.035167903 -0.01591789 0.030815179 0.00036006793 -0.006438147 0.03394344
-0.025771063 -0.06928435 0.050204325 0.0013229672 -0.11340732 -0.034582388
00000000: a6f3 cebc 89c4 643d 55de 043e 7cb2 8a3d
00000010: fce3 4cbb fd51 283e e6b8 cc3c 81ae f03d
00000020: 8915 cf3d e2e8 e9bd e59a d0bd f947 4ebc
00000030: e91b c63d 0e0a 813d 4076 9c3d 4746 a4bd
00000040: 5ed7 0bbc 7601 2d3e d430 9e3d 3e07 ccbd
00000050: 390d 293e fa23 3d3e c2b6 0b3e 365b 5c3e
00000060: ad4e 8fbd 228a df3b 0577 97bd 3196 153e
00000070: 1a62 193e ed5a a73d 8c44 71be 1864 ae3d
00000080: 9e48 373e 2a40 e03d eed5 063e 263a 29be
00000090: 52a0 11be d826 053d 37d5 0dbc b6e5 153b
000000a0: 4658 483e 5bab 723e 7395 8d3d 6292 f5bd
000000b0: be9f ca3d 32ea 2a3e 82b6 7a3d 9005 41be
000000c0: 69f5 1ebe fe26 f6bd 44b1 7f3e 691c 353f
000000d0: adcd a73e 1dc5 9d3e 32aa 0a3e 19aa d93c
000000e0: 64b3 333e ecc8 4b3d af17 263c a87e 9e3e
000000f0: bfb1 893c d5ff 433e 97dc 9c3e cc21 cd3c
00000100: 2055 c33d ca3f 4f3e 1904 243e 6a5d dc3d
00000110: d4e2 b63d a395 2c3e cf3f 1a3e 9305 413e
00000120: b087 2d3e 204a 893e a671 ca3d ab55 4d3e
00000130: 105a da3d 0838 a63d 67ae 7e3e 5d4f 4c3e
00000140: e726 fe3d ff6e 333e 01e6 af3c c682 00bc
00000150: 26fc 9a3e c962 aa3d 55c0 333d 78af 423e
00000160: 587c 1d3e e002 9b3c 7d7e 803d ecf2 453e
00000170: ee63 2c3d 5db8 da3b 895d ba3d d8fc 103e
00000180: 6487 9f3e 3637 003e e92f 2f3e aa2d ad3e
00000190: 91a0 f53d 2615 333e a5a9 0d3c 0134 643d
000001a0: 24c7 cc3b 07ef 863a bda3 94bd 5596 8d3d
000001b0: 32dd 62bc 7b05 143d 3c0f da3b 1a9f 8f3d
000001c0: 08f1 063b 0982 0a3e f66f 29bc 726e 033e
000001d0: 041d cb3c d882 f53b 3f66 65bd 7f92 003e
000001e0: 2a52 b73d e236 b6bc 76f3 b23c ddba 143d
000001f0: 896b 8bbc 4815 21bd 051b 85bd 5ad7 18bd
00000200: 8feb 9d3b 973b 06bd 2b2b 21be 038f 823d
00000210: 9112 943d 6e27 a3bd d9b8 8cbc b6a4 963c
00000220: c5d0 393e ca6b e33c 380c 10bd 3c66 82bc
00000230: 1d70 fc3c 80c7 bc39 17f7 d2bb 4708 0b3d
00000240: d61d d3bc f4e4 8dbd 0da3 4d3d 6a67 ad3a
00000250: 1942 e8bd 43a6 0dbd

model.gru.bias_hh_l0 f4 [150]
-0.017026916 -0.07814928 0.12664643 -0.020662362 0.19957387 0.26924202 0.15619008 -0.05026331
0.03415472 -0.08642731 0.08049493 0.025749004 -0.051196918 -0.018574808 -0.05693629 0.10443056
-0.124882266 0.11603164 0.030702343 -0.19552217 0.11455626 -0.040640175 0.11875315 0.24625732
0.07319224 -0.03437172 0.14712377 0.13677864 0.034708858 -0.033689503 -0.29281452 0.007032584
0.15896343 0.14165407 -0.100179784 -0.09315027 0.053571492 0.14596556 0.061380763 0.03536881
0.11716623 0.10513808 -0.091005675 -0.09027395 -0.009670424 0.2365803 0.11341543 -0.002347033
-0.109034896 -0.09902683 0.1795217 0.57198274 0.14619432 0.16843101 0.026338607 -0.04282852
0.21046492 0.109897904 0.08497819 0.18543403 -0.048336487 0.24214663 0.094284445 0.17108583
0.27478534 0.21812674 0.18776597 0.09956025 0.0040919892 0.15227403 0.119394 0.044116806
0.3099159 0.39326882 0.059341658 0.32053342 0.1052568 -0.025295764 0.12606026 0.14229982
-0.0044504544 0.114436015 0.06259829 0.07007011 0.3173123 0.26518494 0.029004704 0.26900285
0.12777205 0.19615965 0.060881548 0.17317335 0.066442326 0.109550506 0.2357648 0.28211066
0.1629953 0.15867725 0.21724033 0.08230528 -0.13899635 0.077527076 -0.034272965 -0.0019398581
-0.022768967 0.0056061107 0.12761666 0.04420736 0.002766454 -0.122325115 -0.026932009 0.05319393
0.028813 -0.12495379 -0.08057353 -0.11852262 -0.052283138 0.03858785 0.1419088 0.089993425
0.005808387 0.06630608 0.06102239 0.11542413 0.022002818 0.06695721 0.053918157 0.006818078
0.069876246 0.15231735 -0.040034145 0.09877646 -0.06248409 0.16347192 0.058601733 -0.049991477
0.04256472 -0.081112035 0.0948375 0.1095374 0.06041309 0.030371174 -0.019966932 -0.036498446
-0.05157576 -0.061630778 -0.07470752 -0.006503707 -0.09822699 0.14670396
00000000: 087c 8bbc bb0c a0bd 9aaf 013e 1d44 a9bc
00000010: 185d 4c3e 17da 893e 4bf0 1f3e e7e0 4dbd
00000020: d2e5 0b3d cd00 b1bd 87da a43d 93ef d23c
00000030: dcb3 51bd 322a 98bc 0736 69bd b0df d53d
00000040: 46c2 ffbd ffa1 ed3d 7b83 fb3c f736 48be
00000050: 799c ea3d 5076 26bd da34 f33d e12a 7c3e
00000060: d0e5 953d 5cc9 0cbd 9da7 163e b30f 0c3e
00000070: e02a 0e3d 01fe 09bd c9eb 95be 9771 e63b
00000080: 4fc7 223e c40d 113e 0f2b cdbd 92c5 bebd
00000090: c86d 5b3d ff77 153e 656a 7b3d e3de 103d
000000a0: d9f4 ef3d a252 d73d 2f61 babd 8ce1 b8bd
000000b0: b370 1ebc 1b42 723e 5946 e83d aed0 19bb
000000c0: b04d dfbd 94ce cabd 89d4 373e 766d 123f
000000d0: f7b3 153e 2e79 2c3e 10c4 d73c f56c 2fbd
000000e0: 1e84 573e 2712 e13d 0c09 ae3d 6be2 3d3e
000000f0: 7bfc 45bd 49f5 773e 3418 c13d 2031 2f3e
00000100: aab0 8c3e 9e5c 5f3e b945 403e 3fe6 cb3d
00000110: 1816 863b b9ed 1b3e d784 f43d d3b3 343d
00000120: 4cad 9e3e 885a c93e 3d10 733d f51c a43e
00000130: e190 d73d 1039 cfbc f115 013e 0bb7 113e
00000140: 1ed5 91bb 6e5d ea3d 8833 803d eb80 8f3d
00000150: c276 a23e 52c6 873e 469b ed3c beba 893e
00000160: add6 023e 13de 483e ee5e 793d 5b54 313e
00000170: ea12 883d 045c e03d 546c 713e cf70 903e
00000180: 3de8 263e 4a7c 223e 4074 5e3e ac8f a83d
00000190: 0f55 0ebe 84c6 9e3d cf61 0cbd d642 feba
000001a0: fc85 babc 77b3 b73b f1ad 023e c712 353d
000001b0: 654d 353b 9785 fabd 84a0 dcbc e1e1 593d
000001c0: 3e09 ec3c c6e7 ffbd bc03 a5bd fdbb f2bd
000001d0: d826 56bd 4b0e 1e3d 8a50 113e 794e b83d
000001e0: 4854 be3b 7bcb 873d 9df2 793d 7c63 ec3d
000001f0: 413f b43c dd20 893d 49d9 5c3d 2f6a df3b
00000200: 471b 8f3d 14f9 1b3e d8fa 23bd 504b ca3d
00000210: 51ef 7fbd 2f65 273e 5f08 703d ddc3 4cbd
00000220: 5858 2e3d 111e a6bd 2a3a c23d 2555 e03d
00000230: b773 773d f8cc f83c b191 a3bc 657f 15bd
00000240: 1b41 53bd 8e70 7cbd 4200 99bd 0c1d d5bb
00000250: 3b2b c9bd 9039 163e

model.fc.weight f4 [1, 50]
0.0034754807 -0.08544365 -9.475749e-05 -0.008958918 0.0029257631 -0.008821623 0.0005552956 -0.010301158
-0.0001446532 0.011148312 0.0037191263 -0.011144675 -0.012469838 -0.008217367 0.0026247648 -0.014724558
-0.0035032798 0.00063481915 -0.0027856098 -0.042976085 -0.0072433567 0.0013334273 -0.0051195696 -0.011782933
-0.0022187417 0.0020000194 0.0032330763 0.0029296668 -0.008244527 -0.018917346 0.03856635 -0.010433041
0.002922255 -0.008368013 -0.005448307 -0.005348223 -0.058318317 -0.0021938405 0.0019728534 -0.008294466
-0.007137763 -0.0058434 -0.005739317 -0.003429593 0.00077918725 0.013921514 -0.0014112478 -0.007972628
0.056517884 -0.0090671
00000000: e4c4 633b 15fd aebd 8ab8 c6b8 6dc8 12bc
00000010: 29be 3f3b 9288 10bc 4291 113a 30c6 28bc
00000020: 0cae 17b9 69a7 363c 96bc 733b 2898 36bc
00000030: 4b4e 4cbc 23a2 06bc 3f04 2c3b 463f 71bc
00000040: 4897 65bb fe69 263a c78e 36bb b107 30bd
00000050: ae59 edbb 65c6 ae3a 10c2 a7bb 340d 41bc
00000060: 4f68 11bb c212 033b 05e2 533b a7ff 3f3b
00000070: 0d14 07bc 8df8 9abc c0f7 1d3d 58ef 2abc
00000080: 4e83 3f3b fe19 09bc b687 b2bb 2540 afbb
00000090: 30df 6ebd 89c6 0fbb fd4a 013b 83e5 07bc
000000a0: e5e3 e9bb fe79 bfbb e110 bcbb 06c3 60bb
000000b0: 5f42 4c3a 1017 643c 9ef9 b8ba a09f 02bc
000000c0: 4c7f 673d 2c8e 14bc

exp_avg f4 [150, 22]
-1.4860589e-05 3.9471606e-06 -1.520982e-05 -1.3750848e-05 4.34892e-06 9.448339e-06 3.8929516e-06 2.7876275e-05
-4.9638343e-06 2.5456922e-05 -9.032913e-06 3.0838376e-07 -1.0041624e-05 4.075226e-06 -3.183548e-06 1.2314471e-06
0.0 1.7948445e-05 2.7363976e-06 -2.8908872e-07 0.0 1.2316416e-05 9.761639e-05 -4.6931753e-05
-7.9667894e-05 -0.00010722588 8.298629e-05 -0.00012302688 1.5408737e-05 -0.00018333225 -3.277863e-05 -0.00020328497
5.90754e-05 -4.598714e-05 -9.24381e-06 -2.8485543e-05 9.836739e-05 3.2622054e-05 0.0 -8.122191e-05
3.5188626e-05 -6.455443e-05 0.0 -2.3841145e-05 -1.0737579e-06 -7.097392e-07 -4.7710773e-07 2.942311e-07
1.2707596e-06 2.187021e-06 -1.9990182e-06 -7.949454e-07 -5.198794e-06 -1.372129e-06 2.5134732e-06 2.8463094e-06
-2.937073e-06 -3.3854386e-07 -7.2532646e-07 -9.265497e-08 0.0 -2.5101006e-06 -3.5198375e-06 7.102274e-07
0.0 -6.3928006e-08 3.5221708e-06 -5.088672e-07 3.9346214e-06 2.7936687e-06 -4.1847753e-07 -3.292489e-06
-1.4191002e-06 -1.2835268e-05 -2.8636243e-06 -2.121036e-06 8.439637e-06 -3.2082464e-06 -1.8330711e-06 -2.3290531e-06
3.8718613e-06 -2.0879816e-06 0.0 -2.4802123e-06 -1.1245027e-06 1.2157727e-07 0.0 -4.6951977e-06
-2.8740578e-06 2.3226776e-06 -2.5469944e-06 -9.859303e-07 1.6980193e-06 7.700267e-06 2.1855974e-06 2.6056948e-06
2.7406816e-07 3.8135468e-07 2.1840121e-07 7.909648e-06 8.304006e-08 9.576577e-07 -1.9141526e-06 1.3312008e-06
0.0 -7.312784e-07 -3.7743707e-06 1.7788752e-06 0.0 4.840803e-06 -1.7980857e-06 3.7325053e-06
2.2782651e-06 2.946876e-07 -1.7489269e-06 3.5713717e-06 -3.4458753e-07 2.0923753e-05 1.9063262e-05 -6.353482e-06
-1.23556265e-05 7.5266885e-06 8.397095e-08 2.3784597e-07 -2.549822e-06 6.520621e-06 0.0 5.6407134e-07
6.0800835e-07 -2.5348277e-06 0.0 5.534751e-06 2.9049602e-06 -5.6374374e-06 5.9197337e-06 1.854325e-06
6.4712276e-07 -8.153648e-06 -4.913469e-07 -8.431218e-06 1.895807e-06 -1.1656278e-05 6.4316705e-06 -3.839599e-06
-4.6220866e-06 -7.877957e-07 7.5843213e-06 -2.4817205e-06 0.0 -6.6942553e-06 -4.685952e-06 -1.6093563e-06
0.0 2.5654872e-06 9.085915e-06 -2.1538674e-06 3.904409e-06 4.844958e-06 3.440845e-06 -1.1927025e-05
-8.745913e-07 -1.9523259e-05 -3.571958e-06 -7.3797974e-06 1.1005895e-05 -9.9678255e-06 -2.2983975e-06 -1.3058315e-06
7.4055088e-06 -5.8848223e-06 0.0 -2.6456676e-06 2.1255794e-06 4.2465554e-06 0.0 1.9674567e-06
7.294259e-07 -9.175437e-07 1.944007e-06 1.2779674e-06 5.944219e-07 7.600366e-07 -6.7752836e-07 1.107948e-06
7.520864e-07 -4.35462e-07 -1.5576965e-06 9.752462e-07 9.522751e-07 7.4108135e-07 1.3119836e-06 1.1724194e-06
0.0 -5.329495e-07 2.2192753e-08 4.1464156e-07 0.0 1.0532063e-06 -1.5090487e-05 -1.4966411e-05
1.6637498e-05 3.227382e-06 -1.8821536e-05 -8.087319e-06 -1.5057963e-05 -5.2402484e-06 1.6261036e-05 3.9015018e-07
-2.1733063e-05 -8.752361e-06 8.76506e-07 3.3664885e-06 -5.2361343e-06 7.642689e-06 0.0 1.1233501e-06
1.4286724e-05 -4.726909e-06 0.0 -1.26335935e-05 -4.067979e-07 1.202702e-06 -1.4605952e-06 -2.8123334e-06
-5.170318e-07 -1.3406135e-06 -2.1621837e-07 6.474454e-07 -2.0402333e-06 -6.23358e-07 1.6758769e-06 -1.2201355e-06
-6.4001347e-07 -4.266839e-07 4.818708e-08 1.2772605e-06 0.0 7.7950614e-07 -5.1445872e-06 2.1345842e-07
0.0 1.7254226e-06 6.653636e-06 -4.987128e-06 6.717247e-06 5.9105405e-06 -1.7465921e-06 -4.6275454e-06
-4.898306e-06 -3.195674e-05 -6.745887e-06 -5.1334864e-06 5.5909604e-06 -4.31224e-06 -1.8562982e-06 -8.6382227e-07
00000000: be51 79b7 da71 8436 ae2d 7fb7 71b3 66b7
00000010: f0ec 9136 4f84 1e37 33a0 8236 d8d7 e937
00000020: 038f a6b6 538c d537 118c 17b7 f18f a534
00000030: 7278 28b7 edbd 8836 f0a4 55b6 3348 a535
00000040: 0000 0000 fe8f 9637 f4a2 3736 0d34 9bb4
00000050: 0000 0000 9ba2 4e37 66b7 cc38 96d8 44b8
00000060: 6013 a7b8 75de e0b8 ed08 ae38 c700 01b9
00000070: 0342 8137 e03c 40b9 c97b 09b8 e528 55b9
00000080: bac7 7738 51e2 40b8 dd15 1bb7 3df4 eeb7
00000090: 974a ce38 aad3 0838 0000 0000 ae55 aab8
000000a0: 8097 1338 6561 87b8 0000 0000 78fe c7b7
000000b0: 0a1e 90b5 e884 3eb5 9812 00b5 d1f6 9d34
000000c0: f88e aa35 bcc4 1236 df26 06b6 3b64 55b5
000000d0: 4d71 aeb6 fe29 b8b5 24ad 2836 3903 3f36
000000e0: 881a 45b6 1dc1 b5b4 0eb4 42b5 9cf9 c6b3
000000f0: 0000 0000 3373 28b6 5936 6cb6 75a6 3e35
00000100: 0000 0000 cb48 89b3 6f5e 6c36 1699 08b5
00000110: 2406 8436 dd7a 3b36 1dab e0b4 88f4 5cb6
00000120: e977 beb5 0e57 57b7 b12c 40b6 1f57 0eb6
00000130: f797 0d37 414d 57b6 d807 f6b5 d44c 1cb6
00000140: 09eb 8136 401f 0cb6 0000 0000 b971 26b6
00000150: 9eed 96b5 e88a 0234 0000 0000 718b 9db6
00000160: f0df 40b6 4cdf 1b36 08ed 2ab6 4f54 84b5
00000170: 80e7 e335 6530 0137 47ac 1236 7fdd 2e36
00000180: a423 9334 fdbc cc34 ab81 6a34 aeb3 0437
00000190: c153 b233 de88 8035 e474 00b6 b6ab b235
000001a0: 0000 0000 124d 44b5 324b 7db6 b0c1 ee35
000001b0: 0000 0000 2e6e a236 c155 f1b5 f47b 7a36
000001c0: 4ce4 1836 8e35 9e34 acbc eab5 b3ab 6f36
000001d0: c0ff b8b4 6b85 af37 0bea 9f37 ff2f d5b6
000001e0: 034b 4fb7 c38d fc36 8553 b433 9a62 7f34
000001f0: 9c1d 2bb6 b5cb da36 0000 0000 b06a 1735
00000200: 0436 2335 021c 2ab6 0000 0000 26b7 b936
00000210: d6f2 4236 3829 bdb6 20a2 c636 1fe2 f835
00000220: f0b5 2d35 a7cb 08b7 1ae5 03b5 ce73 0db7
00000230: 6f73 fe35 558f 43b7 a1cf d736 e7d5 80b6
00000240: 6c17 9bb6 e978 53b5 d37c fe36 a28b 26b6
00000250: 0000 0000 379f e0b6 053c 9db6 1001 d8b5
00000260: 0000 0000 bc2a 2c36 b56f 1837 298b 10b6
00000270: 9e02 8336 df91 a236 44e9 6636 2f1a 48b7
00000280: 75c5 6ab5 e1c5 a3b7 c5b5 6fb6 fa9f f7b6
00000290: f6a5 3837 7c3b 27b7 2b3e 1ab6 0744 afb5
000002a0: d67c f836 3d76 c5b6 0000 0000 398c 31b6
000002b0: 2da5 0e36 a27d 8e36 0000 0000 a608 0436
000002c0: c4cd 4335 1f4d 76b5 c975 0236 a086 ab35
000002d0: 5d90 1f35 5105 4c35 65df 35b5 ceb4 9435
000002e0: fce2 4935 71c9 e9b4 0b12 d1b5 34e5 8235
000002f0: d99f 7f35 b9ee 4635 6a17 b035 065c 9d35
00000300: 0000 0000 0310 0fb5 61a2 be32 e79b de34
00000310: 0000 0000 e55b 8d35 262d 7db7 3f18 7bb7
00000320: c190 8b37 0096 5836 f1e2 9db7 c5ae 07b7
00000330: 75a1 7cb7 64d5 afb6 4f68 8837 d575 d134
00000340: 664f b6b7 1bd7 12b7 0949 6b35 d5eb 6136
00000350: 0db2 afb6 1939 0037 0000 0000 04c6 9635
00000360: 03b1 6f37 d79b 9eb6 0000 0000 dff4 53b7
00000370: e165 dab4 876c a135 ab09 c4b5 85bb 3cb6
00000380: 28ca 0ab5 21ef b3b5 a729 68b4 1ccc 2d35
00000390: f1ea 08b6 d654 27b5 b1ee e035 89c3 a3b5
000003a0: 64cd 2bb5 fd12 e5b4 41f6 4e33 566e ab35
000003b0: 0000 0000 413f 5135 ab9f acb6 0133 6534
000003c0: 0000 0000 1295 e735 4c42 df36 1a57 a7b6
000003d0: b664 e136 2853 c636 736c eab5 5046 9bb6
000003e0: 215c a4b6 4a09 06b8 ba5a e2b6 5040 acb6
000003f0: fc99 bb36 dcb1 90b6 ec25 f9b5 6ae1 67b5

exp_avg_sq f4 [150, 22]
2.8764886e-09 5.686432e-09 2.7316858e-09 2.833126e-09 3.2606708e-09 2.7226736e-08 2.302903e-09 6.985381e-09
2.1128865e-09 3.8609165e-09 2.3894065e-09 3.2422214e-08 2.3056743e-09 7.0819006e-10 2.4062614e-09 2.5891396e-09
0.0 1.4778054e-09 7.9898477e-10 8.0114804e-10 0.0 1.8245505e-09 1.0745066e-07 1.1556881e-07
1.0354288e-07 1.4122038e-07 1.0965907e-07 4.9919595e-07 6.265941e-08 1.5381505e-07 9.7746714e-08 3.534722e-07
1.208708e-07 3.143662e-07 7.440781e-08 1.780162e-08 1.2185068e-07 1.00090126e-07 0.0 4.524354e-08
2.1070537e-08 4.8078807e-08 0.0 4.5240963e-08 8.6990937e-10 9.820433e-10 8.256485e-10 6.0479893e-10
1.5573407e-09 6.5561037e-09 5.63574e-10 1.5951191e-09 1.367161e-09 1.0060447e-09 6.001325e-10 8.489042e-09
9.126578e-10 1.1353454e-10 1.6274178e-09 7.34513e-10 0.0 3.4523667e-10 2.0050359e-10 2.0565945e-10
0.0 3.4018005e-10 1.6763095e-09 2.789321e-09 3.110854e-09 1.5743101e-09 2.634529e-09 3.1484966e-08
2.2990376e-09 1.7108576e-08 2.2587239e-09 2.4671538e-09 2.8308236e-09 3.558729e-08 2.1694502e-09 4.133202e-10
3.2046004e-09 1.5772448e-09 0.0 1.433981e-09 6.559404e-10 5.943188e-10 0.0 7.903488e-10
3.7390013e-10 6.2470906e-10 2.2635278e-10 1.6274056e-10 3.7289752e-10 4.59186e-10 2.8322492e-10 4.5842333e-10
3.1685388e-10 3.5424255e-10 2.2833739e-10 4.5998902e-10 3.1901165e-10 2.9566113e-10 5.270796e-10 2.1588324e-10
0.0 1.7517421e-10 1.4173888e-10 1.1247784e-10 0.0 1.373365e-10 6.485731e-10 9.394058e-10
5.1362026e-10 4.31068e-10 6.677027e-10 3.0583582e-09 4.901993e-10 1.888141e-09 1.5569842e-09 7.587459e-10
5.0057897e-10 3.6915795e-09 7.502519e-10 4.4772897e-09 1.1187117e-09 8.2942536e-10 0.0 4.1583123e-10
4.1446555e-10 4.0789913e-10 0.0 4.8518395e-10 5.566841e-10 5.5058624e-10 7.4249545e-10 1.8547806e-09
5.6072563e-10 1.6081744e-09 5.4176036e-10 1.3747352e-09 6.2840316e-10 7.596236e-10 6.947492e-10 1.4481375e-09
5.027494e-10 3.5918754e-10 9.216845e-10 8.6950197e-10 0.0 4.178675e-10 4.1335885e-10 4.1435405e-10
0.0 5.291544e-10 8.104984e-10 1.0103167e-09 1.0852446e-09 1.3901513e-09 8.11997e-10 8.565293e-09
9.208266e-10 5.377656e-09 1.4654297e-09 9.840244e-10 1.5149987e-09 1.024376e-08 8.5433466e-10 1.6165319e-10
8.57677e-10 1.3820298e-09 0.0 8.6434493e-10 5.4759824e-10 3.3721137e-10 0.0 4.0822332e-10
7.2661765e-10 9.287796e-10 9.013476e-10 1.2525931e-09 7.554711e-10 1.0397898e-09 1.4452308e-09 7.6513756e-10
5.0469945e-10 8.151947e-10 1.3813687e-09 8.739137e-10 9.154305e-10 5.7307137e-10 6.164651e-10 5.2495924e-10
0.0 4.3924644e-10 6.4661854e-10 1.0597899e-09 0.0 6.654314e-10 4.795342e-10 9.879899e-10
9.546978e-10 2.9380945e-10 7.533715e-10 7.332494e-10 6.2459515e-10 8.3897106e-10 7.0915945e-10 5.431626e-10
8.41587e-10 9.316167e-10 6.0312194e-10 6.274291e-11 4.6759313e-10 5.6493515e-10 0.0 3.6599052e-10
3.120773e-10 3.642996e-10 0.0 3.294125e-10 6.871715e-10 6.7781347e-10 1.0197765e-09 3.4043222e-09
6.395058e-10 2.1271103e-09 5.1258814e-10 7.2810313e-10 8.952335e-10 6.278582e-10 9.428599e-10 2.5672213e-09
6.775173e-10 1.7790659e-10 7.581195e-10 7.837712e-10 0.0 5.7608157e-10 5.748386e-10 6.949289e-10
0.0 5.622554e-10 1.3402007e-09 1.7904777e-09 1.5705688e-09 2.688977e-09 2.504293e-09 1.697874e-08
1.1800909e-09 9.073466e-09 2.5034543e-09 1.8258958e-09 1.2798724e-09 2.1209143e-08 1.4730995e-09 1.0781824e-10
00000000: b9ab 4531 6362 c331 53b8 3b31 e1b0 4231
00000010: 5412 6031 3ae0 e932 1941 1e31 1004 f031
00000020: 4b32 1131 fba8 8431 e232 2431 9a40 0b33
00000030: da71 1e31 72aa 4230 665b 2531 a0ec 3131
00000040: 0000 0000 a81b cb30 8e9f 5b30 c837 5c30
00000050: 0000 0000 aac3 fa30 a0bf e633 a02e f833
00000060: 4d5b de33 5da2 1734 b67d eb33 7c00 0635
00000070: 608f 8633 5c28 2534 d3e8 d133 d9c4 bd34
00000080: b6c8 0134 29c6 a834 20ca 9f33 2dea 9832
00000090: 0fd6 0234 21f1 d633 0000 0000 cc51 4233
000000a0: 9afe b432 357f 4e33 0000 0000 f74e 4233
000000b0: 6e1e 6f30 94f8 8630 d9f3 6230 f13e 2630
000000c0: 0e0a d630 1944 e131 ffe9 1a30 443b db30
000000d0: b4e6 bb30 0d45 8a30 92f6 2430 34d7 1132
000000e0: 95de 7a30 44aa f92e acab df30 c2e6 4930
000000f0: 0000 0000 becb bd2f be74 5c2f fd1f 622f
00000100: 0000 0000 1604 bb2f e663 e630 41ae 3f31
00000110: b9c6 5531 1d5f d830 200b 3531 163a 0733
00000120: 19fd 1d31 28f6 9232 e437 1b31 a18a 2931
00000130: 6088 4231 a4d8 1833 5f15 1531 a639 e32f
00000140: ed37 5c31 5ec6 d830 0000 0000 b915 c530
00000150: b44d 3430 785d 2330 0000 0000 da3f 5930
00000160: c48d cd2f feb7 2b30 a5e0 782f 65ef 322f
00000170: a900 cd2f af70 fc2f 5db4 9b2f 5905 fc2f
00000180: 3831 ae2f 35bf c22f 430f 7b2f b3e1 fc2f
00000190: e660 af2f 9b8a a22f eee1 1030 bb5d 6d2f
000001a0: 0000 0000 289b 402f f3d7 1b2f 6557 f72e
000001b0: 0000 0000 ca00 172f 4647 3230 671c 8130
000001c0: d02e 0d30 6dfb ec2f 6789 3730 352b 5231
000001d0: b6be 0630 87c0 0131 83fd d530 ff8f 5030
000001e0: 1d99 0930 f4ae 7d31 493a 4e30 a8d6 9931
000001f0: 2bc1 9930 9ffd 6330 0000 0000 0b9b e42f
00000200: d7da e32f b33e e02f 0000 0000 c95d 0530
00000210: 2905 1930 1058 1730 7918 4c30 4aeb fe30
00000220: 8f21 1a30 9b06 dd30 ffea 1430 32f1 bc30
00000230: f1bb 2c30 c2cd 5030 a1f8 3e30 cf07 c730
00000240: d831 0a30 2777 c52f c859 7d30 c301 6f30
00000250: 0000 0000 9fb9 e52f 163f e32f 26cb e32f
00000260: 0000 0000 ee73 1130 c1c9 5e30 5cdb 8a30
00000270: a627 9530 9a0f bf30 3633 5f30 8f26 1332
00000280: 691d 7d30 5dc6 b831 3968 c930 483e 8730
00000290: 4738 d030 88fc 2f32 75d6 6a30 54bd 312f
000002a0: a7c1 6b30 daf1 bd30 0000 0000 de96 6d30
000002b0: cd85 1630 4862 b92f 0000 0000 536c e02f
000002c0: 2cbb 4730 0e4d 7f30 b3c2 7730 b427 ac30
000002d0: 8da9 4f30 5ae8 8e30 8aa1 c630 c551 5230
000002e0: 11bb 0a30 3a14 6030 97da bd30 3638 7030
000002f0: b2a1 7b30 5086 1d30 e073 2930 b94c 1030
00000300: 0000 0000 717a f12f bcbd 3130 0ba8 9130
00000310: 0000 0000 92e9 3630 38d0 0330 cec9 8730
00000320: 7136 8330 0186 a12f ce15 4f30 d78d 4930
00000330: faaf 2b30 579d 6630 a9ee 4230 ac4d 1530
00000340: 6c55 6730 590a 8030 efc8 2530 1ef9 892e
00000350: f187 0030 c749 1b30 0000 0000 9634 c92f
00000360: fa90 ab2f 9c46 c82f 0000 0000 b018 b52f
00000370: 65e3 3c30 e250 3a30 3228 8c30 78f1 6931
00000380: 38c9 2f30 852c 1231 2fe6 0c30 b423 4830
00000390: 7514 7630 9895 2c30 ef95 8130 096b 3031
000003a0: 0b3c 3a30 419c 432f eb63 5030 ff70 5730
000003b0: 0000 0000 235a 1e30 ac02 1e30 4605 3f30
000003c0: 0000 0000 358d 1a30 1f32 b830 d514 f630
000003d0: 7adb d730 fcc8 3831 fd17 2c31 a5d8 9132
000003e0: c230 a230 87e1 1b32 3c09 2c31 fff2 fa30
000003f0: 82e7 af30 662f b632 1576 ca30 4618 ed2e

exp_avg f4 [150, 50]
-1.3201044e-06 -8.7142635e-06 4.0979e-06 1.527429e-06 -1.3958802e-07 -8.081003e-07 1.2615584e-06 2.1144494e-06
6.6193303e-07 1.1420739e-06 3.1559117e-07 -1.00178994e-07 1.9873762e-06 -3.8944563e-07 1.5692976e-06 4.1564663e-06
1.0916713e-06 3.0405656e-06 -1.9844297e-06 -7.376609e-06 -6.646491e-07 1.5492768e-06 -8.3827194e-07 8.0759435e-07
-2.8532668e-06 4.1117613e-07 -1.2763525e-06 2.554368e-06 3.351418e-06 1.8271712e-06 6.5948625e-06 1.2477146e-06
-3.5996648e-06 -1.421159e-06 5.662804e-07 -1.612697e-06 -6.105598e-06 -2.6626076e-06 1.257884e-06 -8.368684e-07
1.350211e-06 -1.3038048e-06 -1.0433346e-06 3.9724338e-07 3.1493344e-06 -8.57648e-08 1.1099357e-06 1.3565818e-06
8.384685e-06 -1.1589802e-06 5.636386e-06 -9.099275e-06 -9.472116e-06 -1.5540874e-05 1.1799876e-05 -2.8021316e-06
7.3155106e-06 -1.0418162e-05 -2.8578222e-06 9.376981e-06 3.552431e-06 -1.13687865e-05 6.0156694e-06 -6.944396e-06
-5.3521217e-06 -2.9791054e-05 -2.4860974e-05 -3.806562e-06 4.1492655e-07 -1.2232011e-05 2.6012628e-06 -2.83308e-05
-1.7563489e-06 -2.1618333e-05 9.025691e-06 -4.6247605e-06 1.8661845e-05 1.365272e-06 1.7590717e-06 5.917571e-06
-3.557663e-05 1.2041878e-05 8.6280015e-06 -1.1744677e-05 1.3204794e-06 -1.5658932e-07 2.2327504e-05 -9.668539e-07
2.2009976e-06 -3.072847e-06 3.6291144e-06 -3.4930483e-06 -1.6410922e-05 -2.059237e-05 -1.1033363e-05 2.2344764e-05
-2.3573905e-07 -1.7158156e-06 4.1185624e-05 -9.159463e-06 -3.156306e-07 -4.8742845e-07 -8.71486e-08 -5.641138e-07
-5.1651156e-08 -2.4069658e-07 -1.5138737e-07 -4.0257444e-07 4.594197e-09 2.7258912e-07 -2.3961974e-07 -3.6617382e-07
-1.0179167e-07 -4.939778e-07 -3.49041e-07 -6.3612833e-07 -1.1711408e-07 -2.2437014e-07 1.6796479e-07 -4.7404484e-07
1.0416166e-07 -1.7289844e-07 -7.67024e-09 -2.8638675e-07 3.0102441e-07 8.137526e-08 4.736515e-07 -1.9125109e-07
-4.2413227e-08 -3.543888e-07 6.9910243e-07 7.2088326e-08 4.2407748e-07 -9.495094e-10 -4.992009e-07 1.3053219e-07
-5.914374e-08 1.1492186e-07 -4.1842455e-08 -1.767013e-07 8.5046665e-08 -2.4208472e-07 -3.3537283e-08 -2.2537641e-07
-3.1625873e-07 3.1980002e-07 -4.666338e-07 -1.2279834e-07 7.6114856e-07 -3.3170602e-07 -3.8571517e-07 3.5279606e-06
-3.4509756e-07 -7.3893506e-07 -2.7897084e-07 -2.8957368e-07 -3.935434e-07 -4.2785967e-07 -4.1631063e-07 1.2513375e-07
-2.0108098e-07 5.4403665e-07 -9.563425e-07 -9.480667e-07 -1.0303145e-06 -1.4319202e-06 -3.4344004e-07 -7.3539485e-07
3.909489e-07 1.611485e-06 1.8672874e-07 -2.0800526e-07 7.8269174e-08 -5.1144184e-07 9.3164437e-07 4.156131e-07
1.1793945e-06 -5.5205584e-07 -8.1650853e-07 3.1109894e-07 -2.5682714e-06 -3.6242136e-07 1.2428353e-06 -4.726957e-07
-6.777554e-07 4.537865e-07 2.0273728e-06 -1.2018127e-07 2.0182031e-07 6.277239e-07 -5.1718257e-07 -2.0369693e-08
9.56468e-07 -5.84492e-07 -1.467619e-06 8.709047e-07 -7.1968833e-07 -4.7993234e-07 -1.5297289e-06 -1.5997676e-07
-8.571075e-08 -2.2066645e-06 1.3821193e-07 -2.8696655e-07 -3.8474957e-07 -1.6605922e-07 -1.7612306e-08 1.7720097e-07
6.3064977e-07 1.534212e-07 7.760436e-08 -3.504996e-07 -1.8230378e-07 2.969459e-07 -5.973095e-07 -2.416508e-07
-1.9127258e-07 -4.4249084e-08 2.3628719e-07 -1.4043756e-06 3.415181e-07 -6.7781635e-08 1.6969591e-07 -6.999702e-07
-7.6490943e-07 1.8716224e-07 4.3688206e-07 -1.687473e-09 -7.322259e-07 -2.5266795e-07 1.9634622e-06 -5.9177063e-07
3.6177656e-07 -6.546324e-07 -2.6891593e-07 2.3437212e-07 -1.1324034e-06 3.351374e-07 2.0462924e-08 -6.3533173e-07
-5.0328566e-07 -3.9144516e-07 -3.847145e-07 -4.464202e-07 8.230862e-08 3.0846579e-09 -2.0804849e-07 4.4903686e-08
2.7024957e-06 7.683897e-08 1.2778047e-06 -5.846222e-06 3.041432e-07 1.6083702e-06 8.226693e-08 8.0269865e-07
00000000: 712e b1b5 7a33 12b7 b180 8936 1002 cd35
00000010: aae1 15b4 3bec 58b5 d152 a935 f7e5 0d36
00000020: b1af 3135 5c49 9935 856e a934 fc21 d7b3
00000030: dd5e 0536 0015 d1b4 a8a0 d235 c677 8b36
00000040: 8a85 9235 850c 4c36 3e2c 05b6 9784 f7b6
00000050: 576a 32b5 bff0 cf35 9c05 61b5 76c9 5835
00000060: c07a 3fb6 9ebf dc34 234f abb5 b56b 2b36
00000070: ece8 6036 203d f535 7049 dd36 2677 a735
00000080: c591 71b6 a7be beb5 7e02 1835 d973 d8b5
00000090: b0de ccb6 40af 32b6 91d4 a835 29a5 60b5
000000a0: e638 b535 64fe aeb5 b408 8cb5 b744 d534
000000b0: 2759 5336 b32d b8b3 1af9 9435 cc13 b635
000000c0: f3ab 0c37 428e 9bb5 3020 bd36 17a9 18b7
000000d0: 6eea 1eb7 c65d 82b7 15f8 4537 410c 3cb6
000000e0: c277 f536 aac9 2eb7 03c9 3fb6 d451 1d37
000000f0: 4d66 6e36 91bc 3eb7 35da c936 e803 e9b6
00000100: 6096 b3b6 cde7 f9b7 898c d0b7 3d74 7fb6
00000110: 12c3 de34 1638 4db7 5b91 2e36 eea7 edb7
00000120: b0bb ebb5 0459 b5b7 0c6d 1737 642e 9bb6
00000130: 028c 9c37 643e b735 3e19 ec35 8c8f c636
00000140: 1e38 15b8 7907 4a37 fcc0 1037 010b 45b7
00000150: 543b b135 f222 28b4 f34b bb37 d9c4 81b5
00000160: dab4 1336 1c37 4eb6 b68b 7336 1d6a 6ab6
00000170: 30aa 89b7 c7bd acb7 ef1b 39b7 0471 bb37
00000180: 751f 7db4 fa4a e6b5 babe 2c38 98ab 19b7
00000190: f073 a9b4 d4d7 02b5 7326 bbb3 9b6d 17b5
000001a0: 0cd7 5db3 1639 81b4 0b8d 22b4 6921 d8b4
000001b0: fcda 9d31 5d58 9234 16a5 80b4 8c96 c4b4
000001c0: 9098 dab3 e599 04b5 d463 bbb4 68c2 2ab5
000001d0: 2580 fbb3 65ea 70b4 cf59 3434 3a80 feb4
000001e0: 7aaf df33 f6a5 39b4 13c6 03b2 b2c0 99b4
000001f0: 7b9c a134 86c0 ae33 2b4a fe34 b35a 4db4
00000200: d629 36b3 d342 beb4 f4a9 3b35 face 9a33
00000210: c4ac e334 e47f 82b0 d300 06b5 6a28 0c34
00000220: 3b05 7eb3 f6ca f633 44b6 33b3 49bb 3db4
00000230: e6a2 b633 dff7 81b4 a20a 10b3 fffe 71b4
00000240: 45ca a9b4 fbb0 ab34 a985 fab4 8dda 03b4
00000250: bb51 4c35 5415 b2b4 4a14 cfb4 e7c1 6c36
00000260: d945 b9b4 3b5b 46b5 76c5 95b4 b476 9bb4
00000270: 3148 d3b4 96b4 e5b4 4c81 dfb4 815c 0634
00000280: b8e8 57b4 ea09 1235 ae5b 80b5 a67e 7eb5
00000290: 5649 8ab5 6730 c0b5 0a62 b8b4 f367 45b5
000002a0: 9ce3 d134 344a d835 9b7f 4834 0d58 5fb4
000002b0: ef14 a833 044a 09b5 1d16 7a35 6e21 df34
000002c0: b04b 9e35 fd30 14b5 0a2e 5bb5 1d05 a734
000002d0: 915a 2cb6 d092 c2b4 7fcf a635 cdc6 fdb4
000002e0: ffee 35b5 f19f f334 000e 0836 2d0b 01b4
000002f0: f2b3 5834 dc80 2835 84d4 0ab5 6ef9 aeb2
00000300: fe5f 8035 fce5 1cb5 01fb c4b5 1ec8 6935
00000310: 9b30 41b5 b3d4 00b5 1651 cdb5 14c6 2bb4
00000320: fc0f b8b3 3516 14b6 6867 1434 6210 9ab4
00000330: 948f ceb4 034e 32b4 df49 97b2 a244 3e34
00000340: ec49 2935 19bc 2434 73a7 a633 4c2c bcb4
00000350: 48bf 43b4 ef6b 9f34 cc56 20b5 3cbc 81b4
00000360: 9b60 4db4 620c 3eb3 21b6 7d34 fa7d bcb5
00000370: e459 b734 598f 91b3 a835 3634 96e5 3bb5
00000380: 2d54 4db5 c4f6 4834 9d8c ea34 aeec e7b0
00000390: 2e8e 44b5 6ba6 87b4 06c4 0336 2bda 1eb5
000003a0: 313a c234 ffb9 2fb5 865f 90b4 b8a7 7b34
000003b0: 16fd 97b5 efec b334 72c6 af32 aa8b 2ab5
000003c0: 8719 07b5 d027 d2b4 c28a ceb4 86ab efb4
000003d0: a4c1 b033 e0f9 5331 ef63 5fb4 20dc 4033
000003e0: 865c 3536 ac02 a533 0981 ab35 aa2a c4b6
000003f0: 2049 a334 2edf d735 b9aa b033 0879 5735

exp_avg_sq f4 [150, 50]
1.35449e-10 2.5563138e-09 6.9700905e-11 1.5141949e-10 7.3769574e-11 3.4713985e-11 7.2376924e-11 3.020751e-10
5.9081365e-11 3.401721e-11 5.034945e-11 2.1974979e-10 4.727293e-10 1.9612252e-10 1.411604e-10 4.3698886e-10
9.79794e-11 1.8877594e-10 6.868402e-11 1.8652775e-09 1.2311456e-10 5.7873137e-11 3.970201e-11 7.559884e-11
9.324314e-11 1.1999857e-10 7.408568e-11 8.6609844e-11 2.7925326e-10 3.4029e-10 1.7591936e-09 3.699099e-10
3.377868e-10 9.057447e-11 2.9595967e-10 7.933366e-11 1.6120834e-09 1.2430725e-10 1.0885223e-10 6.183372e-11
2.8285677e-10 9.2501576e-11 2.5357472e-10 4.5605106e-11 9.880748e-11 5.0193464e-11 1.1714425e-10 2.9780908e-10
1.3120448e-09 1.7233628e-10 1.976135e-09 1.1761905e-08 2.4172546e-09 1.9163229e-09 9.98032e-10 7.4834705e-10
1.5445828e-09 3.7356602e-09 2.7433789e-09 1.2730954e-09 1.0886753e-09 3.3736756e-09 1.3323434e-08 3.5671992e-09
4.4743e-09 6.747238e-09 6.0691807e-09 2.471871e-09 2.5134241e-09 8.374894e-09 1.177533e-09 4.6361808e-09
1.8475035e-09 3.3163685e-09 1.4179387e-09 2.33269e-09 1.6260395e-09 2.1774833e-09 2.6894575e-09 4.913593e-09
2.7222363e-08 5.94974e-09 5.398038e-09 2.224152e-09 8.087086e-09 1.1057825e-09 2.28015e-08 3.1314522e-09
2.324399e-09 1.1077179e-09 7.629771e-09 2.7105505e-09 3.855904e-09 1.2879172e-09 2.1077258e-09 1.1399037e-09
1.6723891e-09 3.199861e-09 1.39484495e-08 2.3476971e-09 2.3990955e-11 4.1552398e-10 5.176517e-11 6.949282e-11
1.7858106e-11 1.23059896e-11 1.9863819e-11 1.3380354e-10 2.2736387e-11 1.2990026e-11 1.9921073e-11 6.240548e-11
1.1163394e-10 4.517743e-11 4.878989e-11 2.255603e-10 4.629335e-11 7.5449674e-11 2.7641089e-11 1.4846148e-10
2.2005769e-11 1.0547387e-11 9.681714e-12 3.8903023e-11 3.89483e-11 4.239774e-11 1.7172227e-11 4.1092813e-11
8.996872e-11 1.1333392e-10 4.277594e-10 8.233814e-11 1.1484992e-10 4.059275e-11 5.951861e-11 2.1963856e-11
2.0005812e-10 4.158327e-11 2.3475808e-11 2.5787669e-11 6.541376e-11 1.6008757e-11 6.764325e-11 1.564183e-11
4.5588738e-11 1.2973483e-11 4.8119193e-11 7.466392e-11 4.4888654e-10 3.600288e-11 6.851847e-11 3.3339365e-09
7.602351e-11 1.8403885e-10 5.33033e-11 3.2712093e-11 4.5051875e-11 1.5780394e-10 5.5237103e-11 5.94156e-11
5.8201707e-11 2.9408104e-10 2.4362645e-10 8.260855e-11 9.5523776e-11 3.0511946e-10 9.507785e-11 1.2295662e-10
9.3351486e-11 1.0148293e-09 5.2796767e-11 4.5863115e-11 4.006231e-11 1.1784614e-10 6.410264e-11 1.0622157e-10
4.557167e-11 6.6918804e-11 1.9466033e-10 1.8216148e-10 3.2729277e-09 2.547856e-10 1.8944911e-10 8.595098e-11
1.3123096e-10 5.6325847e-11 1.7562983e-09 7.6566274e-11 7.55655e-11 1.1672845e-10 1.8592723e-10 4.729348e-11
1.249855e-10 3.394354e-11 1.1977801e-10 3.9040295e-11 6.792438e-11 1.545215e-10 1.5751261e-09 1.3125394e-10
7.0262242e-12 5.958868e-11 4.1731315e-12 6.9900153e-12 8.255151e-12 3.1069368e-12 3.720653e-12 2.0606766e-11
3.7866602e-12 4.12672e-12 6.1246594e-12 8.534524e-12 1.5706556e-11 1.9629198e-11 6.8465797e-12 3.6126362e-11
6.287491e-12 8.310445e-12 6.5978178e-12 2.0815478e-11 4.0268266e-12 2.9595044e-12 5.659255e-12 1.2132663e-11
8.286514e-12 4.1598764e-12 4.7663427e-12 5.9682914e-12 8.101322e-12 1.1701865e-11 7.720104e-11 2.1447694e-11
9.936107e-12 6.1487434e-12 7.2674644e-12 5.730137e-12 3.772063e-11 8.856706e-12 8.6879445e-12 9.122766e-12
1.0673712e-11 6.1774817e-12 1.284344e-11 2.9198488e-12 3.9597136e-12 2.6324901e-12 6.9684636e-12 8.920105e-12
3.2972368e-11 1.20478965e-11 2.6444525e-11 3.1266342e-10 2.692012e-11 3.6025325e-11 1.0414163e-11 4.0306033e-11
00000000: 81ed 142f 26ab 2f31 1f46 992e cc7c 262f
00000010: 9438 a22e 79ac 182e 9628 9f2e 4a11 a62f
00000020: daeb 812e f99b 152e 7170 5d2e 119e 712f
00000030: 5ef1 0130 95a3 572f 1f35 1b2f b73c f02f
00000040: 8075 d72e b48f 4f2f aa09 972e 4f2e 0031
00000050: ab5d 072f 5c87 7e2e 7d9c 2e2e 5d3e a62e
00000060: 390b cd2e 98f0 032f 88ea a22e 0275 be2e
00000070: 6785 992f 8f13 bb2f 1fc8 f130 315c cb2f
00000080: 44b3 b92f e52c c72e 9fb4 a22f e174 ae2e
00000090: 2490 dd30 61ad 082f 5c5e ef2e 4af9 872e
000000a0: 8d80 9b2f c269 cb2e 7867 8b2f c992 482e
000000b0: ab47 d92e d1c0 5c2e 2dcd 002f e7b8 a32f
000000c0: 7953 b430 5a7c 3d2f 89cc 0731 6811 4a32
000000d0: cb1c 2631 4fb0 0331 212b 8930 3eb4 4d30
000000e0: 2d49 d430 375b 8031 0886 3c31 10f9 ae30
000000f0: 5ba0 9530 54d6 6731 15e5 6432 d522 7531
00000100: 5cbc 9931 55d5 e731 1489 d031 9ddd 2931
00000110: a0b8 2c31 2ce1 0f32 c2d6 a130 474c 9f31
00000120: 40eb fd30 2ce6 6331 48e1 c230 1e4d 2031
00000130: 2e7b df30 b1a2 1531 70d1 3831 6cd4 a831
00000140: 9cd6 e932 776e cc31 a579 b931 b2d7 1831
00000150: 61ef 0a32 43fa 9730 07dd c332 1731 5731
00000160: 42bb 1f31 5c3e 9830 1614 0332 8244 3a31
00000170: e47c 8431 8f02 b130 81d7 1031 ccaa 9c30
00000180: f6d9 e530 8de4 5b31 eea1 6f32 2055 2131
00000190: d406 d32d cd6f e42f 66aa 632e fbd0 982e
000001a0: e114 9d2d 407d 582d 58b9 ae2d 591e 132f
000001b0: cbfd c72d e085 642d 453a af2d 293b 892e
000001c0: 527c f52e 44b1 462e 8894 562e 9501 782f
000001d0: ae99 4b2e 64ea a52e 3322 f32d 313c 232f
000001e0: 9690 c12d 358d 392d 9052 2a2d e918 2b2e
000001f0: e34b 2b2e 9d77 3a2e 6b0c 972d 65ba 342e
00000200: e3d7 c52e 5339 f92e c929 eb2f 4110 b52e
00000210: c28e fc2e 6087 322e 00e2 822e 3532 c12d
00000220: 5bf7 5b2f 9ae2 362e d27e ce2d abd4 e22d
00000230: acd8 8f2e 84d0 8c2d c4bf 942e 4596 892d
00000240: 5b80 482e 603b 642d 65a1 532e 0d30 a42e
00000250: 2ac7 f62f a457 1e2e 78ac 962e 3b1b 6531
00000260: 6e2d a72e 555a 4a2f 2e6e 6a2e 8bde 0f2e
00000270: e723 462e dc81 2d2f 73ef 722e 02a8 822e
00000280: 4cf9 7f2e 3aac a12f 60ef 852f 7ba8 b52e
00000290: 1b0f d22e bfbd a72f 1214 d12e 3631 072f
000002a0: 3748 cd2e 227a 8b30 e033 682e 47b5 492e
000002b0: 2732 302e bd92 012f 94f6 8c2e 6e95 e92e
000002c0: 246d 482e f027 932e 0308 562f e649 482f
000002d0: f4e9 6031 e311 8c2f 2f4d 502f 1a02 bd2e
000002e0: 3b4a 102f 44b9 772e 4162 f130 fb5e a82e
000002f0: 982b a62e 2358 002f dd6d 4c2f baff 4f2e
00000300: 4a6c 092f 0749 152e 83b2 032f 77b3 2b2e
00000310: 075e 952e f0e5 292f d37b d830 b350 102f
00000320: 9a36 f72c 7209 832e 3ad4 922c 76f0 f52c
00000330: e539 112d 99a1 5a2c aae8 822c 5042 b52d
00000340: 343b 852c 3032 912c 077e d72c 1424 162d
00000350: 0528 8a2d 06a9 ac2d 82e4 f02c abe2 1e2e
00000360: af38 dd2c eb32 122d dc23 e82c 4a18 b72d
00000370: 6eae 8d2c b141 502c 0a1e c72c a870 552d
00000380: 24c7 112d d65c 922c 66b3 a72c 97fd d12c
00000390: 1c85 0e2d 84dc 4d2d 52c4 a92e eaa7 bc2d
000003a0: 3fcc 2e2d f556 d82c 80b3 ff2c 7c9c c92c
000003b0: a7e5 252e 0fcf 1b2d 06d7 182d 497d 202d
000003c0: 20c6 3b2d cf59 d92c b6f1 612d 5277 4d2c
000003d0: ee51 8b2c ba3e 392c 572e f52c 95ec 1c2d
000003e0: 9603 112e e7f2 532d c79b e82d 77e3 ab2f
000003f0: b9ca ec2d e970 1e2e 3835 372d 8f44 312e
