lightning_logs/version_33479210/checkpoints/epoch=49-step=6000.ckpt (torch, 142804 bytes, 15 tensors)

model.gru.weight_ih_l0 f4 [150, 22]
0	0xbdfd97a5	-0.123824395
1	0x3cf7146a	0.030161101
2	0xbcb626db	-0.022235325
3	0x3df40089	0.119141646
4	0x3c98f6ea	0.018672425
5	0x3dbc82d6	0.092046425
6	0xbd74b14d	-0.0597394
7	0x3cacf65b	0.021113565
8	0xbcfa537b	-0.030557385
9	0x3a46649c	0.00075680926
10	0xbe01c8b0	-0.12674212
11	0x3d002626	0.03128638
12	0xbe0227b0	-0.12710452
13	0xbbf83d32	-0.0075756544
14	0xbccf39d6	-0.025296133
15	0xbd454b9f	-0.04816782
16	0x3cd00e0b	0.025397321
17	0xbddf766a	-0.109112576
18	0x3df4d1e1	0.11954094
19	0x3db871dd	0.09006093
20	0xbd676af7	-0.056498494
21	0x3ca4fedd	0.02014106
22	0xbd3ce6c9	-0.04611853
23	0x3df97fd5	0.12182585
24	0x3c31c08b	0.0108491285
25	0x3ca6821f	0.020325718
26	0xbcc4a077	-0.024002297
27	0x3d07da8c	0.033167407
28	0x3e1b9529	0.15193619
29	0xbd067415	-0.03282555
30	0x3d2e5c0a	0.042568244
31	0xbda65f11	-0.08123601
32	0x39e8d5f1	0.00044409887
33	0x3cfe853a	0.031069387
34	0xbe3ad918	-0.18246877
35	0xbe13c208	-0.14429486
36	0x3e08cad1	0.13358618
37	0x3d1092fc	0.035296425
38	0xbce1a4b0	-0.02754435
39	0x3e01ae09	0.12664045
40	0x3db59b50	0.08867514
41	0x3c012d28	0.007884301
42	0x3db4650c	0.08808336
43	0x3e379f67	0.17931901
44	0xbc1fb79e	-0.009748368
45	0xbddda69d	-0.108227946
46	0xbdae97f4	-0.085250765
47	0xbd6feb3e	-0.058573954
48	0xbd5dccfb	-0.054150563
49	0xbd659c33	-0.056057166
50	0xbccefda2	-0.025267426
51	0xbdf456ba	-0.11930604
52	0x3be033a6	0.0068420945
53	0xbc81d5b7	-0.015848977
54	0xbd6defb9	-0.058089945
55	0xbd81deac	-0.063412994
56	0x3d8eaf5e	0.069670424
57	0x3d89445e	0.06702493
58	0x3db24d5a	0.0870616
59	0xbc2b24a4	-0.0104457475
60	0x3d7ca440	0.06168008
61	0xbd861f31	-0.06548918
62	0x3e3049e9	0.17215694
63	0xbdc1e8fd	-0.09468267
64	0xbde87e8d	-0.11352263
65	0xbe10128c	-0.14069575
66	0x3d1592b0	0.036516845
67	0xbabdce48	-0.0014481032
68	0xbd9b8973	-0.07594576
69	0xbdb65c81	-0.089043625
70	0x3e0ef865	0.13961942
71	0x3c94059c	0.018069081
72	0xbd8a9920	-0.067674875
73	0xbd995665	-0.074871816
74	0xbe031f87	-0.12804995
75	0xbd9c445c	-0.07630226
76	0x3dad94b1	0.08475626
77	0xbd9b828b	-0.075932585
78	0xbe271534	-0.16316682
79	0xbdfd82e0	-0.12378478
80	0x3d302d2e	0.043011837
81	0xbcbac5d8	-0.022799417
82	0xbdb45a2b	-0.08806261
83	0x3cc477b5	0.023982862
84	0xbd787638	-0.060659617
85	0x3cebeeac	0.028800331
86	0x3e0e725c	0.13910812
87	0xbcdd2427	-0.026994778
88	0x3ca20d46	0.01978172
89	0xbd502065	-0.050812144
90	0xbcd252b0	-0.025674194
91	0xbda58cdd	-0.08083508
92	0x3d446b51	0.047953907
93	0xbe130b48	-0.14359772
94	0x3db9caaf	0.09071862
95	0xbe0bf389	-0.1366712
96	0x3d6d1ef4	0.057890847
97	0x3d23e8b4	0.040016845
98	0xbe17fcbc	-0.14842504
99	0x3d80f90b	0.06297501
100	0x3d1522f9	0.036410306
101	0xbd86fd90	-0.06591332
102	0x3d45ada4	0.0482613
103	0xbd66cdb5	-0.05634852
104	0xbd940049	-0.07226617
105	0xbdbcc800	-0.092178345
106	0xbd9d4621	-0.07679392
107	0xbd2e476b	-0.04254858
108	0x3d743006	0.05961611
109	0x3d69a113	0.057038378
110	0xbe00e961	-0.12589027
111	0xbddfc829	-0.109268494
112	0xbdbd9cc0	-0.09258413
113	0xbd428789	-0.047492538
114	0xbddcaa4b	-0.10774668
115	0xbc897cc2	-0.016783122
116	0xbd573ae8	-0.05254641
117	0xbe1ccb70	-0.1531198
118	0x3d985735	0.074385084
119	0xbe1a06a6	-0.15041599
120	0xbdb6ee5c	-0.08932182
121	0x3ca49406	0.020090114
122	0xbd8cf9bd	-0.06883571
123	0xbba14e8e	-0.0049226945
124	0x3b322a64	0.0027185911
125	0xbcaa4dd9	-0.020789074
126	0xbd76c6d0	-0.060248196
127	0xbd853748	-0.06504685
128	0x3e4a121e	0.19733474
129	0xbd5401ab	-0.051759403
130	0xbd5bbe6e	-0.053648405
131	0xbb4f24bf	-0.0031607596
132	0xbdd1edbf	-0.102504246
133	0xbc740727	-0.014894283
134	0x3ce99fe2	0.02851862
135	0xbcd2b655	-0.025721708
136	0xbd47957c	-0.048726544
137	0xbd3777e5	-0.044792075
138	0xbdb010f7	-0.08596986
139	0xbb8853ff	-0.0041604037
140	0xbd1ed106	-0.03877356
141	0x3c9bc0e0	0.019012868
142	0xbe5169dc	-0.20450538
143	0x3d6c52f9	0.057696316
144	0x3dba9119	0.091097064
145	0xbd4524be	-0.048130743
146	0xbe02188d	-0.12704678
147	0x3dd4da73	0.103932284
148	0xbd026e61	-0.031843547
149	0xbdac8c76	-0.08425228
150	0xbdb81258	-0.08987874
151	0x3c9aed57	0.018912
152	0xbd994910	-0.07484639
153	0xbe1cd710	-0.15316415
154	0xbd95b2c3	-0.07309487
155	0x3d7732ce	0.060351186
156	0x3e15de7e	0.14635655
157	0xbe03ca3c	-0.12870115
158	0x3cb23ef7	0.02175854
159	0xbc170a5b	-0.0092187775
160	0xbdeb7038	-0.114960134
161	0xbda6149c	-0.081094
162	0xbc0efade	-0.008726804
163	0xb9e83443	-0.00044289426
164	0xbd5c87a9	-0.053840313
165	0x3af16621	0.0018417278
166	0x3d6de54d	0.058080006
167	0x3d413a5c	0.047174796
168	0xbd4e0b81	-0.05030394
169	0xba886c70	-0.0010408293
170	0x3e09933c	0.13435072
171	0xbd8a7103	-0.067598365
172	0xbd814559	-0.06312055
173	0xbdfc8f1d	-0.12331984
174	0xbd8c8b32	-0.06862487
175	0xbe3345c8	-0.17507088
176	0xbd4e0172	-0.050294347
177	0xbd9ea824	-0.07746914
178	0xbd9e3f2d	-0.077268936
179	0x3d81c8fa	0.06337161
180	0xbdfdc778	-0.12391561
181	0xbba7162d	-0.005099079
182	0xbe08a57a	-0.13344374
183	0xbd75fbcf	-0.060054597
184	0x3dfa6c81	0.12227727
185	0x39e6c708	0.00044017308
186	0xbc349655	-0.01102217
187	0xb9c00134	-0.0003662199
188	0x3da42b41	0.080160625
189	0xbe388011	-0.18017603
190	0xbbab4e68	-0.0052278526
191	0x3dadf65e	0.084942564
192	0x3e0109b1	0.12601353
193	0x3dd8cd5d	0.10586045
194	0xbd02f51a	-0.03197203
195	0xbe1b1e61	-0.15148307
196	0x3de64370	0.112433314
197	0xbd151fb3	-0.036407184
198	0xbe0158f2	-0.12631586
199	0x3d4f99a6	0.05068364
200	0x3d6a1527	0.05714908
201	0x3dd561f4	0.10419074
202	0xbdd4ee78	-0.10397047
203	0x3cbff37b	0.02343153
204	0xbd076121	-0.033051614
205	0xbd933e1f	-0.07189583
206	0x3bb5f9b9	0.005553451
207	0x3e259ef7	0.16173922
208	0x3da95ca5	0.08269624
209	0x3d69022d	0.05688684
210	0xbc002103	-0.007820371
211	0xbd12da3f	-0.035852667
212	0xbe1bcf72	-0.15215853
213	0x3d1ee156	0.038789116
214	0x3dc05fee	0.09393297
215	0x3b51e490	0.0032027103
216	0x3cc9934e	0.024606373
217	0xbdd834f7	-0.10556977
218	0xbd8fadde	-0.070155844
219	0xbe0ca190	-0.13733506
220	0xbc79bca6	-0.015242731
221	0x3d19f0ec	0.037583277
222	0xbe1704ef	-0.14747976
223	0x3e1ea3c3	0.15492158
224	0x3e1b6d48	0.15178406
225	0xbc209d13	-0.009803074
226	0x3e0236a9	0.12716164
227	0xbddae402	-0.1068802
228	0x3db7eec7	0.0898109
229	0xbd7f5da0	-0.062345147
230	0x3de9df98	0.114196
231	0xbdb824ed	-0.08991418
232	0xbd997ee0	-0.074949026
233	0x3dee1770	0.11625564
234	0xbdb93b3c	-0.09044501
235	0x3d8aaa61	0.067707784
236	0x3d2bc86c	0.041939184
237	0x3d2e6f41	0.04258657
238	0x3d8da3da	0.06916018
239	0x3cd72af5	0.0262656
240	0xbde9b978	-0.114123285
241	0xbd67f9db	-0.056634765
242	0xbe0a0844	-0.13479716
243	0xbd868691	-0.06568635
244	0x3d509fe2	0.050933726
245	0xbdf911e6	-0.12161617
246	0x3d1fb54a	0.03899125
247	0xbe15cc5a	-0.14628735
248	0x3e182c7e	0.14860722
249	0x3e2c079f	0.16799782
250	0x3d206605	0.039159793
251	0x3dea9b80	0.114554405
252	0x3d8491ca	0.064731196
253	0xbda82807	-0.082107596
254	0x3bbe26a9	0.0058029485
255	0xbdd417a9	-0.10356075

model.gru.weight_hh_l0 f4 [150, 50]
0	0xbd6bfe82	-0.057615764
1	0x3d2b0dcc	0.041761205
2	0x3cbde3ce	0.023179915
3	0xbd76663b	-0.06015609
4	0x3d5b460d	0.053533603
5	0x3c8a149c	0.01685553
6	0x3cf6a520	0.030108035
7	0xbe076643	-0.13222603
8	0x3d6520f5	0.055939633
9	0xbda6e678	-0.08149427
10	0xbd5ab76a	-0.053397574
11	0xbc10f8ce	-0.008848382
12	0x3dde8f73	0.108672045
13	0xbd616677	-0.05502936
14	0x3d97e53a	0.07416768
15	0xbdd1dc29	-0.1024707
16	0x3d9f77cb	0.077865206
17	0x3d9cab15	0.07649819
18	0x3df850ab	0.12124761
19	0x3e190776	0.14944252
20	0xbe1480ef	-0.1450231
21	0xbe1337ed	-0.14376803
22	0xbd63870d	-0.055548716
23	0x3c2873b6	0.010281494
24	0xbe0179d2	-0.12644127
25	0x3c994242	0.018708352
26	0xbcdf8a1a	-0.027287532
27	0xbe0bb4f6	-0.1364325
28	0xbe2cc674	-0.16872579
29	0x3d8736a4	0.06602219
30	0x3d7dc62d	0.061956573
31	0xbe0558d3	-0.13022165
32	0xbc4b0a59	-0.012392604
33	0xbce5fb28	-0.028073862
34	0x3d75242f	0.05984896
35	0xbde95888	-0.11393839
36	0x3db34d68	0.087549984
37	0x3dd6755b	0.104716025
38	0xbd7b2216	-0.061311804
39	0xbe42e367	-0.1903206
40	0xbdf529da	-0.11970873
41	0x3d143592	0.0361839
42	0x3dffe655	0.12495104
43	0x3dd3e57c	0.10346505
44	0x3c0a2d26	0.008433616
45	0xbde70964	-0.11281088
46	0xbdfca121	-0.123354204
47	0xbd49a4e6	-0.049229525
48	0x3c9a0c94	0.018804826
49	0xbdca6952	-0.098833695
50	0x3dda70eb	0.10666069
51	0xbe0d484f	-0.13797115
52	0xbd1f68c3	-0.038918268
53	0x3d59b0df	0.053147193
54	0xbd99be94	-0.07507053
55	0x3e0527ce	0.13003466
56	0xbdb29707	-0.087202124
57	0xbb4df6b9	-0.0031427576
58	0xbde93736	-0.11387484
59	0xbda1c06e	-0.07898031
60	0x3e3617f7	0.1778258
61	0xbcd439b6	-0.025906425
62	0xbd0e10a1	-0.034683827
63	0x3dde451b	0.108530246
64	0x3c18a668	0.009317018
65	0xbd638e6f	-0.055555757
66	0x3e40efba	0.18841448
67	0x3dc4df10	0.09612858
68	0xbb847e19	-0.0040433523
69	0xbdb5dd78	-0.088801324
70	0x3e354c73	0.17704944
71	0x3dcf95ce	0.10135995
72	0x3c694ca7	0.014239467
73	0xbd0e2101	-0.034699444
74	0x3bab358a	0.005224888
75	0xbd8a5a62	-0.067555204
76	0xbdaf1bf5	-0.08550254
77	0x3d957439	0.07297558
78	0x3db695a2	0.08915259
79	0x3e1d6778	0.15371501
80	0xbd5c6b85	-0.053813476
81	0xbd1d0910	-0.03833872
82	0x3d078441	0.03308511
83	0xbdaa9cda	-0.08330698
84	0xbd008b6f	-0.031382974
85	0xbdcd06e1	-0.10011078
86	0xbd63e576	-0.055638753
87	0x3dd27baa	0.10277493
88	0x3c919b88	0.017774358
89	0xbd06e7dd	-0.032935966
90	0x3d99ed4f	0.07515966
91	0xbe099918	-0.13437307
92	0x3d0785f0	0.033086717
93	0x3de39474	0.111122996
94	0xbce2851a	-0.027651358
95	0x3c8d6072	0.017257903
96	0xbcc0375c	-0.023463897
97	0x3d70c14e	0.0587781
98	0xbdea7e52	-0.11449875
99	0xbd0bfb8b	-0.034175437
100	0x3d464c1d	0.04841243
101	0x3e0b4d52	0.13603714
102	0x3e269b0d	0.16270085
103	0xbda5ad5c	-0.08089706
104	0xbd8e3a18	-0.06944674
105	0x3d885cd4	0.066583306
106	0x3c82e5a7	0.015978647
107	0xbd96ee64	-0.07369688
108	0xbddd8597	-0.10816496
109	0xbd54d3b3	-0.051959705
110	0x3e1a9e13	0.15099363
111	0x3da8997f	0.08232402
112	0xbd60ccd6	-0.054882847
113	0x3e02ab49	0.12760653
114	0x3de474c1	0.111550815
115	0xbd519a54	-0.05117257
116	0x3d4f16f0	0.050558984
117	0xbc3953e0	-0.011311501
118	0x3d8de301	0.06928063
119	0x3dc62a4a	0.09676035
120	0xbd78fc40	-0.06078744
121	0x3cea8ce6	0.028631639
122	0x3d2b5f62	0.04183901
123	0x3d4d996b	0.05019514
124	0xbdd54311	-0.104131825
125	0x3dae2e3e	0.08504914
126	0xbc002d30	-0.007823274
127	0x3dfb549f	0.122719996
128	0xbd618f77	-0.05506846
129	0x3de71f54	0.11285272
130	0x3d9cd197	0.076571636
131	0x3d4c00be	0.049805395
132	0x3d15e213	0.036592554
133	0x3e2bfb46	0.16795072
134	0x3e2903f7	0.16505419
135	0xbe1b65c3	-0.15175538
136	0x3d9a8062	0.07544018
137	0xbdb0fca8	-0.0864194
138	0x3e203767	0.15646134
139	0x3d89f692	0.06736483
140	0xbe27f383	-0.16401486
141	0xbcdd7a44	-0.02703584
142	0x3cdaee32	0.026724909
143	0xbd8db4b3	-0.06919231
144	0xbcdfebde	-0.02733415
145	0xba60fd4c	-0.0008582666
146	0xbdc53d1c	-0.09630796
147	0xbe03cfe8	-0.12872279
148	0xbe0986e7	-0.13430367
149	0xbd9f7691	-0.077862866
150	0x3d8aab4f	0.06770956
151	0x3df281e0	0.11841178
152	0x3ca412f9	0.020028578
153	0xbdc30e32	-0.09524192
154	0xbe187d1f	-0.1489148
155	0x3e29ddc9	0.1658851
156	0x3d2d5f6a	0.042327322
157	0x3dc8a731	0.09797514
158	0xbdbe2f5b	-0.09286376
159	0xbdc978da	-0.09837504
160	0xbd282348	-0.04104927
161	0xbda9e0af	-0.08294808
162	0x3e02ebe0	0.12785292
163	0xbdc032ea	-0.09384711
164	0xbd09a4f2	-0.03360457
165	0xbda5ef99	-0.0810234
166	0x3ddccde8	0.10781461
167	0xbc4c427f	-0.012467026
168	0x3db2304f	0.087006204
169	0xbcd9a224	-0.026566572
170	0xbdec9f49	-0.11553819
171	0x3ab9c1d2	0.0014172143
172	0xbe15a37a	-0.14613143
173	0x3e22eca1	0.1591058
174	0xbdf7ea75	-0.12105266
175	0xbe1738bd	-0.14767738
176	0x3dd4c820	0.10389733
177	0x3de3f896	0.111313984
178	0x3ccd2b8f	0.025045184
179	0x3ae121ad	0.0017176174
180	0x3d48bdf1	0.049009267
181	0x3dd0f2ae	0.102025375
182	0x3d81eb86	0.06343751
183	0xbe05d53c	-0.13069624
184	0xbd999de3	-0.075008176
185	0xbd82d2be	-0.06387852
186	0x3d8520d1	0.065004
187	0x3d6c1584	0.057637706
188	0x3daf7fc6	0.08569293
189	0xbdd498ea	-0.103807285
190	0x3d1a0243	0.037599813
191	0x3dcd7de6	0.10033779
192	0x3e0bda1a	0.13657418
193	0xbdf629dc	-0.12019703
194	0x3ce3025c	0.027711086
195	0xbd6cf170	-0.05784744
196	0x3dceac50	0.1009146
197	0xbd13e636	-0.036108218
198	0x3de936ff	0.11387443
199	0xbd4f6b1f	-0.050639268
200	0xbdc8b855	-0.098007835
201	0xbe108573	-0.14113407
202	0x3de96fd7	0.11398285
203	0xbbf594b7	-0.007494535
204	0x3e3a5fc7	0.18200599
205	0x3c686283	0.014183643
206	0xbc0b8916	-0.008516571
207	0x3d6f536d	0.05842917
208	0x3dbecbb5	0.09316198
209	0xbc7c52d0	-0.015400603
210	0xbcb922c5	-0.022599587
211	0x3dadf98a	0.084948614
212	0x3dea5966	0.11442833
213	0x3d826b77	0.063681535
214	0x3cf338cd	0.02969017
215	0xbd8e454c	-0.06946811
216	0x3e1694c7	0.14705192
217	0xbc26584d	-0.0101528885
218	0x3e201b45	0.15635403
219	0x3d9c9e11	0.07647336
220	0x3df346bd	0.11878727
221	0xbce6a59e	-0.028155144
222	0xbe013d42	-0.12621024
223	0x3dcb4927	0.09926062
224	0xbd3071a4	-0.043077126
225	0x3da5e8fa	0.081010774
226	0xbd1c2c6d	-0.038128305
227	0xbdf620ff	-0.12018012
228	0xbdba8985	-0.09108261
229	0x3d125ca2	0.035732873
230	0x3dbfcfbe	0.093657956
231	0x3d703ebc	0.05865358
232	0x3dcc3bbe	0.099723324
233	0x3d196013	0.03744514
234	0xbda51804	-0.08061221
235	0xbdd1a5ce	-0.10236703
236	0xbdfa345f	-0.1221702
237	0xbcea3461	-0.02858943
238	0x3dc1066b	0.09425052
239	0x3d019904	0.031640068
240	0xbe04f391	-0.12983538
241	0x3da8bb12	0.08238806
242	0x3d6db0c7	0.058029916
243	0xbe0101c7	-0.12598334
244	0xbe2f2a71	-0.17106034
245	0xbbb2f716	-0.005461584
246	0xbb55d33e	-0.003262713
247	0xbdbc19ca	-0.091846064
248	0x3d9b425e	0.07581018
249	0x3d2cb3de	0.042163722
250	0x3dfcbfea	0.12341292
251	0xbdc09c63	-0.094048284
252	0x3c6fb86b	0.014631371
253	0x3d968b9b	0.073508464
254	0xbdf2be04	-0.11852649
255	0xbd430033	-0.047607612

model.gru.bias_ih_l0 f4 [150]
0	0x3d090ab4	0.033457473
1	0xbe3a3c3f	-0.18187045
2	0x3dcff2b1	0.101537116
3	0xbc784a91	-0.015154497
4	0x3d21e452	0.039524384
5	0x3d9524e1	0.07282425
6	0xbdcdd054	-0.10049501
7	0xbddaec9f	-0.10689663
8	0xbdb7469c	-0.089490145
9	0x3e177ff6	0.14794907
10	0xbdd49414	-0.10379806
11	0x3c732b92	0.014841931
12	0x3d87003d	0.06591842
13	0xbc4baaf8	-0.012430899
14	0x3e1b181a	0.15145913
15	0xbd46f87c	-0.048576817
16	0x3d8c9543	0.06864407
17	0x3d8a6d9d	0.06759188
18	0x3e2ec244	0.17066294
19	0x3d4964f3	0.04916854
20	0xbe6d71e5	-0.23187979
21	0xbd16f17a	-0.036851384
22	0xbd388b2c	-0.0450546
23	0xbdc2c4e9	-0.09510214
24	0xbbe36cce	-0.0069404608
25	0x3cbbc895	0.022922793
26	0xbcd3d57c	-0.025858633
27	0xbce3223b	-0.027726283
28	0x3d71a798	0.05899772
29	0xbe033c31	-0.1281593
30	0xbd123bb4	-0.03570147
31	0xbe20700b	-0.15667741
32	0x3e07327a	0.13202849
33	0xbe1739f1	-0.14768197
34	0x3d2936c0	0.04131198
35	0x3e345ab8	0.17612731
36	0x3a3a16b3	0.00070987194
37	0x3dc79093	0.09744372
38	0xbd0c4781	-0.03424788
39	0x3e0b2f7a	0.1359233
40	0xbc9f5fd3	-0.019454872
41	0xbdab9a4e	-0.08379041
42	0xbc893b7b	-0.016751995
43	0x3d92d7d3	0.071700715
44	0x3e124efb	0.14287941
45	0xbe2349ef	-0.15946172
46	0x3dc0b376	0.094092295
47	0xbd57a179	-0.052644227
48	0x3da75f5b	0.081724845
49	0x3dbd1dbd	0.09234188
50	0x3dbeb9ba	0.09312768
51	0x3dc51c7a	0.09624572
52	0x3dd68261	0.104740866
53	0xbd51fd83	-0.05126716
54	0x3e0a5223	0.13507895
55	0x3e63ffe4	0.22265583
56	0x3de9a9d7	0.114093475
57	0xbc8bc3ce	-0.01706114
58	0xbd4c2e6f	-0.04984897
59	0xbd1331d7	-0.035936203
60	0x3e354f8d	0.17706127
61	0x3be0548a	0.0068460153
62	0xbdbe7917	-0.0930044
63	0x3d7bb23b	0.06144927
64	0x3db5e98f	0.088824384
65	0x3e1cbf47	0.15307342
66	0x3ca83baf	0.020536272
67	0x3cc7e015	0.024398843
68	0x3d932f62	0.07186772
69	0x3d2638bf	0.04058146
70	0x3c9e5341	0.019326808
71	0xbcbaf041	-0.02281964
72	0xbc000aab	-0.007815043
73	0x3e12e00b	0.14343278
74	0x3c409e00	0.01175642
75	0x3d9b1f4c	0.07574329
76	0xbc04699e	-0.008081822
77	0xbd11ba6f	-0.035578188
78	0x3cb708d7	0.022343082
79	0xbd3cc9fc	-0.046091065
80	0x3e484025	0.19555719
81	0x3dac8e8a	0.08425625
82	0x3e6b541c	0.22981304
83	0x3dceb9e0	0.100940466
84	0x3d8db18d	0.06918631
85	0xbd19f26c	-0.037584707
86	0xbd5663ba	-0.0523412
87	0x3cd045cf	0.025423912
88	0x3e538e8d	0.20659848
89	0x3e0b86ee	0.1362569
90	0xbd938c1d	-0.07204459
91	0xbbe2f736	-0.0069264425
92	0x3e16d56e	0.14729854
93	0x3c6df37a	0.014523381
94	0x3cd53718	0.026027247
95	0xbd881b9d	-0.06645892
96	0x3e27ee7d	0.1639957
97	0x3ce4533a	0.027871717
98	0x3db36438	0.087593496
99	0x3dc0e3bd	0.09418438
100	0xbdeab195	-0.11459652
101	0xbc5d5545	-0.013509099
102	0x3b268d72	0.0025413898
103	0xbbb16812	-0.0054140175
104	0x3d3f28e1	0.046669845
105	0xbb5c32c3	-0.0033599592
106	0x3d060a58	0.03272471
107	0xbd3223ca	-0.043491162
108	0x3c3978a5	0.011320268
109	0xbaed0219	-0.001808229
110	0x3cb3c9ce	0.021946814
111	0xbb3bff87	-0.0028686242
112	0x3c1406c1	0.009034813
113	0xbc12cf6f	-0.008960589
114	0x3d1ff1e5	0.039049048
115	0xbd86ce42	-0.06582309
116	0xbdde1405	-0.10843662
117	0xbd3acd3f	-0.045605894
118	0xbd2ec64e	-0.042669587
119	0x3da6e8e7	0.08149891
120	0xbdd59ff2	-0.10430898
121	0x3d1e6c84	0.038677707
122	0x3d839a79	0.06425948
123	0xbe0004dd	-0.12501855
124	0x3cc7f198	0.024407193
125	0xbc4ded37	-0.012568763
126	0xbc88007e	-0.016601797
127	0xbccf1e1f	-0.025282918
128	0xbda9852d	-0.082773544
129	0xbd654c74	-0.055981115
130	0x3a961aff	0.0011452137
131	0xbdca81d8	-0.09888047
132	0x3d128b52	0.035777397
133	0x3b75052e	0.003738712
134	0xbd1bce34	-0.038038447
135	0x3deda54a	0.11603792
136	0xbcc939c5	-0.02456368
137	0xbd8d1d8b	-0.068904005
138	0xbd63e541	-0.055638555
139	0x3dca5b50	0.09880698
140	0x3d26dce5	0.040738005
141	0x3d2b0542	0.04175306
142	0xbe0022c0	-0.12513256
143	0xba02b5c1	-0.000498619
144	0xbdc3e8db	-0.09565898
145	0x3cfe4b9a	0.031041909
146	0x3d886b51	0.06661094
147	0xbc783a38	-0.015150599
148	0xbcc6870a	-0.024234314
149	0x3d68af06	0.05680754

model.gru.bias_hh_l0 f4 [150]
0	0xbdaec925	-0.08534459
1	0x3d1faef4	0.038985208
2	0x3d9ee1e7	0.07757931
3	0xba88c3ae	-0.0010434294
4	0x3ddd1f66	0.107970044
5	0x3c9143e7	0.017732574
6	0x3cb98626	0.022646975
7	0x3e0de064	0.1385513
8	0xbe42bd29	-0.19017471
9	0x3e08ead6	0.13370833
10	0xbd5b29e4	-0.053506747
11	0x3ca7726c	0.020440303
12	0xbdf8c87f	-0.121476166
13	0xba030e9d	-0.0004999431
14	0x3d8a1371	0.067419894
15	0x3e2c29a7	0.16812764
16	0x3df21fdc	0.11822483
17	0xbd857907	-0.06517225
18	0x3b0ed938	0.0021796953
19	0x3dae77d8	0.08518952
20	0xbde3d1ae	-0.111239776
21	0x3ce07b67	0.027402593
22	0x3dfa30f8	0.12216371
23	0x3ccc2347	0.024919165
24	0xbe206bbe	-0.156661
25	0xbe5666c7	-0.20937644
26	0xbd00ba15	-0.03142746
27	0xbe49507a	-0.19659606
28	0x3d865112	0.06558432
29	0x3d62bd6a	0.05535642
30	0x3ca5b29e	0.020226773
31	0xbe53c3cb	-0.20680158
32	0x3e5671cc	0.20941848
33	0xbe3ddb3e	-0.18540666
34	0x3e9609f4	0.2930447
35	0xbd4cf088	-0.050034076
36	0xbda36d92	-0.07979883
37	0xbdf52492	-0.11969866
38	0xbe360e0b	-0.17778794
39	0x3cdd2f87	0.027000202
40	0x3e075619	0.13216437
41	0xbd8ccc59	-0.06874914
42	0x3e036c92	0.12834385
43	0xbe0d91b6	-0.13825116
44	0xbd7519f0	-0.05983919
45	0x3c64bbfe	0.013960836
46	0x3d2858b4	0.04110022
47	0xbca63be5	-0.020292232
48	0xbd8f9ac6	-0.070119426
49	0x3db5f9ad	0.088855125
50	0x3e2c6555	0.1683553
51	0x3e7b229c	0.24524921
52	0xbcfeb640	-0.031092763
53	0x3c9a0f18	0.018806025
54	0x3e48bd83	0.19603543
55	0x3df411a6	0.11917429
56	0x3d35e099	0.044403646
57	0x3dd5703d	0.104217984
58	0xbd551222	-0.052019246
59	0x3d9b354c	0.07578525
60	0xbdae6621	-0.08515573
61	0x3e005ae5	0.12534674
62	0xbcb7b508	-0.02242519
63	0xbcd5921e	-0.02607065
64	0x3dd2b817	0.102890186
65	0xbde46ca0	-0.11153531
66	0xbd179ddb	-0.037015777
67	0xbc8805bf	-0.016604302
68	0x3d7776a0	0.060415864
69	0xbd55174f	-0.052024182
70	0x3e335f99	0.17516936
71	0x3e074655	0.13210423
72	0x3d76c6f5	0.060248334
73	0x3e03f9a4	0.12888199
74	0xbc296bf9	-0.010340684
75	0x3b2607c8	0.0025334228
76	0xbda067f9	-0.07832331
77	0xbd66c001	-0.056335453
78	0x3deb7612	0.114971295
79	0x3e004d57	0.12529503
80	0x3e1ffa5d	0.1562285
81	0x3d9275fd	0.07151411
82	0x3d008bd6	0.031383358
83	0x3d1a7073	0.037704896
84	0xbda8f691	-0.08250154
85	0xbce6be52	-0.028166924
86	0x3d7faaa5	0.0624186
87	0x3b922162	0.004459546
88	0x3e1f99e6	0.15586051
89	0x3cf84f14	0.030311145
90	0x3e2dae98	0.16961133
91	0x3e2dc0ef	0.1696813
92	0x394402e0	0.00018693088
93	0xbd9efb67	-0.07762795
94	0x3e21b2e9	0.15790905
95	0xbda5ae12	-0.08089842
96	0x3de34e56	0.11098926
97	0xbd80b7fd	-0.06285093
98	0x3e065f0e	0.13122198
99	0x3e16013c	0.14648908
100	0xbd6982d0	-0.05700952
101	0x3d61484c	0.05500059
102	0xbd97e0c9	-0.07415921
103	0x3d6976b5	0.056997973
104	0xbd360c04	-0.044445053
105	0xbbaac4fb	-0.00521147
106	0xbaf5895f	-0.0018732956
107	0x3dd95ea5	0.10613755
108	0xbd83c45d	-0.06433938
109	0x3d9624d4	0.07331243
110	0xbc245f6e	-0.010032518
111	0x3dbbdc90	0.09172928
112	0x3d5758a7	0.05257478
113	0xbccab131	-0.024742695
114	0xbc4eec94	-0.012629647
115	0x3d797527	0.06090274
116	0x3ddd8d2f	0.10817944
117	0x3d9d2872	0.0767373
118	0x3e154d45	0.14580257
119	0xbdb07088	-0.08615214
120	0x3bfa526d	0.0076392205
121	0x3ca1fa6d	0.019772733
122	0xbda043d0	-0.07825434
123	0x3dfcc97b	0.12343117
124	0xbc8670b5	-0.016411165
125	0xbd0d3a95	-0.034479696
126	0x3d1e4195	0.038636763
127	0x3d733235	0.059374053
128	0x3e1f3147	0.15546142
129	0x3dc64f31	0.09683073
130	0x3cc295de	0.023753103
131	0xbdc9fac8	-0.09862286
132	0xbd63bf53	-0.055602383
133	0xbd83f996	-0.06444089
134	0xbd2dce03	-0.042432796
135	0xbd8c2122	-0.06842257
136	0x3cd1fe11	0.025633844
137	0xbd65eb01	-0.05613232
138	0x3c4b1e6a	0.012397388
139	0xbe08beb4	-0.13353997
140	0x3d12f590	0.035878718
141	0xbdc47eb5	-0.0959448
142	0x3d044133	0.03228874
143	0xbd670fae	-0.056411438
144	0x3d801ac9	0.06255109
145	0xbca19a8e	-0.019727018
146	0x3d0d9dc6	0.034574293
147	0xbb1b327b	-0.0023681212
148	0x3cb77577	0.022394879
149	0xbe08de9b	-0.13366167

model.fc.weight f4 [1, 50]
0	0xbd181deb	-0.037137907
1	0x3a67c38d	0.000884109
2	0xbbe54803	-0.00699711
3	0x3b9c5709	0.0047711176
4	0x3c582747	0.013192958
5	0x3bcb519a	0.006204796
6	0x3b64ce12	0.0034912867
7	0x3b95c605	0.004570725
8	0x3c4cc1cd	0.012497378
9	0xbbbede34	-0.0058248285
10	0xbc3254bd	-0.010884461
11	0x3c48d59e	0.012257962
12	0xbb137746	-0.0022501512
13	0xbc07e5ba	-0.008294517
14	0xbb3e219a	-0.0029011727
15	0xbc856753	-0.01628462
16	0xba8f5b2a	-0.0010937203
17	0x3a0814e8	0.00051911036
18	0x3c83189d	0.016002947
19	0x3c105a6a	0.008810619
20	0xbcffc136	-0.03122006
21	0x3c1f8423	0.009736094
22	0xbbb8f638	-0.005644586
23	0xbc8b3079	-0.016990887
24	0x3b72cb92	0.0037047607
25	0x3c162f68	0.009166576
26	0xbb7744aa	-0.0037730136
27	0xbc1c9bd3	-0.009558636
28	0x3b8b6d41	0.0042549674
29	0xbc02cf2d	-0.007983965
30	0x3ba33545	0.0049807155
31	0xbcf53dcf	-0.0299367
32	0xb8af2e13	-8.353232e-05
33	0xbbd4d375	-0.006494934
34	0xbbb9e822	-0.0056734243
35	0x3c89312f	0.016747085
36	0xbc9e5c15	-0.019331018
37	0xbcad16a5	-0.021128962
38	0x3c59ce38	0.013293795
39	0x3baf2816	0.005345355
40	0x3c836bff	0.016042707
41	0xbb950728	-0.004547972
42	0xbd012ca9	-0.031536732
43	0x3b35052f	0.0027621498
44	0xbbc6cb88	-0.0060667433
45	0xbc5c0cff	-0.013430833
46	0x3c0f0a0e	0.008730425
47	0xbc3910eb	-0.011295537
48	0x3b7fd5a9	0.0039037263
49	0xbbe16175	-0.006878073

exp_avg f4 [150, 22]
0	0x36c8e1a2	5.9867316e-06
1	0x374602c9	1.1802368e-05
2	0x37141c8e	8.828136e-06
3	0xb677a2f2	-3.6900715e-06
4	0xb5a0d855	-1.198389e-06
5	0xb8276c35	-3.991668e-05
6	0x37a93af1	2.0173817e-05
7	0xb7df215c	-2.6599206e-05
8	0xb616445e	-2.2391537e-06
9	0xb73579dc	-1.0816813e-05
10	0xb70bd385	-8.334294e-06
11	0xb643fd88	-2.920484e-06
12	0x3654c361	3.1704187e-06
13	0x3700dfdf	7.681519e-06
14	0xb80f98f0	-3.423629e-05
15	0x36e608c3	6.855554e-06
16	0x00000000	0.0
17	0x364518b0	2.9369658e-06
18	0x36e9ad79	6.964136e-06
19	0x3535ab81	6.7677325e-07
20	0x00000000	0.0
21	0xb70c2a54	-8.354506e-06
22	0x349a12d1	2.8698426e-07
23	0xb2f55254	-2.8559192e-08
24	0x35d2e174	1.5711835e-06
25	0xb4ad973a	-3.2333793e-07
26	0xb55bc053	-8.1863726e-07
27	0xb63c6ae7	-2.8076408e-06
28	0xb4097f9d	-1.2805545e-07
29	0xb5d389b9	-1.5760808e-06
30	0xb54b6bd4	-7.5780304e-07
31	0x350090a0	4.7894173e-07
32	0xb4f22a99	-4.5107006e-07
33	0x34ef93e4	4.4624824e-07
34	0x35020680	4.843823e-07
35	0xb4209954	-1.4956942e-07
36	0xb60b3f6a	-2.0749526e-06
37	0xb497ef15	-2.8299897e-07
38	0x00000000	0.0
39	0x35464e08	7.38743e-07
40	0x34b5b147	3.3842863e-07
41	0xb378582e	-5.78222e-08
42	0x00000000	0.0
43	0xb494bff8	-2.7706824e-07
44	0xb58a34f4	-1.0297213e-06
45	0xb586bde8	-1.0039048e-06
46	0x36b3f4ab	5.363099e-06
47	0xb6778703	-3.6884455e-06
48	0xb52e2ee4	-6.4888286e-07
49	0xb74948ab	-1.1997453e-05
50	0x361b78a6	2.3167026e-06
51	0xb5d1afea	-1.5622911e-06
52	0xb50639a6	-5.000278e-07
53	0x36589b3c	3.2276866e-06
54	0xb6fd2fe1	-7.5455614e-06
55	0x34b4b696	3.3660461e-07
56	0x361dadc1	2.3495961e-06
57	0xb6ea8e70	-6.9903253e-06
58	0xb71eb4c3	-9.459621e-06
59	0xb62e1f12	-2.5946106e-06
60	0x00000000	0.0
61	0x35f43487	1.8194704e-06
62	0x3525a43a	6.170627e-07
63	0x359c4af8	1.1644725e-06
64	0x00000000	0.0
65	0xb621d11b	-2.4112585e-06
66	0x35cb04ce	1.5126077e-06
67	0xb5b46043	-1.3439061e-06
68	0xb5968b3b	-1.1216392e-06
69	0x362c7b0a	2.5701615e-06
70	0x350e0a57	5.291417e-07
71	0x360789a7	2.0196692e-06
72	0x3689133a	4.0851564e-06
73	0x364e5566	3.07461e-06
74	0x35d6ebd9	1.6012883e-06
75	0x34b52815	3.374304e-07
76	0x35a5f926	1.236597e-06
77	0x35dcdcf6	1.6455585e-06
78	0x3430c3f7	1.6462569e-07
79	0x361b57ba	2.3147863e-06
80	0x35c84e69	1.4923982e-06
81	0xb536191e	-6.7836834e-07
82	0x00000000	0.0
83	0xb59f2774	-1.1857906e-06
84	0xb543ab99	-7.289287e-07
85	0x33821465	6.0573065e-08
86	0x00000000	0.0
87	0x3537118b	6.819834e-07
88	0x3709b2dd	8.207481e-06
89	0x36865639	4.003549e-06
90	0xb61a2402	-2.2968748e-06
91	0x31e2614d	6.5885275e-09
92	0x36965c23	4.4810745e-06
93	0xb442acf5	-1.813058e-07
94	0xb4ccf84a	-3.8178615e-07
95	0x368fb1e0	4.2824395e-06
96	0x36f5bef0	7.323797e-06
97	0x354e6758	7.6891365e-07
98	0x370bae12	8.3255745e-06
99	0x35fed193	1.8985469e-06
100	0xb625814c	-2.4662177e-06
101	0x375b8009	1.3083228e-05
102	0xb5b85f1d	-1.373675e-06
103	0x359c28a9	1.1634739e-06
104	0x00000000	0.0
105	0x353c0e65	7.0056404e-07
106	0xb507a577	-5.05322e-07
107	0xb4b91c05	-3.4479322e-07
108	0x00000000	0.0
109	0x36fbbb63	7.5021976e-06
110	0x36cc6e45	6.092511e-06
111	0x35bfc9b2	1.428931e-06
112	0x3530cac9	6.58602e-07
113	0x35646f13	8.5098253e-07
114	0x3621f385	2.4132617e-06
115	0xb6a719c5	-4.979988e-06
116	0x3624b15d	2.4541143e-06
117	0x3287c1a4	1.5804126e-08
118	0x3649c5a6	3.006638e-06
119	0xb5d34938	-1.5742035e-06
120	0x350f92ed	5.3485456e-07
121	0xb516574e	-5.60064e-07
122	0xb6715b40	-3.5964913e-06
123	0x36e4c5af	6.817943e-06
124	0xb6a0c8fd	-4.7917697e-06
125	0x35037dc7	4.8984333e-07
126	0x00000000	0.0
127	0x35f72f0c	1.8416627e-06
128	0x357ba7a5	9.374874e-07
129	0xb5dd9936	-1.6510373e-06
130	0x00000000	0.0
131	0x36320ef4	2.653277e-06
132	0xb60df785	-2.1154713e-06
133	0xb67369c1	-3.6271379e-06
134	0x36086fbc	2.0330617e-06
135	0xb48aa2ea	-2.582304e-07
136	0xb5d1285c	-1.558346e-06
137	0xb6915ef5	-4.332391e-06
138	0x35d1dd41	1.5636107e-06
139	0x352e38e0	6.4902815e-07
140	0xb5c02c7b	-1.431806e-06
141	0xb5a6b1a2	-1.2419662e-06
142	0xb59f749b	-1.188036e-06
143	0x356a4e7e	8.7286014e-07
144	0xb5a8db24	-1.2580754e-06
145	0x3628c294	2.514721e-06
146	0xb6545ca7	-3.1644392e-06
147	0xb5bf71d6	-1.426374e-06
148	0x00000000	0.0
149	0x35e71299	1.7216254e-06
150	0x3584977a	9.878852e-07
151	0x34818165	2.412227e-07
152	0x00000000	0.0
153	0x35a2f30f	1.214068e-06
154	0x3583beda	9.815806e-07
155	0x34bec4dd	3.5533495e-07
156	0x356dff6e	8.866108e-07
157	0xb4f7cac9	-4.615488e-07
158	0xb33588d1	-4.226678e-08
159	0xb5e2acf9	-1.6888654e-06
160	0x3593af5b	1.1003389e-06
161	0xb5bc7988	-1.4042462e-06
162	0x353d1fcd	7.0454263e-07
163	0x36972c00	4.505273e-06
164	0x3682e52b	3.9009806e-06
165	0x350f473f	5.337533e-07
166	0xb2486b9f	-1.1666002e-08
167	0x358d8d6b	1.0546477e-06
168	0xb5abc328	-1.2797291e-06
169	0x34a6b9e3	3.105516e-07
170	0x00000000	0.0
171	0x35931b96	1.0960382e-06
172	0x3441ad7a	1.8037636e-07
173	0x35a97977	1.2626832e-06
174	0x00000000	0.0
175	0xb4cd84b2	-3.8280774e-07
176	0x36d05c9f	6.2096656e-06
177	0x361de3bb	2.352738e-06
178	0x34f12e05	4.4923232e-07
179	0xb66f55fe	-3.566383e-06
180	0x364e4d20	3.0741285e-06
181	0xb63c8139	-2.80894e-06
182	0x36397a1a	2.763822e-06
183	0xb4dffd58	-4.172132e-07
184	0x366795a9	3.4508796e-06
185	0xb3e8c593	-1.08392804e-07
186	0x36624928	3.3719207e-06
187	0xb6c601c3	-5.901065e-06
188	0xb6a87f19	-5.0215863e-06
189	0x362496a3	2.4525586e-06
190	0xb62bd085	-2.560236e-06
191	0x368195f7	3.861958e-06
192	0x00000000	0.0
193	0xb532b3d2	-6.657184e-07
194	0xb5e59174	-1.7104162e-06
195	0xb4b91ecb	-3.448134e-07
196	0x00000000	0.0
197	0x3655436e	3.1778723e-06
198	0x36894e7c	4.092055e-06
199	0x35dd14b2	1.6471806e-06
200	0x3665ce0f	3.42436e-06
201	0x35f0627e	1.7910058e-06
202	0x365b4cbc	3.2678208e-06
203	0x3500c336	4.7967785e-07
204	0xb5e08c95	-1.6730215e-06
205	0x3419804d	1.4295911e-07
206	0xb61fe38f	-2.3825303e-06
207	0x358c8201	1.0468649e-06
208	0x3604fb68	1.981587e-06
209	0x3419635f	1.4285386e-07
210	0xb6ec63a1	-7.0449464e-06
211	0x3691c1e4	4.3439086e-06
212	0x3600bae0	1.9182262e-06
213	0x3659543b	3.2384548e-06
214	0x00000000	0.0
215	0x36b252ea	5.314466e-06
216	0xb6180045	-2.2649922e-06
217	0x35e783dc	1.7249217e-06
218	0x00000000	0.0
219	0xb667cca4	-3.45408e-06
220	0xb67433da	-3.6389015e-06
221	0xb45006d8	-1.9374e-07
222	0xb662e263	-3.3808399e-06
223	0x36999459	4.5770253e-06
224	0x358b4b57	1.0378234e-06
225	0x363a07a3	2.7720605e-06
226	0xb526c077	-6.211989e-07
227	0x362b81e1	2.5556585e-06
228	0x35c87031	1.4933813e-06
229	0xb4ab6d64	-3.1930824e-07
230	0xb642f1c5	-2.904898e-06
231	0x35a9febb	1.2665618e-06
232	0x35c1cdff	1.4439573e-06
233	0xb690b3f4	-4.3124837e-06
234	0x35ba3751	1.3874179e-06
235	0xb50564b4	-4.9692903e-07
236	0x00000000	0.0
237	0x33ae89ba	8.127559e-08
238	0x345abb10	2.0370885e-07
239	0xb41c6603	-1.4565744e-07
240	0x00000000	0.0
241	0xb6975e28	-4.511112e-06
242	0x3593bace	1.1006721e-06
243	0xb55d8748	-8.2525776e-07
244	0x355769d6	8.0247753e-07
245	0x36037412	1.9588083e-06
246	0x34bf5f2b	3.5645766e-07
247	0xb6e78f64	-6.9010293e-06
248	0x369c8c80	4.6655186e-06
249	0xb6db64b3	-6.5384315e-06
250	0xb561f1c8	-8.417087e-07
251	0x35d5a626	1.5918092e-06
252	0x36021f79	1.938983e-06
253	0x37122374	8.710533e-06
254	0xb6288f26	-2.5117274e-06
255	0x3677c528	3.6920628e-06

exp_avg_sq f4 [150, 22]
0	0x325f1f2c	1.2987396e-08
1	0x31cd05fb	5.966965e-09
2	0x3199478e	4.461021e-09
3	0x3238135f	1.0714614e-08
4	0x31ab6e3d	4.9892876e-09
5	0x32e37694	2.6480201e-08
6	0x32887295	1.588459e-08
7	0x329464b5	1.7275264e-08
8	0x31a50147	4.8022772e-09
9	0x314b758b	2.9607203e-09
10	0x31a4e287	4.7987814e-09
11	0x320f37d0	8.336386e-09
12	0x32507f4b	1.21361365e-08
13	0x31a5315c	4.8077435e-09
14	0x32c0fd03	2.2466798e-08
15	0x31eb8522	6.8545356e-09
16	0x00000000	0.0
17	0x3130154d	2.562348e-09
18	0x3109ef01	2.0071982e-09
19	0x316518dd	3.333802e-09
20	0x00000000	0.0
21	0x314fa89a	3.0218303e-09
22	0x2ef6a863	1.1216696e-10
23	0x2e16b1bd	3.4263915e-11
24	0x2e9f1906	7.234928e-11
25	0x2e83cd2e	5.9936375e-11
26	0x2ef049c8	1.09270426e-10
27	0x2febc8f1	4.2889028e-10
28	0x300d006f	5.129612e-10
29	0x2e9a80eb	7.0260096e-11
30	0x2edc5359	1.0019247e-10
31	0x2e6dc446	5.4061887e-11
32	0x2e4bc50f	4.633188e-11
33	0x2eb01b33	8.008385e-11
34	0x2e9d037c	7.1401524e-11
35	0x2e1d385a	3.5747717e-11
36	0x2fbff8e0	3.4919534e-10
37	0x2e432800	4.4373394e-11
38	0x00000000	0.0
39	0x2e15b6eb	3.404114e-11
40	0x2d94f132	1.6932764e-11
41	0x2d7ab9c0	1.42520995e-11
42	0x00000000	0.0
43	0x2db814df	2.0927647e-11
44	0x30739222	8.861055e-10
45	0x30f593ef	1.7868141e-09
46	0x2fe79c31	4.2129636e-10
47	0x30a60733	1.2080136e-09
48	0x2fd52eaf	3.8777645e-10
49	0x311e6bc7	2.305329e-09
50	0x305b302c	7.974019e-10
51	0x2fef7044	4.3553616e-10
52	0x2fcba285	3.7040962e-10
53	0x2f074130	1.2301338e-10
54	0x30a0b3d9	1.1692648e-09
55	0x3097b101	1.1037004e-09
56	0x301536f8	5.4284e-10
57	0x30fc05fa	1.8337112e-09
58	0x310ed303	2.0783666e-09
59	0x30ba36ce	1.3548858e-09
60	0x00000000	0.0
61	0x2fdddf24	4.0358217e-10
62	0x2f51bd0e	1.9075605e-10
63	0x2f92ebc2	2.672476e-10
64	0x00000000	0.0
65	0x3009d813	5.014737e-10
66	0x2f72b528	2.2074131e-10
67	0x2f7f736d	2.3233122e-10
68	0x2fc5a1d5	3.594908e-10
69	0x2f72c253	2.207881e-10
70	0x2f7002a4	2.1828811e-10
71	0x300923a1	4.989094e-10
72	0x30faf28b	1.8258829e-09
73	0x3083d1cd	9.591133e-10
74	0x2fd04dfa	3.7890385e-10
75	0x2eda490b	9.926467e-11
76	0x2f960b24	2.7292757e-10
77	0x2f8adba8	2.525813e-10
78	0x2f440a6a	1.7829796e-10
79	0x2f8ab51e	2.5230745e-10
80	0x2fdc6ef1	4.0096595e-10
81	0x2f8737ce	2.4596009e-10
82	0x00000000	0.0
83	0x2f1cb8f7	1.425383e-10
84	0x2ed071dd	9.478971e-11
85	0x2efc6f7b	1.1479436e-10
86	0x00000000	0.0
87	0x2f2cef08	1.572823e-10
88	0x30a49f7b	1.1977898e-09
89	0x2fb7c1ed	3.34253e-10
90	0x2ff3aa7e	4.4322584e-10
91	0x2ffa286b	4.5503454e-10
92	0x3021d91a	5.887998e-10
93	0x3055412a	7.758155e-10
94	0x309bf7fd	1.1348217e-09
95	0x2fed6f7e	4.318927e-10
96	0x300993ee	5.005053e-10
97	0x2e5693e5	4.8789323e-11
98	0x309f462c	1.1588717e-09
99	0x2f9a8ca7	2.8112376e-10
100	0x30974fdc	1.1009393e-09
101	0x31238cd8	2.3799682e-09
102	0x302f741a	6.382962e-10
103	0x3001bf8c	4.720213e-10
104	0x00000000	0.0
105	0x2f99d1e3	2.797967e-10
106	0x2f913151	2.6410388e-10
107	0x2fd23830	3.82387e-10
108	0x00000000	0.0
109	0x30cf7293	1.5093796e-09
110	0x3007fdd1	4.947341e-10
111	0x2ff67942	4.4833298e-10
112	0x300cf453	5.127891e-10
113	0x2efe2327	1.1556827e-10
114	0x2f5aee70	1.9911695e-10
115	0x31048d64	1.92889e-09
116	0x2f3bc21c	1.7076512e-10
117	0x2eed472e	1.0790156e-10
118	0x2f536538	1.9226298e-10
119	0x2dacb8c9	1.9636197e-11
120	0x2f671813	2.101788e-10
121	0x2f5505d8	1.9374313e-10
122	0x2f59836d	1.9782727e-10
123	0x302fe3f5	6.3988576e-10
124	0x31115ceb	2.1153095e-09
125	0x2f272fbe	1.5205523e-10
126	0x00000000	0.0
127	0x2ec98cc7	9.165429e-11
128	0x2e1f45a7	3.6214278e-11
129	0x2df9bb87	2.8391301e-11
130	0x00000000	0.0
131	0x2f136a46	1.3407328e-10
132	0x30b68313	1.3279496e-09
133	0x2f991328	2.784415e-10
134	0x2fb3e284	3.272086e-10
135	0x2f35d9fa	1.6539295e-10
136	0x2fe91543	4.239756e-10
137	0x30e3a264	1.6562578e-09
138	0x2f9191b7	2.6478883e-10
139	0x2f98d6e9	2.7801342e-10
140	0x2fd42132	3.8586162e-10
141	0x2f502b4f	1.8932876e-10
142	0x301d0f87	5.7138333e-10
143	0x3030db7e	6.4340344e-10
144	0x2f905a2b	2.6257516e-10
145	0x2fc88d13	3.6480027e-10
146	0x309d2a28	1.1435235e-09
147	0x2f573ef6	1.9576504e-10
148	0x00000000	0.0
149	0x2fcc443c	3.7155867e-10
150	0x2f32f2d8	1.6275281e-10
151	0x2f122f4a	1.3295423e-10
152	0x00000000	0.0
153	0x2f824f2a	2.3703112e-10
154	0x300eb79a	5.192021e-10
155	0x2fbf820e	3.4835107e-10
156	0x30ab58fe	1.2467181e-09
157	0x300e8110	5.184271e-10
158	0x31103e91	2.0990323e-09
159	0x308e3b39	1.0348692e-09
160	0x30b924e8	1.3471011e-09
161	0x308b5bdd	1.013969e-09
162	0x310ec492	2.0775457e-09
163	0x2fcadf19	3.6902106e-10
164	0x30b88b77	1.34274e-09
165	0x2fb653e7	3.3165223e-10
166	0x2fd4ec12	3.8730313e-10
167	0x309ed137	1.1555475e-09
168	0x3042f6f2	7.092772e-10
169	0x2fda52ad	3.9712714e-10
170	0x00000000	0.0
171	0x3063a3bb	8.2814794e-10
172	0x2fa6fc72	3.0374597e-10
173	0x2fcce107	3.7267275e-10
174	0x00000000	0.0
175	0x304e0206	7.494524e-10
176	0x30bfe478	1.3962014e-09
177	0x30e3dfd2	1.6580037e-09
178	0x30a32ff7	1.1873443e-09
179	0x3078e205	9.054307e-10
180	0x30d931c7	1.5802976e-09
181	0x31bd024e	5.500886e-09
182	0x30e33c4b	1.653356e-09
183	0x304f599c	7.5433504e-10
184	0x308809d7	9.898099e-10
185	0x2f686ba5	2.113852e-10
186	0x3075236b	8.918081e-10
187	0x305ad896	7.9615725e-10
188	0x3142e6f8	2.8362006e-09
189	0x30cc62be	1.4871018e-09
190	0x31bef991	5.5581e-09
191	0x30b74bc4	1.3336536e-09
192	0x00000000	0.0
193	0x307faf7b	9.301783e-10
194	0x3004052e	4.802868e-10
195	0x3016136d	5.459729e-10
196	0x00000000	0.0
197	0x30af0b77	1.2736184e-09
198	0x30227992	5.910802e-10
199	0x303ee885	6.945203e-10
200	0x309f99c7	1.1612479e-09
201	0x2f772810	2.2478752e-10
202	0x2fc570cf	3.5914247e-10
203	0x30a66d96	1.2109236e-09
204	0x3040da07	7.015903e-10
205	0x2f68d82c	2.1177077e-10
206	0x3083c505	9.587501e-10
207	0x2eaebed3	7.946501e-11
208	0x309f72f1	1.1601441e-09
209	0x30011278	4.695617e-10
210	0x2fbcf42a	3.437049e-10
211	0x300d233f	5.134559e-10
212	0x30ed1026	1.7248609e-09
213	0x300590ff	4.859117e-10
214	0x00000000	0.0
215	0x2faacfa6	3.1070363e-10
216	0x2f559a94	1.9427154e-10
217	0x2f5ced76	2.0093247e-10
218	0x00000000	0.0
219	0x2fac833b	3.1379863e-10
220	0x3081c03d	9.440623e-10
221	0x2f975634	2.752799e-10
222	0x2f8f124e	2.6024555e-10
223	0x2f5985b2	1.9783533e-10
224	0x2f1fae36	1.4522858e-10
225	0x30b987de	1.3499137e-09
226	0x2fcc5f40	3.7175063e-10
227	0x2f2275c4	1.4775653e-10
228	0x2f3f3bf6	1.7392651e-10
229	0x2eb56beb	8.250097e-11
230	0x2edcb65f	1.0036837e-10
231	0x2fb0ceff	3.2161293e-10
232	0x2f83fb55	2.4007343e-10
233	0x2f35bcfa	1.6528992e-10
234	0x30c5d93f	1.4395382e-09
235	0x2fe138de	4.0967668e-10
236	0x00000000	0.0
237	0x2ee1f987	1.02761404e-10
238	0x2eb94ea4	8.4267954e-11
239	0x2ec17d93	8.79893e-11
240	0x00000000	0.0
241	0x2e95493f	6.7887466e-11
242	0x300316b5	4.768979e-10
243	0x302b1d7d	6.2251343e-10
244	0x2f8770aa	2.463641e-10
245	0x2fc1281c	3.5134995e-10
246	0x2f84bd35	2.41451e-10
247	0x302967cb	6.162934e-10
248	0x304f6154	7.5444473e-10
249	0x2fc72c74	3.6229475e-10
250	0x2f9b718a	2.827501e-10
251	0x2f3d5067	1.7218015e-10
252	0x2fa3145f	2.9664002e-10
253	0x2fad2d08	3.1500513e-10
254	0x2f437a02	1.7778493e-10
255	0x2fa49513	2.993735e-10

exp_avg f4 [150, 50]
0	0x35bfc64e	1.4288323e-06
1	0xb636fae0	-2.7266142e-06
2	0xb5bc335c	-1.4022039e-06
3	0xb58bb6a2	-1.040946e-06
4	0x360bc00f	2.0824407e-06
5	0x34d6a4b8	3.9980455e-07
6	0x352f80e7	6.538016e-07
7	0x3512fc0f	5.475603e-07
8	0x3683025c	3.904379e-06
9	0x3657bb4c	3.2146518e-06
10	0xb45094cb	-1.942564e-07
11	0xb5dc8dd7	-1.6432558e-06
12	0xb571c2a2	-9.0062724e-07
13	0x34ed80bd	4.423836e-07
14	0x367ba2df	3.7496718e-06
15	0x35db608a	1.6344868e-06
16	0xb659df5b	-3.246553e-06
17	0xb62bcd66	-2.5600543e-06
18	0xb6f066b9	-7.164516e-06
19	0xb69d1700	-4.681642e-06
20	0x35da5541	1.6267078e-06
21	0xb52ad0b6	-6.363365e-07
22	0xb530ffeb	-6.593752e-07
23	0xb617565d	-2.2551023e-06
24	0xb61d61ff	-2.3451864e-06
25	0xb6828db0	-3.8907965e-06
26	0xb422ba00	-1.5155092e-07
27	0xb4926cef	-2.727388e-07
28	0xb520ab2a	-5.985372e-07
29	0xb5b94303	-1.3803077e-06
30	0xb4dbad33	-4.0917948e-07
31	0x34ad8568	3.2320827e-07
32	0xb69fd207	-4.7630197e-06
33	0x36b1d334	5.2995983e-06
34	0xb551bb77	-7.8131364e-07
35	0xb6c01326	-5.724275e-06
36	0x36c10513	5.752439e-06
37	0x3680e8d6	3.841803e-06
38	0x3610df54	2.1587666e-06
39	0x36141fa4	2.2072136e-06
40	0x350c74ea	5.2324197e-07
41	0x3531f0a3	6.628781e-07
42	0xb6840e31	-3.9355587e-06
43	0xb692d301	-4.375703e-06
44	0x3520a444	5.984368e-07
45	0x367fcf69	3.811869e-06
46	0xb6dc0a8a	-6.557738e-06
47	0x33bdc588	8.836929e-08
48	0xb69a5f0b	-4.600622e-06
49	0x36805f5b	3.825798e-06
50	0x34f952b5	4.6440042e-07
51	0xb44450d6	-1.828333e-07
52	0x34159f20	1.3934596e-07
53	0xb42c196b	-1.6027995e-07
54	0x3326ae61	3.8808484e-08
55	0xb2335a4e	-1.0439704e-08
56	0x340470f3	1.2334549e-07
57	0xb3d13124	-9.7412595e-08
58	0x341448be	1.3810038e-07
59	0x340a0f4b	1.2857815e-07
60	0x33a09141	7.477002e-08
61	0xb4a11e94	-3.0010835e-07
62	0xb3d62fd1	-9.973849e-08
63	0x33c21c45	9.038971e-08
64	0x348059a9	2.3907094e-07
65	0x33e18e49	1.05032605e-07
66	0xb4696936	-2.1738092e-07
67	0xb4556428	-1.9873607e-07
68	0xb5086995	-5.081759e-07
69	0xb4819a1c	-2.4140252e-07
70	0xb3f7b253	-1.1534271e-07
71	0xb4998d67	-2.8601355e-07
72	0x33b75334	8.536736e-08
73	0xb4db1bd8	-4.0812188e-07
74	0xb44ba2f2	-1.8965127e-07
75	0x3131c552	2.5869054e-09
76	0x33d8c8bf	1.0094799e-07
77	0xb293fcc0	-1.722799e-08
78	0xb3792778	-5.8010727e-08
79	0xb40ca81f	-1.3099678e-07
80	0xb40861d2	-1.2701574e-07
81	0x32bc2d70	2.1906743e-08
82	0xb4b01d93	-3.2804073e-07
83	0x343d3f89	1.762511e-07
84	0xb303827e	-3.0619496e-08
85	0xb4d678dd	-3.9948546e-07
86	0x34c42e09	3.654134e-07
87	0x345085ed	1.9420231e-07
88	0x331bb9d4	3.625776e-08
89	0x32b2df93	2.0823597e-08
90	0xb42dd732	-1.6190168e-07
91	0xb2c1310e	-2.2490465e-08
92	0x336c51d3	5.502245e-08
93	0xb4932509	-2.740783e-07
94	0xb3dc288c	-1.0251924e-07
95	0x3470ab27	2.2414007e-07
96	0xb486f480	-2.5137342e-07
97	0x339dbe57	7.345505e-08
98	0xb438cf38	-1.7211721e-07
99	0x3496cfe5	2.809094e-07
100	0x359be2f1	1.1614449e-06
101	0x3495bb3c	2.7889644e-07
102	0x34c05d01	3.5830456e-07
103	0xb3d052cf	-9.7008176e-08
104	0xb4db0a18	-4.0799273e-07
105	0xb480a1c6	-2.3959564e-07
106	0xb439b049	-1.72936e-07
107	0x342fc844	1.6371001e-07
108	0x3557991c	8.0316545e-07
109	0x35300108	6.556661e-07
110	0x35a1a608	1.2043756e-06
111	0x3534f103	6.7405944e-07
112	0xb3d053f9	-9.701029e-08
113	0x3515da68	5.582465e-07
114	0x35b37523	1.337063e-06
115	0xb4cd2bd6	-3.821612e-07
116	0xb4ef3552	-4.4556015e-07
117	0xb5aaa645	-1.2714378e-06
118	0xb5f7a51c	-1.8450987e-06
119	0xb582e81c	-9.753307e-07
120	0xb55cb1a1	-8.221487e-07
121	0xb500cfd7	-4.798616e-07
122	0x34d651cd	3.9920124e-07
123	0xb6295692	-2.5233353e-06
124	0xb544ca4e	-7.331008e-07
125	0xb400c0d6	-1.1991082e-07
126	0xb42f9175	-1.6351062e-07
127	0xb4d1d389	-3.9083196e-07
128	0xb5548477	-7.9168916e-07
129	0x34db1c80	4.0812665e-07
130	0xb50b5c69	-5.191601e-07
131	0x3529ef62	6.3305754e-07
132	0xb56275a4	-8.436275e-07
133	0x35e6eb9a	1.7204904e-06
134	0x3500c7d4	4.7974504e-07
135	0xb611f2cc	-2.174801e-06
136	0x348c7a38	2.6165958e-07
137	0x3608c844	2.038215e-06
138	0x3483ba29	2.45361e-07
139	0x32b0f505	2.0600519e-08
140	0xb5b3109a	-1.3341371e-06
141	0xb58785a6	-1.0097181e-06
142	0xb531a05d	-6.6171e-07
143	0xb6206ac4	-2.3904004e-06
144	0x33b0bbc0	8.22979e-08
145	0x3632617a	2.6580806e-06
146	0xb48e09ef	-2.645679e-07
147	0x352e6bd5	6.497697e-07
148	0xb5bdc837	-1.4139868e-06
149	0x35800769	9.5389e-07
150	0xb58dda35	-1.0568825e-06
151	0x3460f4e4	2.0950716e-07
152	0xb353c874	-4.9309577e-08
153	0x35074bab	5.040153e-07
154	0x3557d984	8.041027e-07
155	0xb356e436	-5.0033314e-08
156	0xb3fccfe4	-1.17724795e-07
157	0xb44e40ed	-1.9208865e-07
158	0xb3c15966	-9.003524e-08
159	0xb4a3febc	-3.054646e-07
160	0xb51b50b2	-5.7859427e-07
161	0x34b750d9	3.414523e-07
162	0xb44a1355	-1.8819749e-07
163	0xb5109f1c	-5.3875715e-07
164	0x33903efb	6.7169786e-08
165	0xb3d3acab	-9.856861e-08
166	0x34a90a1a	3.1486053e-07
167	0x3174cf40	3.5624481e-09
168	0x3466bd8c	2.1489376e-07
169	0xb2b563ab	-2.1116497e-08
170	0x35259d13	6.1695863e-07
171	0xb3260564	-3.865479e-08
172	0xb00d96bc	-5.150971e-10
173	0x353d7890	7.058343e-07
174	0x3444f257	1.8342085e-07
175	0xb4f37ba5	-4.535224e-07
176	0xb4fba652	-4.6873407e-07
177	0xb486dc03	-2.5119525e-07
178	0xb4a45fc8	-3.061707e-07
179	0xb3e82696	-1.08103606e-07
180	0x33f8e109	1.15893336e-07
181	0x346b9e32	2.1943632e-07
182	0x3355afa4	4.975267e-08
183	0xb4e38263	-4.2376914e-07
184	0x330244b4	3.033047e-08
185	0x34fd4e09	4.71817e-07
186	0x3406b2d6	1.2544783e-07
187	0x3466979f	2.1475579e-07
188	0xb39d5432	-7.326197e-08
189	0x34edc339	4.4286733e-07
190	0x345838cd	2.0137232e-07
191	0x32d1aa41	2.4408225e-08
192	0xb295399d	-1.7372082e-08
193	0xb4e6344c	-4.287889e-07
194	0x34cb2338	3.7837322e-07
195	0xb50bea6b	-5.212266e-07
196	0xb400759e	-1.1963718e-07
197	0x34611b3c	2.0964666e-07
198	0xb4ad1a99	-3.2243113e-07
199	0xb2e6d47f	-2.6872156e-08
200	0xb5b7c74f	-1.3692569e-06
201	0xb5965157	-1.1199544e-06
202	0x3525b154	6.1725336e-07
203	0x35253b30	6.155342e-07
204	0xb4f58493	-4.5731267e-07
205	0xb2ce6946	-2.402943e-08
206	0x34c4aa33	3.663168e-07
207	0xb53e3c16	-7.086795e-07
208	0x34b64420	3.394971e-07
209	0xb5a29fbe	-1.2116432e-06
210	0xb5d6c862	-1.6002562e-06
211	0xb653644a	-3.1499826e-06
212	0xb571bd3f	-9.0054886e-07
213	0xb5f41ab6	-1.818719e-06
214	0x34b424f4	3.35545e-07
215	0x35993080	1.1413504e-06
216	0x3505a825	4.9791043e-07
217	0x35c7088d	1.4829144e-06
218	0xb3f1392e	-1.1232838e-07
219	0xb4b6b1dc	-3.4029551e-07
220	0x3665c358	3.4237364e-06
221	0xb58f2931	-1.0666319e-06
222	0x35557df1	7.953195e-07
223	0x334096a0	4.4840476e-08
224	0x331be835	3.629994e-08
225	0x347b0b5a	2.3380326e-07
226	0x32f6ba99	2.8723024e-08
227	0x35afd74d	1.3101177e-06
228	0x3358799f	5.0402033e-08
229	0xb5cf1455	-1.5428619e-06
230	0xb53e6983	-7.0934055e-07
231	0x34884de7	2.5388655e-07
232	0xb4e59f7a	-4.2770608e-07
233	0xb3e317f9	-1.0574872e-07
234	0xb53cca1c	-7.0329565e-07
235	0x34411d6b	1.7985228e-07
236	0x35c3a29b	1.4575957e-06
237	0xb51a4b4d	-5.747905e-07
238	0xb48ce7bf	-2.624565e-07
239	0x35b84b59	1.3730997e-06
240	0x352628c3	6.1899135e-07
241	0x34dfcbcb	4.1685266e-07
242	0xb551d536	-7.816883e-07
243	0x355481d6	7.916509e-07
244	0x35ad5a01	1.2915699e-06
245	0xb5d82464	-1.6103845e-06
246	0xb4bcc24a	-3.5159093e-07
247	0xb55b6489	-8.1730155e-07
248	0xb41cb24c	-1.4593496e-07
249	0x351f1502	5.9262686e-07
250	0xb51cccd8	-5.8412616e-07
251	0xb55a1df7	-8.1254933e-07
252	0x3499f8bc	2.867945e-07
253	0x33b36611	8.353903e-08
254	0xb4a948ec	-3.153176e-07
255	0x31982d16	4.428908e-09
